weights/geese_net_alpha_fold0_best.pth (torch, 517940 bytes, 80 tensors)

conv0.conv.weight f4 [32, 30, 3, 3]
00000000: f845 863d 0296 703d 6bc5 a0bd 048f 2a3d
00000010: 8ec0 4e3b c0b3 863d bc33 19bd 0c02 033d
00000020: a914 6abd 0f44 0b3c 3e8c c53c 609f 89bd
00000030: 661b d63d ad06 36be c3ca 683d d83f 49bd
00000040: 25eb b33d 4e00 5bbd 23df b53c b902 743c
00000050: c8f7 e4bc ccec 603d 6fed 27be e6f8 f83c
00000060: 6b17 09bd 9e05 8f3d 9b74 2abd 8fa1 ec3c
00000070: 1697 693d 54cb 06bd 241b 603d 06c1 5bbe
00000080: 4e86 783d 8479 6bbd a57b 823d 7f24 8fbd
00000090: 6ead d2bd 9487 08be 6a2d 0cbd 601b f0bc
000000a0: 2ac1 15bd e76b ee3c aee4 2d3b 0c01 4abd
000000b0: 8f27 27bc 8b97 10bd 1447 503d 9a16 91bc
000000c0: 3307 0a3d 153f b5bc cdc5 003d dde6 9ebc
000000d0: 2942 223d 0231 703b 95e5 17bc 6b2c f23b
000000e0: 2f4c 4abd 0d7a 6e3d 8990 2fbd 7839 093d
000000f0: c52b 15bd 290b b53c 043a 553c 61f9 53bb
00000100: 22bf 4ebb bee0 023d cc11 063d df69 78bd
00000110: 3515 893d dfdf cf3c 18d0 083d aaa8 bebc
00000120: b6f2 88bd 4c9d 23be ec2b 1abd aabf cbbc
00000130: df55 1ebe ebc8 8dbc 89ee e13c 1736 64bb
00000140: 1043 a23b fc6b c63a 4e99 14be 96f0 8d3c
00000150: 7840 aebd 6ec8 0abe f906 3fbd b6a2 e63c
00000160: 7370 93bd cb22 183d 1400 26bd cb07 d6bd
00000170: 225f 15bc 8582 a7bd 06dc 1ebe 4546 6bbd
00000180: d538 273d 31bc 65bd 5f22 103d 0da1 91bc
00000190: 20d1 1dbe a5a9 b13a 3b16 97bd e011 00be
000001a0: 5509 61bd 44b3 013d a556 35bd f7b5 eb3c
000001b0: 7792 333c f680 c1bb 366c 133c 04d9 c7bc
000001c0: 6c4a 353d 4502 eb3c 3411 56bc e165 803d
000001d0: d008 efbc 45ff 433d 36a0 dabd d1bf 743c
000001e0: ccbb eabc b923 06be 5567 ee3b 294e edbc
000001f0: 893e e13c e5c3 023b c3d8 c43b ca0e 0cbe
00000200: f738 8d3d 6594 6dbd d1c1 b7bd f323 a4bd
00000210: aa20 65bc 1e80 47bd 93b3 713d 4969 453c
00000220: 4a49 12bd 334b 143d 562c 85bc b73d 9fbd
00000230: aa6a f0bc 3975 f3bc c980 823c 2411 af3c
00000240: a193 83bc 87cb c03c 3fe2 61bb 5d58 5cbc
00000250: ba58 b3bc b206 5f3d 4cea 59bc 6730 ff3d
00000260: e6f8 c9bc ca63 1e3e d12c b73e 2eff b03c
00000270: 268b c43c 9fdf 783e 3023 79bc 5d36 36bd
00000280: c683 0b3d 19ed 0f3c d843 ae3d 43a4 843e
00000290: 0860 6abc 7654 183e e3fb c03e 3745 713d
000002a0: 07f0 abbc d9bd c93d a716 67bd bc83 e33d
000002b0: 3665 5e3e 72cd fe3c deac 263e 2fa3 ce3e
000002c0: 9e87 7d3d 8792 16bd fd9c d83d 8fa6 80bd
000002d0: 7aff d93d 5a72 953e 0ac3 9d3c d754 0c3e
000002e0: d793 b33e 1959 823d 45d2 18bd 067f bd3d
000002f0: 2a85 4bbd 15cf debc d898 26bd 6759 7c3d
00000300: f8b6 81bc bfb8 5b3c d3fc 0dbc 0453 51bc
00000310: 47be 903d b35b 1dbd d200 d43a a215 99bd
00000320: 729a 203d 160d dcbc d85f a9bd 1eb7 783d
00000330: c718 a33c e7d0 cd3c b59c 60bb 18d0 1ebc
00000340: f0c5 32bd 7e78 553d b197 0dbd f1b7 10be
00000350: 0c62 a13d 26f0 623d 8759 493c f9e0 733c
00000360: a8f6 a33c c3cb 12bd 9560 95bc 2cc8 96bd
00000370: e0a3 8fbd 275f 083d 756b b23c c695 dabc
00000380: ced5 283d 5d2f 033d 9491 ab3c d6dc ee3c
00000390: 01e3 d03c 8757 1ebc 72f1 98bd 09d8 7abb
000003a0: f913 b23c 433b 62bd 769d e33c 0399 e83b
000003b0: dd68 7bbc 2c83 67bc df04 35bd e577 6abd
000003c0: 6234 443b b629 663d fa49 303d c01c d1bc
000003d0: c3c0 a2bc 24ad ebbc 08ec e4bb d68f 233b
000003e0: 62c5 87bc f406 99bc 1d49 a73d 801d 333d
000003f0: ddfc c43c 4edf 103d 096b 4cbc ca59 81bc
0.06556314 0.05873681 -0.078501545 0.041640297 0.0031547877 0.06577253 -0.037402853 0.031984374
-0.05714861 0.008500113 0.024114724 -0.067198515 0.104544446 -0.17775984 0.056833994 -0.04913315
0.08785085 -0.053467087 0.022201126 0.014893227 -0.027950183 0.054913327 -0.16399167 0.030392122
-0.0334696 0.06983493 -0.04161511 0.02888563 0.057028852 -0.032908753 0.054713383 -0.21460351
0.060674958 -0.057488933 0.063712396 -0.06989383 -0.10286985 -0.13332969 -0.034222998 -0.029309928
-0.03656117 0.029104186 0.0026534009 -0.049317405 -0.010202303 -0.035300773 0.050849035 -0.017710973
0.033698272 -0.022124806 0.031438638 -0.019397194 0.039613876 0.0036650305 -0.009271045 0.007390549
-0.04938906 0.058221865 -0.04286245 0.033502072 -0.036418695 0.022100048 0.01301432 -0.0032344686
-0.003154703 0.031952612 0.032731816 -0.06064784 0.06693498 0.025375305 0.03340158 -0.023273785
-0.066869184 -0.15977973 -0.037639543 -0.024871666 -0.15462445 -0.01730772 0.027579563 -0.003482228
0.004951842 0.0015138383 -0.14511606 0.017326634 -0.0850839 -0.1355302 -0.04663751 0.028153758
-0.07199182 0.037142556 -0.04052742 -0.10450705 -0.00911692 -0.081791915 -0.1551362 -0.05744006
0.040825684 -0.056087676 0.03518903 -0.01777699 -0.15411806 0.0013554586 -0.07377287 -0.12506819
-0.05494054 0.0316651 -0.044272084 0.028773291 0.010960213 -0.005905266 0.0089979675 -0.024395473
0.044260427 0.028687606 -0.013065625 0.06269432 -0.029179007 0.047850866 -0.10675089 0.014938311
-0.028654002 -0.13099565 0.0072755017 -0.028967934 0.02749564 0.0019953188 0.0060072853 -0.13677517
0.06895631 -0.05800285 -0.089725144 -0.08014669 -0.0139848385 -0.048706166 0.059009146 0.012049028
-0.035714425 0.036204528 -0.016256493 -0.07775443 -0.029347736 -0.029718982 0.01593055 0.021370478
-0.016061606 0.02353455 -0.0034467129 -0.013448802 -0.021892894 0.054449745 -0.01330049 0.12460404
-0.024654817 0.15467754 0.3577638 0.021606054 0.023992132 0.24304055 -0.015206143 -0.04448544
0.034061216 0.008784556 0.08509034 0.25906572 -0.014305122 0.1487597 0.37692174 0.0589039
-0.020988477 0.09850664 -0.056418087 0.11109111 0.21718296 0.031103823 0.16276881 0.40358874
0.061896913 -0.036760833 0.10576818 -0.062817685 0.106444314 0.29188806 0.019258041 0.13704239
0.3507373 0.0636465 -0.037309904 0.092527434 -0.049687542 -0.027198354 -0.040673107 0.0616087
-0.015834317 0.013410746 -0.008666235 -0.01277614 0.070675425 -0.03841753 0.0016174561 -0.07474829
0.03920979 -0.026861709 -0.08270234 0.06072151 0.019909276 0.025124026 -0.0034273092 -0.009693168
-0.0436458 0.052116863 -0.034568492 -0.14132668 0.07880029 0.055404805 0.012289411 0.014885181
0.020015076 -0.035838854 -0.01823453 -0.073623985 -0.070136786 0.03329387 0.021779755 -0.026682746
0.041219525 0.03202759 0.02094344 0.029158037 0.025498869 -0.009664423 -0.07467927 -0.003827574
0.02173804 -0.055232298 0.027785044 0.0070983185 -0.015344826 -0.014130395 -0.0441941 -0.057243247
0.002993845 0.056192122 0.0430393 -0.025526404 -0.019867307 -0.028769083 -0.006986145 0.002495756
-0.016573612 -0.018680073 0.08168242 0.043729305 0.024046356 0.03536921 -0.012476691 -0.015789885

conv0.conv.bias f4 [32]
00000000: be09 18b9 3f28 8438 1481 8a37 57bb 1d39
00000010: b392 5d37 e299 35b8 32c1 0db8 7b7c 8bb8
00000020: 8796 adb8 eda4 bbb6 f3e4 5538 a48f a9b8
00000030: 3f96 d138 51f8 0838 5d6d ff37 8174 7c38
00000040: cbcb 7f37 b663 8a38 c1ed 1b38 5805 eab8
00000050: fbb6 3e38 ec8e 8d38 c18d ccb6 9274 c4b7
00000060: 2f42 1939 c1e8 05b9 e453 cd37 9b8c 0038
00000070: 3b46 83b7 c903 0cb7 7cac 0237 b9f6 c637
-0.00014499479 6.301747e-05 1.6510989e-05 0.00015042476 1.3206783e-05 -4.3297077e-05 -3.3796947e-05 -6.651223e-05
-8.277321e-05 -5.592234e-06 5.0996383e-05 -8.085303e-05 9.993882e-05 3.265619e-05 3.0449295e-05 6.0189985e-05
1.5246634e-05 6.5989254e-05 3.7176305e-05 -0.00011158985 4.5469944e-05 6.750025e-05 -6.096176e-06 -2.3419303e-05
0.00014615872 -0.00012770576 2.4476969e-05 3.0648527e-05 -1.564912e-05 -8.345532e-06 7.7887635e-06 2.3718329e-05

conv0.bn.weight f4 [32]
00000000: 3dad 603f a65b 373f 13b5 2e3f a3f9 833f
00000010: 6dc0 353f 3659 343f 6a19 1f3f c8c5 043f
00000020: 7ee5 3b3f 0ef3 463f 67ea 273f 9469 993f
00000030: 6818 2c3f 092d 523f 5698 243f 45f9 703f
00000040: ff02 0d3f 6062 0f3f 2580 563f c968 1d3f
00000050: d295 0b3f 32c2 1c3f 6f2d 1f3f 2c08 423f
00000060: 881c 3d3f 9d71 593f b1d6 463f 070e 6d3f
00000070: 4be8 073f 5e59 4e3f 17cb 093f eef5 7f3f
0.8776434 0.7162422 0.6824505 1.0310558 0.70996743 0.70448625 0.62148154 0.5186429
0.7339705 0.7771462 0.65592045 1.1985345 0.6722474 0.8209997 0.64294946 0.94130355
0.55082697 0.56009483 0.83789283 0.61488014 0.5452548 0.6123382 0.621787 0.7579372
0.7387166 0.84938985 0.77671343 0.9259953 0.53088826 0.80605114 0.53825516 0.99984634

conv0.bn.bias f4 [32]
00000000: 82c0 22be 6b6d acbe 5a96 803d 0da5 a6bc
00000010: 87e3 11be 4e28 89be 8042 5bbd 9846 a7bd
00000020: 2ab6 2fbd 9211 a63d c6f0 9dbc 4b14 1bbf
00000030: ea76 fc3d 499d cd3d 354d d4bd 4820 a1be
00000040: a71b 77be bed0 4a3c 0159 07be a239 c5bd
00000050: d7aa 983d 102c 43bd 844e 71be cb22 c23d
00000060: ceb6 35bd 207c 2d3e 1c29 8cbe ae1c e23d
00000070: 1f85 b4bd 7610 f9bd 46f7 0abe 0892 a4be
-0.15893748 -0.3367723 0.06278677 -0.020342374 -0.14246951 -0.26788563 -0.053530216 -0.081677616
-0.042898335 0.0810882 -0.019279849 -0.6057784 0.123273686 0.100397654 -0.103662886 -0.3146994
-0.24131642 0.01237887 -0.13217546 -0.09630133 0.0745446 -0.047649443 -0.23565108 0.094792925
-0.04436379 0.16941881 -0.27375114 0.110406265 -0.08814453 -0.12161343 -0.1357089 -0.32142663

conv0.bn.running_mean f4 [32]
00000000: 0f9d cb3b 887c 0d3f b20c 9cbe 8a76 1abe
00000010: 6a0f 153e fec6 5a3c f609 003e e44e 6f3e
00000020: cd80 f13d 244f 97be c505 20bc bb70 97bc
00000030: 287b f3bc e3c4 913d 9d80 08be 2786 4f3c
00000040: 33da 47be f56a 7abd a02c 10bd 91a7 953e
00000050: 41cf 613d 6435 89bd ad38 b7be 9550 45bc
00000060: e9ca 83be 892f 843e 9fd9 653d 2875 9a3e
00000070: 41f2 8dbd df7d c43d 9b39 babd c3b1 4e3d
0.006213791 0.55268145 -0.30478436 -0.15084282 0.14556661 0.0133531075 0.125038 0.23369938
0.11792145 -0.29552567 -0.009767001 -0.018486371 -0.029721811 0.07117631 -0.13330312 0.012666262
-0.1951683 -0.06113716 -0.035198808 0.29229406 0.055129293 -0.066996366 -0.35785428 -0.012043138
-0.25740746 0.25817516 0.056115743 0.30167508 -0.06930972 0.095943205 -0.090930186 0.050462496

conv0.bn.running_var f4 [32]
00000000: 33c0 403d 26b3 a03d f4a8 8f3d 0762 443d
00000010: d8e9 143e f849 1a3d 375d 4d3d 93e5 0e3d
00000020: 85b8 033d 170d bf3d 3f74 5a3d 4693 c03c
00000030: f0ba f13c c24c ac3d 914c f33d ab7e 553d
00000040: 298d c73d ebe2 203d b752 483d b1f4 3a3d
00000050: 8bfe 493d 9b95 743d 3462 7f3d a089 0a3d
00000060: e790 ba3d 9d21 693d b618 0b3d 89f6 6f3d
00000070: f4eb 853d 8af5 2f3d 77fe 3c3d 1a05 333d
0.047058295 0.0784667 0.07014647 0.04794505 0.1454233 0.0376682 0.050137725 0.034886908
0.032158393 0.093286686 0.053333517 0.023507725 0.029508084 0.08413078 0.11879838 0.052122753
0.09743721 0.039278906 0.048907008 0.045643512 0.049315017 0.059712987 0.062349513 0.033822656
0.09109669 0.05691682 0.033959113 0.058584724 0.06539145 0.042958774 0.046141114 0.043706037

blocks.0.conv.weight f4 [32, 32, 3, 3]
00000000: 34b8 b8bd d157 7bbd ddf5 01be 4c42 d9bc
00000010: 24e2 a2bd 4e46 e0bd 58eb bb3c 5e8a 32bd
00000020: a406 15bd 3365 08bd 72a5 7bbd 1918 0a3c
00000030: 834c 413d 1774 393e 3c72 b73d 092e 7c3c
00000040: c88e 1dbd 8e7f 993a 92f9 11bd 91af e3bc
00000050: 32e0 c9bd 986a 81ba 13cc 4cbd e8fa afbd
00000060: 315c f83d 42a9 8dbc 0273 06bd b200 993c
00000070: 95ba 1d3d 41df 09bc 0917 08bd c815 2fbd
00000080: cd76 c53c f3f7 f63c e026 f93c a11f ed3c
00000090: 3932 f1bd fdc1 9c3d a1f3 f3bc dee6 133d
000000a0: 14e1 29bd 4018 aabd 8254 743d 093d 113d
000000b0: 4c70 c4bd 6312 a0bd c904 cc3c 3a3b 0cbe
000000c0: 8362 053d 1a9b 693e e43d 8dbc f10f 8cbd
000000d0: 336c f03c c821 c43c 1f46 e2bd f538 b2bd
000000e0: 8850 72bd 1760 3f3d bced 263d 2ec1 b2bc
000000f0: 9b29 01be baac 7cbd 615a f73b 84ae 07bd
00000100: 422b 95bd c843 29bd 1d06 50bd a27c 3a3c
00000110: fc0e 84bd e8e8 6fbc 53d9 01be ddd5 513d
00000120: 4730 303d 1303 02bd 8bc0 953c 296d d2bc
00000130: 83b6 813d 66a0 b13c 090d d7bd f30c b63d
00000140: ba6e b03c bb12 b43d 59b8 c93a 4fc9 bcbd
00000150: 97da 70bb 6be8 a83c bea6 84bd ad00 e03c
00000160: 3d21 5fbc a882 9fbd bd1b cabd 7d8f 0d3d
00000170: 0127 15be 55e9 79bb afd3 243d 8a9a 84ba
00000180: 2610 09be 4dcb a23b 2984 9cbd 1fed 28bd
00000190: 2819 8bbe be74 1bbd 6ad6 9ebe eafc 02be
000001a0: 81e0 c1be 1140 7fbd e1eb adbe e351 813d
000001b0: 9e71 823b bf2d 683d c375 f5bc e509 26bd
000001c0: 421f 7dbd 70ba 89bd 020b 38bc 131c 36bd
000001d0: 8962 37bd 0c9b 723d ee2f 713c 6a74 2eba
000001e0: 27ae d3bc 6314 88be 009e c1bc 531b cf3d
000001f0: c711 4d3d 92c1 003e 2df4 6c3d aeb9 723d
00000200: 96be 97bb 7531 96bd 4999 aebd eb7b 9ebd
00000210: 71bf e8bc 9d10 e139 e01c 823c fddf b63d
00000220: cc8f 99bc 38ef 9b3d 6de9 3a3e dec2 233d
00000230: cb7d 873d e589 213e d1c9 893d 79eb 803d
00000240: 68e9 94bd c880 92bc 49b1 f83b cb58 d5bd
00000250: b605 45bc 21aa 44bd 8513 f6bc e90f 97bd
00000260: f879 3dbd 70af 4bbd feef 8abc 1dfd 8bbc
00000270: f01f 90bd 7ae0 88bd fc36 063c 27fd 60bc
00000280: 0376 e13c 6b6a 26be 2bf2 d3bc 7716 2d3d
00000290: 15c6 9f3d ca96 c73c f285 f53d 8372 d03d
000002a0: 815f c0bb f100 383d 9192 61bd c686 5cbd
000002b0: 1fdd ec3c 9499 98bd f39a 3c3d 9b68 38bc
000002c0: 8b4e 34bc b6ef dfbd f8e2 ec3c 8e78 4dbd
000002d0: 6d28 333c 05ff a7bc 6b9c 0e3e e0a3 bc3c
000002e0: 7805 16be e4d7 acbd b7b9 e1bc 7e24 d3bd
000002f0: f01a 15be 02db 79bd 145f 713c 0f24 ae3d
00000300: 3d14 6fbc 5bfb 943c 7595 803c b945 c4bd
00000310: ffc4 2d3d 6b43 413d 59c1 e4ba d178 b33c
00000320: 4b6e 443d 19f2 abbd 9e35 c0bc 3b23 a2bd
00000330: e3bd 5f3d 4f54 09bd c237 02bc f92b 6abc
00000340: ae1c 62bd 67a5 cbbc f587 a33d 8a72 883d
00000350: 6023 103d 28b5 6fbb c1a8 02bd 0767 d1bc
00000360: caf2 e73d eb97 f43d 9a8c d53c 02c4 943d
00000370: f3ff 2f3e 9b7f ae3c 16c6 613d 478d 5c3d
00000380: 2cb2 9ebb e27f 163d 7373 1a3d 9332 c53d
00000390: 87d0 253d 1998 29be c9e2 2cbd f832 b83c
000003a0: f27e 7bbc 06d5 ec3d af94 583c 9abb 45bd
000003b0: bcc8 183e 1e14 9a3d 28db 303d d2bf 5838
000003c0: a7c3 2fbd 6301 d4bd 2e6c 153e 2575 943d
000003d0: e0a0 7dbb a962 613d 77d3 79bd c210 f9bd
000003e0: a079 c3bd cf7f 793c fb0a a53c 3c6d 343d
000003f0: 2530 333b ba7f d03c 718e d8bd 0fd3 86bc
-0.09019509 -0.061363045 -0.12691446 -0.02652087 -0.07953289 -0.109509096 0.02293937 -0.04358899
-0.036383286 -0.033299636 -0.061437078 0.008428597 0.047192108 0.18110691 0.08957335 0.015391835
-0.038466245 0.0011710988 -0.0356384 -0.027793678 -0.09857215 -0.0009873686 -0.049999308 -0.085927784
0.12126959 -0.017292622 -0.032824524 0.01867709 0.038508017 -0.008415044 -0.033225093 -0.04274538
0.0241045 0.030147528 0.030414045 0.028945746 -0.11777157 0.07654188 -0.029779257 0.036108844
-0.041474417 -0.083054066 0.059650905 0.0354586 -0.095917314 -0.07816007 0.024904625 -0.13694468
0.03256465 0.22813073 -0.017241426 -0.06838978 0.029348468 0.02394189 -0.11048531 -0.0870227
-0.05915883 0.046722498 0.040754065 -0.02182063 -0.12613527 -0.061688162 0.007548616 -0.033125415
-0.072836414 -0.041324407 -0.05078708 0.011382254 -0.064481705 -0.0146429315 -0.12680559 0.051229347
0.04301479 -0.031741213 0.018280288 -0.025686817 0.063336395 0.02168293 -0.10500533 0.088891886
0.021537174 0.08792635 0.0015390023 -0.09218084 -0.0036751383 0.020618638 -0.06477116 0.027344072
-0.0136187645 -0.077885926 -0.09868572 0.03456067 -0.1456566 -0.0038133461 0.04024094 -0.0010116857
-0.13385066 0.004968083 -0.07642395 -0.04124176 -0.2716763 -0.03795313 -0.3102296 -0.12791792
-0.37866595 -0.062316958 -0.33969024 0.06314447 0.0039808294 0.056684252 -0.02996338 -0.04053678
-0.061797388 -0.06725013 -0.011233093 -0.044460367 -0.044771705 0.059229895 0.0147209 -0.000665492
-0.025839878 -0.26578054 -0.02363491 0.101126336 0.050065782 0.12573841 0.05785005 0.05925911
-0.004630874 -0.07333652 -0.085253306 -0.07738479 -0.028411599 0.00042927722 0.01588291 0.08929441
-0.018745326 0.07613987 0.18253107 0.03998076 0.0661579 0.15775259 0.067279465 0.06294913
-0.07271081 -0.017883673 0.0075894934 -0.104173265 -0.012025287 -0.04801381 -0.030038605 -0.073760815
-0.046258897 -0.049727857 -0.01696014 -0.017088467 -0.070373416 -0.066834405 0.00819182 -0.013732231
0.027522093 -0.16251533 -0.02587231 0.042257752 0.07801453 0.024363894 0.11988439 0.101780914
-0.00587076 0.044922773 -0.055071417 -0.053839467 0.028914033 -0.07451168 0.04604621 -0.011255409
-0.011005054 -0.10934393 0.02891682 -0.050163798 0.010934931 -0.020507345 0.13926856 0.02302736
-0.14650524 -0.08439615 -0.027554376 -0.10309695 -0.14561057 -0.060999878 0.014732141 0.085029714
-0.0145922275 0.018186262 0.015696267 -0.09583611 0.0424242 0.047183435 -0.0017452642 0.021908196
0.047956746 -0.08395786 -0.023463067 -0.07916876 0.05462445 -0.03352767 -0.007947864 -0.01429271
-0.055203132 -0.024859143 0.07984916 0.066624716 0.035189986 -0.0036576483 -0.031899218 -0.025561823
0.11325605 0.119430386 0.02606802 0.07263948 0.1718748 0.021301081 0.05512055 0.05384567
-0.004843017 0.036743052 0.037707757 0.09628787 0.04048207 -0.16561927 -0.042208467 0.022485241
-0.01535009 0.115640685 0.013219043 -0.048274614 0.14920324 0.07523368 0.043177754 5.167706e-05
-0.042911198 -0.10351827 0.14592049 0.07248906 -0.0038700625 0.05502573 -0.060992684 -0.121613994
-0.095446825 0.015228226 0.020146837 0.044049487 0.0027341929 0.02545153 -0.105740435 -0.016458062

blocks.0.conv.bias f4 [32]
00000000: aecb a233 613d e336 7eb5 3b37 105d af37
00000010: 08bf 6e37 54da f237 ee60 92b7 4f92 78b7
00000020: b860 d936 1fc7 1cb7 c53b 23b7 976d e736
00000030: 7d23 6b37 a2f8 54b7 35c1 2336 c5ca c0b6
00000040: 1df3 ba37 588d 04b7 b06a 5ab6 2b77 a3b6
00000050: 099c ab37 7bb5 59b8 8a84 b5b5 874f 2e36
00000060: b0ae 17b7 52e6 a534 b6ad b0b5 579c 3c37
00000070: 893f 7337 5d83 9737 21e9 b6b7 da64 cd37
7.580762e-08 6.7722726e-06 1.11883255e-05 2.0904961e-05 1.4230383e-05 2.8950315e-05 -1.7449693e-05 -1.4816017e-05
6.4783635e-06 -9.344686e-06 -9.729473e-06 6.8970944e-06 1.4015354e-05 -1.2694074e-05 2.4401354e-06 -5.7456514e-06
2.2286136e-05 -7.900722e-06 -3.2546632e-06 -4.8716515e-06 2.0457448e-05 -5.190585e-05 -1.3524125e-06 2.5974311e-06
-9.040974e-06 3.0901225e-07 -1.3163578e-06 1.1242074e-05 1.4498722e-05 1.8061774e-05 -2.180465e-05 2.4484867e-05

blocks.0.bn.weight f4 [32]
00000000: f060 7d3f b870 5c3f 6ec2 333f d43e 3a3f
00000010: d401 3c3f 042c 703f 72dc 653f 7949 703f
00000020: 2535 283f 9d20 503f b128 393f 626a 423f
00000030: fd58 413f e72f 513f d236 323f a430 583f
00000040: 2f7f 773f 3c8b 833f 1e8e 3a3f 7299 683f
00000050: a26c 5a3f 85ab 813f c547 5a3f cff9 4b3f
00000060: 57a5 7e3f 7ce2 6b3f a614 483f cf7f 4e3f
00000070: cb7c 7b3f 6206 773f be72 7f3f f2a4 633f
0.9897604 0.86109495 0.7021855 0.7275212 0.7344029 0.9381716 0.897895 0.9386211
0.6570609 0.81299764 0.72327715 0.7594358 0.7552641 0.8171372 0.696149 0.8444922
0.9667844 1.0276866 0.72873104 0.9085914 0.8532201 1.0130469 0.8526576 0.7967805
0.9947104 0.9214246 0.78156507 0.8066377 0.98237294 0.96494114 0.9978446 0.8892356

blocks.0.bn.bias f4 [32]
00000000: fe14 b6be 394c 9bbe 5d78 b3bd 5042 86be
00000010: e10e 483c b0f2 72be a4a5 6abe 47cf a3be
00000020: 36c5 92bb 271f 4d3d d52e 1bbe e0b6 93be
00000030: 5102 81be f312 78be a1aa 29be ae26 3dbd
00000040: c738 c6be 13e5 8cbe 3e18 e5bd 9b2d a4be
00000050: 0cce 67be cd4f 92bd 5b77 87be f9fb 36be
00000060: 7262 51be bef7 d9bc 3a2b cdbe d9d1 6fbe
00000070: 7e0b 29be 1c42 90be 6026 a6be cad2 97be
-0.3556289 -0.3033159 -0.08763192 -0.26222467 0.012210579 -0.2372539 -0.2291475 -0.31994078
-0.004479076 0.050078537 -0.15154584 -0.2885046 -0.2519708 -0.24225979 -0.16568996 -0.046179466
-0.38715193 -0.2751852 -0.111862645 -0.32066044 -0.22637194 -0.07144127 -0.26458248 -0.17869557
-0.2044771 -0.02660739 -0.40072042 -0.23419894 -0.1650829 -0.28175437 -0.32451153 -0.29653007

blocks.0.bn.running_mean f4 [32]
00000000: 0bb1 83bf 4ca2 31be c904 333e 1dfd 2ebf
00000010: 1c26 5a3e 455c e5bd 85aa 653e c52b 463f
00000020: 5153 08bd 2a47 76bf 5ee9 1cbf 7fc0 813f
00000030: 8f43 2abe 467d a6be fe4b 7f3e 2f0f 0abf
00000040: 3fd0 c6be d18d f6be f4e4 4fbf 74db 403e
00000050: 1984 26bf bde6 50be 3030 5f3f 8e44 853e
00000060: 98cb a6be a073 a8bf b7e6 8e3e c745 b5be
00000070: e90e 29be 554d fabe a640 4abe 526e 263e
-1.0288404 -0.17347068 0.17482294 -0.6835497 0.213036 -0.1119924 0.2242833 0.77410537
-0.03328258 -0.9620234 -0.6129359 1.013687 -0.16627334 -0.3251745 0.24931332 -0.5392942
-0.38830754 -0.48155072 -0.8120873 0.18833715 -0.65045315 -0.2040052 0.87182903 0.26028866
-0.32577205 -1.3160286 0.27910396 -0.35404798 -0.16509594 -0.48887125 -0.19751224 0.16253021

blocks.0.bn.running_var f4 [32]
00000000: 7975 a93f 14bf 0d3f 011a 043f 8d13 4e3f
00000010: e5d3 443f 644a 353f cb98 273f 77a9 263f
00000020: 45ba f03e 6ab0 283f b9b1 4b3f 03cf 0e3f
00000030: a3b7 193f 02ec 0e3f 24f0 a13e fcf2 913f
00000040: b572 b73e 25c1 353f 6eb4 ac3f a8be 323f
00000050: ecc9 153f 845a 3d3f ab00 3b3f aa06 4e3f
00000060: c82e ac3f 4532 283f 71db 133f e6f4 253f
00000070: 3247 383f d217 253f 5c05 5a3f 859e 083f
1.3238975 0.5536969 0.5160218 0.8049858 0.76885825 0.70816636 0.6546752 0.6510233
0.47017112 0.65894186 0.7956806 0.55784625 0.6004583 0.5582887 0.31628525 1.1402278
0.35829702 0.7099784 1.3492563 0.6982217 0.58511233 0.7396624 0.73047894 0.8047892
1.3451777 0.65701705 0.57756716 0.6482681 0.71983635 0.6448947 0.8516443 0.5336688

blocks.1.conv.weight f4 [32, 32, 3, 3]
00000000: b349 173d 0c53 053c 5c11 163e c16e ac3d
00000010: 7851 49be c9b6 003e 70c3 923d 5741 bcbc
00000020: b767 fd3d c533 c93d 5380 20bd 5997 d43c
00000030: 0c43 923d ec7f aa3c 9bd0 253d 605f 153c
00000040: 7012 ccbd e7a0 013d 5a5c a33d 8d9b 0d3d
00000050: d7f1 83bb 8773 47bd ad81 33bd 0025 8ebd
00000060: 5b1d 95bc fdcb 3fbd 8145 e93c 9c7b 013e
00000070: 1b20 183e 93b2 5fbc 6043 c13b d813 1dbc
00000080: 7b99 413d e4c4 2f3c 6c77 603d 737c 673d
00000090: 180c bebd 53fb 143d 7acf efbb 7d0c 06bd
000000a0: b7ba 6e3c 7cc4 a0bd d92d 50bd fd76 2e3d
000000b0: 6bb4 243d 5918 a73d ca3b 0f3e 003c 3ebd
000000c0: 6515 8c3b 4909 07be 8615 c8bc d0b6 62bd
000000d0: dd94 2fbe 3c41 73bd 2d47 003b 4e2a 6e3d
000000e0: 15e8 6f3d 802b 923d 700c de3b 4af4 3bbd
000000f0: 5e5c 953c fdc6 b1bd 4d07 b5bc 19ec a2bd
00000100: e58f ef3d 0bbf 003e 145e b03b 06df f3bd
00000110: 9132 f23d 3176 cabc 552e b5bc dfa8 2d3d
00000120: 02a1 0a3d cc1c 813c 94e5 cf3c cefe 6c3a
00000130: 660e aebc 2534 aebc 1ee1 113d b767 ee3d
00000140: 4319 a53d bafb 893d 2ee0 11bc f818 acbd
00000150: 9778 e83c 54b6 0ebc 01d3 86bd fafb 70bc
00000160: 7775 33bd 3ed5 bbbc bd36 743d 1b25 b83d
00000170: 92c6 ab3d 39d4 3c3d 7dce 163c 672b a4bc
00000180: 90d1 0c3e ae11 973d f2d5 8a3d f7a5 ce3d
00000190: 329b 0fbe 5f4e 3cbe 9b89 cabd 835d d9bb
000001a0: d60a 09be ac6d 013d d539 a7bd 15db 57bb
000001b0: 9c8f 02bc 9fd4 76bb ece4 933c 139d d2bd
000001c0: f1be 1bbd 449b 1abd ee5a 9f3d 0ea8 7abc
000001d0: 9362 83bd fa65 76bd 1403 bfbd e322 8ebd
000001e0: 74f1 f5bd 293a 89bc 597b c7bd f072 5dbd
000001f0: abfb b3bc 1a07 bb3d 461e 39bc 971d 7d3d
00000200: 470f abbc e750 ebbd f406 19bd f95f a63d
00000210: 0ee7 02bd c652 7fbc 703a 043c 656a 733d
00000220: d420 86bd a235 c9bd 2075 2bbd bffe 43bd
00000230: bbab 0f3d dfd0 603c aac0 0c3d 5100 43bd
00000240: 2047 c6bb be3c 8d3c 039b 353d 13e1 50bc
00000250: ba94 08be fdf1 48bc 9bf2 603c 1305 663c
00000260: 6106 0b3c bd5a 413d ceb4 583c 6f88 e5bd
00000270: 8d80 d7bc 9153 da3c 6776 a6bc 5cf1 b5bb
00000280: 20bd a43c 984c 083d 8fca 9fbd e437 9cbc
00000290: b411 12bc 0fa8 0abd 568a 86bd 1c67 093d
000002a0: 61e1 bb3c 8839 05bc f08a 95bc ef1b d23d
000002b0: e06c f23c 0c1f e1bd 4a71 71bc f4de 9e3d
000002c0: af5a 05bd 88bb a5bc 3fa6 733d 20f2 80bd
000002d0: bf88 4c3d 0478 5bbd f1d1 933d 8408 b03d
000002e0: dda9 76bd 452a 5a3c f1f1 ff3d bf02 213d
000002f0: ca4a 6f3d 332e e3bc 51db 97bd d8a1 03be
00000300: 3667 d13d 0fa1 9dbd fa6a c33d 8933 a43d
00000310: 9d06 a93d da24 edbc 68c0 33bd cceb 3cbb
00000320: cfa0 003d 80ce 50be 7653 4dbd 5d5d 7d3c
00000330: 73d7 0e3d 819f 983c 1c0d ac3c 4e0d d03b
00000340: 647b a9bb bdfb 223b 0b82 d0bd cf8a 88bd
00000350: fd04 c9bd f9cb 0abc 3478 0fbc 55b3 32bc
00000360: 1843 f93d 9d85 883d ea81 463d 3ad3 8f3d
00000370: 72b6 82bc c22a e33b 872e 013e bd3c 50bd
00000380: 2996 383c ee5d c8bb 0b09 51bd e76d 433c
00000390: 5138 6ebd bca4 95be 4d06 34bd 0529 0d3e
000003a0: 6b7c 0dbe f37c 37bc 196d c9bd ea4b c6bd
000003b0: 1769 b2bd a122 303d e42c f4bc 1750 1fbe
000003c0: d3f3 51bc ece8 e0bd a1e6 96bd c8b6 a13c
000003d0: d09c b9bd 9f1b ff3d b2f7 93bd 3090 90be
000003e0: 0a4c e63d 3468 373c 74fe 753d 5217 3e3e
000003f0: 4288 ec3b 5f23 753c 9dad 37bd badc c63d
0.03693552 0.008137476 0.1465506 0.08419562 -0.19659984 0.12569727 0.07166183 -0.022980375
0.12373298 0.098243274 -0.03918488 0.025951074 0.071416944 0.020812951 0.040482145 0.009116977
-0.09964454 0.03164759 0.07976599 0.034572173 -0.0040266323 -0.04869416 -0.04382484 -0.06940651
-0.018202474 -0.046825398 0.028475525 0.1264481 0.14855997 -0.013653415 0.0058979243 -0.009587251
0.04726551 0.010728095 0.05480139 0.05651517 -0.092796504 0.036372494 -0.0073184343 -0.032726754
0.0145708835 -0.078499764 -0.050824974 0.042593945 0.040211122 0.08158941 0.13987651 -0.04644394
0.0042750114 -0.13187136 -0.024424326 -0.055350125 -0.1714663 -0.059388384 0.0019573674 0.058145814
0.05857094 0.07137203 0.006776385 -0.04588727 0.01823252 -0.08680532 -0.022098208 -0.07955188
0.116973676 0.12572877 0.0053823087 -0.11907773 0.11826051 -0.024714561 -0.02211682 0.042397376
0.033844955 0.015760802 0.025378026 0.00090406544 -0.0212471 -0.021265099 0.03561508 0.11640876
0.08061459 0.06737466 -0.008903546 -0.084032 0.028377814 -0.008710463 -0.065832146 -0.014708513
-0.043813195 -0.02292883 0.059622515 0.08991452 0.08387484 0.04610083 0.009204504 -0.020040227
0.13751817 0.07376419 0.06779088 0.10090249 -0.14024046 -0.18389271 -0.098895274 -0.006633462
-0.1338304 0.031598732 -0.081653275 -0.003293698 -0.007968809 -0.0037663353 0.018053494 -0.10283866
-0.038023893 -0.03774573 0.07781015 -0.015298856 -0.06415286 -0.060155846 -0.09326759 -0.06940248
-0.12008944 -0.016751366 -0.097403236 -0.05406469 -0.02197059 0.09132214 -0.011298722 0.061795797
-0.020881308 -0.1149004 -0.037360147 0.08123774 -0.031958632 -0.0155837 0.008070573 0.059427638
-0.0654923 -0.09824683 -0.041859746 -0.047850367 0.035075884 0.013721674 0.034363426 -0.047607724
-0.006050959 0.017240878 0.044337284 -0.012748974 -0.13337985 -0.012264726 0.013729717 0.014039296
0.008485408 0.047205675 0.013226701 -0.11207663 -0.026306415 0.026651176 -0.02032013 -0.005552454
0.020109713 0.03327617 -0.07802307 -0.01906962 -0.008915354 -0.03385168 -0.06569354 0.0335456
0.022934617 -0.008131392 -0.018254727 0.10259234 0.029592931 -0.1099225 -0.014736483 0.07757369
-0.032557186 -0.020231023 0.059484717 -0.06296182 0.0499351 -0.053581253 0.072177775 0.08595374
-0.060220588 0.013315742 0.124973185 0.03930926 0.058420934 -0.02773199 -0.07414878 -0.12854707
0.10224764 -0.07696735 0.095418885 0.08017642 0.082532145 -0.028948236 -0.043884665 -0.002882707
0.03140336 -0.20391273 -0.050128423 0.015464154 0.034873437 0.018630745 0.021002345 0.0063492423
-0.00517218 0.0024869286 -0.10181054 -0.06667101 -0.098154046 -0.008471482 -0.008756686 -0.010907014
0.12171 0.0666611 0.04846374 0.0702271 -0.015956137 0.0069325874 0.12615405 -0.050839175
0.01126627 -0.006114713 -0.051034015 0.011928058 -0.058159176 -0.29227245 -0.04395132 0.13785179
-0.13816993 -0.011199224 -0.09835262 -0.09682448 -0.087114505 0.043001775 -0.029806562 -0.15557896
-0.01281448 -0.10981926 -0.07368208 0.019740477 -0.09063113 0.1245644 -0.072249785 -0.28235006
0.11244972 0.011194278 0.06005712 0.18563583 0.0072183916 0.014962046 -0.044843305 0.09710069

blocks.1.conv.bias f4 [32]
00000000: 4b65 b7b7 4b43 a4b6 8091 c8b6 3237 6d37
00000010: 9523 9136 19f5 8d36 c89a 0736 dafc 3e37
00000020: d626 b0b6 de5b e1b6 7b10 4537 9c36 3836
00000030: a47d b2b7 7679 83b7 4a34 7a36 2197 a5b6
00000040: b924 c2b6 a863 bd36 5ed4 85b7 1211 3337
00000050: 9a2d 4ab7 acf2 36b7 a271 d5b6 4364 59b7
00000060: 57e1 a9b7 eb3a 1737 8728 1fb7 2b2b 97b7
00000070: 4d72 10b5 d6c5 ceb7 8093 e636 588c 2d37
-2.1862468e-05 -4.895415e-06 -5.977403e-06 1.4139152e-05 4.325479e-06 4.2306606e-06 2.0206662e-06 1.1383754e-05
-5.24973e-06 -6.7162173e-06 1.1745952e-05 2.7449923e-06 -2.127776e-05 -1.5672977e-05 3.728334e-06 -4.934977e-06
-5.7859256e-06 5.6442404e-06 -1.5953727e-05 1.0673206e-05 -1.2050756e-05 -1.0904547e-05 -6.3611233e-06 -1.2957552e-05
-2.0251302e-05 9.014019e-06 -9.4865745e-06 -1.8020704e-05 -5.381051e-07 -2.4649238e-05 6.8717054e-06 1.034428e-05

blocks.1.bn.weight f4 [32]
00000000: 9ea3 793f eb66 443f 57d0 4f3f 8bdb 533f
00000010: 0956 6a3f 532f 773f 57bc 4f3f be16 4d3f
00000020: b012 503f d2cf 813f 34eb 5f3f f73a 673f
00000030: 1b9f 513f 21e9 5a3f 2955 5e3f 52ae 5e3f
00000040: c710 3e3f 0a19 703f 8c93 703f f009 673f
00000050: d45d 663f d7cd 473f d94d 523f d45b 513f
00000060: 6006 533f 6a92 6c3f 20b0 683f 68c1 563f
00000070: 3308 6b3f af73 523f a5f4 7c3f 02ed 533f
0.97515285 0.7671954 0.81177276 0.8275687 0.9153753 0.96556586 0.8114676 0.80112827
0.81278515 1.0141547 0.87468266 0.9032435 0.818834 0.85511976 0.86848694 0.8698474
0.7424435 0.93788207 0.9397514 0.9024954 0.8998692 0.7804846 0.82150036 0.81780744
0.824316 0.9241091 0.90893745 0.83888865 0.91809386 0.8220777 0.988108 0.8278352

blocks.1.bn.bias f4 [32]
00000000: 958e 97be 6d92 85be 42bd f3bd f52f 32be
00000010: 1ed1 89be ba4f 96be 339c 80bd 6469 d9bd
00000020: 44c4 07be 2ade 973d b469 82bd e1d1 43be
00000030: 8aa0 8abe 123a 63be 9399 30be baf7 17be
00000040: a14a 61be ec8f bfbe da48 3fbe 589e b6be
00000050: c890 adbe bbca 9ebd 7a5c 7cbe 8e8e 3fbe
00000060: 91f3 e7be d588 7abe 3a92 e9be 0b45 d3bd
00000070: 2208 91be 9acd 34be 20b7 c5be 3d6a 67be
-0.2960097 -0.26088277 -0.119013324 -0.17401107 -0.26917356 -0.29357702 -0.06279793 -0.10615805
-0.13258463 0.07415421 -0.063678175 -0.19123031 -0.27075607 -0.22190121 -0.17246084 -0.14840594
-0.22001125 -0.3741449 -0.18680134 -0.35667682 -0.33899522 -0.077535115 -0.24644652 -0.18706724
-0.45303014 -0.2446626 -0.45619375 -0.10315903 -0.28326517 -0.17656556 -0.38616276 -0.2259912

blocks.1.bn.running_mean f4 [32]
00000000: 19b4 7abf ee75 8fbd 776a aebf ac01 6dbe
00000010: 8d54 43bf 5ef1 afbf 2e3f 54bf 88db 95bf
00000020: 74f3 d7be 672c c3bf f09d cabf 6c71 6dbf
00000030: fada 19bf 6808 b6be eb30 9abf 9638 c3be
00000040: f9f9 933e 258b 04bf 5d19 28bf 363b 4e3e
00000050: 3226 e13d 3190 7abf 5286 21bf d452 b73f
00000060: e65f 20bf 4284 03bf 0db4 9fbe fe36 d1be
00000070: 2d1b 69bf d036 a2bf 4a99 babf 43aa 39bf
-0.9793106 -0.07004915 -1.362624 -0.23145169 -0.7630089 -1.3745534 -0.82908905 -1.1707621
-0.42177927 -1.5247926 -1.5829449 -0.92751193 -0.60099757 -0.35553288 -1.2046179 -0.3812911
0.28901652 -0.5177482 -0.656637 0.20139775 0.10993613 -0.9787627 -0.6309558 1.4322152
-0.6264633 -0.51373684 -0.31192055 -0.40862268 -0.9105709 -1.2672977 -1.457803 -0.72525424

blocks.1.bn.running_var f4 [32]
00000000: 8b33 e03f e003 db3f febd d73f 5560 f03f
00000010: d376 a13f 0427 d73f fa41 e03f ad89 843f
00000020: 3a65 0440 e7fa a43f 0729 3040 c76f d13f
00000030: 4255 823f 097b a33f 8830 9d3f 7cf4 e13f
00000040: 1d1e 1a40 7b3d a73f 4602 dd3f 549a a73f
00000050: d4dd 803f 0ff2 973f 32a4 943f 793f 3740
00000060: 6eb9 c63f 73e0 0d40 212b 8e3f edec 2a40
00000070: 0ea4 b33f 8525 c53f c564 953f 7b89 ae3f
1.751573 1.7110558 1.6854856 1.8779398 1.2614387 1.6808782 1.7520134 1.0354515
2.0686784 1.2889069 2.752504 1.6362237 1.0182269 1.2771922 1.2280436 1.7652736
2.408088 1.3065637 1.7266319 1.3093972 1.0067697 1.1870745 1.1612608 2.863249
1.5525339 2.2168243 1.1106912 2.6707108 1.403444 1.5402075 1.1671377 1.3635706

blocks.2.conv.weight f4 [32, 32, 3, 3]
00000000: 1da5 cbbd e85d 27be ce92 e83c 523b 08be
00000010: da1f 4cbe 71bc b8bd 9cbc fbbd 2d17 58bd
00000020: 6587 cf3d 10ba 003d eac7 093d bb3e b9bb
00000030: ac12 f33c 00c4 01bd 8abe 2b3e 0132 20bd
00000040: dabe 2cbb 8e5e e4bc daeb bfbc 4e70 04bd
00000050: 5c33 83bd 099f c8bc 0b61 52bd 637a faba
00000060: d183 8b3c bdeb 06bd 807c 043e e78b bbbd
00000070: 9d32 6bbc 818e e4bd 5eb7 6a3c 019d 6e3d
00000080: 32a3 183d 069a 08bd 608d 113b f5f0 b4bc
00000090: 3f57 ba3d feca 1ebd af02 0ebd 7452 4f3d
000000a0: ea89 63bc 2ca4 0e3e 5a5e 2a3b 1fde 42bd
000000b0: 8a6f 9dbd 8c23 c3bd a4e0 893d 450d 253e
000000c0: 0d3d dcbc 1157 c53d 894e 653e 5154 213b
000000d0: 745b e13c e780 b03d 164b ec3c a9ed 2e3d
000000e0: d41e 103d 1094 94bd edc1 473a 3791 b83d
000000f0: 27ea ab3d f7d7 5c3d 135a f53d 14fb c6bc
00000100: f0e6 433d 2a51 4a3d 4eb4 12bd 7cbd f4bd
00000110: 369a ad3d e1f1 25bd cbde 113c 48c6 29bd
00000120: 92ef 543b 7586 06bc aa44 99bd 1dae d13d
00000130: 9709 8bbc 0be9 70bd f3d7 16be e5c4 633b
00000140: ec89 e5bc 5732 edbc 6090 c1bd 7ddb edbc
00000150: 005e 9dbd 9b2f 0abd 244b b0bd 430d 35bd
00000160: 98a7 24bd 5937 36bd 3b98 a43d 8c17 bf3d
00000170: c707 073e c43a 9e3d 3113 263d 24b8 743b
00000180: e3d2 8b3d 868a 7e3d 7d6d e8bc ee50 a1bc
00000190: ec55 163e e32a 1b3e 353d 42bd 9fa7 39bd
000001a0: ada6 2a3d 1b7c 3cbd b227 9d3d b1eb 593e
000001b0: eed6 8f3c bd2a dd3b d8d6 9e3d bc01 3bbd
000001c0: cecd 65bd e7c0 b23b e05a 273c 9df7 423d
000001d0: c71c 07bd 0c11 e43c 27cb 1e3e 02c7 f5bc
000001e0: 09d6 f5bc 9cb7 c3bd aca6 1bbe 73d9 143e
000001f0: d631 35bd 9958 ffbd fd09 bbbc 8f8d 7e3c
00000200: 5853 ebbd dd46 4ebd 72b6 bdbd 3dd1 b3bd
00000210: 091a d13c 5601 a83d f910 263d 501b 39bd
00000220: 95ff 04bd 6f8b 49bd 26d6 303a 20d1 bcbb
00000230: dec9 883d 603d abbd df76 dcbb bce6 31bd
00000240: 025b 8ebc a5b5 b33c 4f72 963d f1d4 5bbc
00000250: 64ee dfbb ed9b e33a 61c8 fe3d 93a6 bbbb
00000260: ddd0 1dbd 1fa7 cb3c ea5d c63d 9c47 03bd
00000270: eb58 ee3c a851 ab3d 697a a2bd 1e6a 3d3d
00000280: b875 94bd 5a7f 89bc 700d d9bd ac99 20be
00000290: 004c afbd 363e 89bd 3d0d 553c aa26 46bd
000002a0: da74 3ebc 8902 a7bb 7ee2 59bd 8053 743d
000002b0: e553 59bd c79b 72bd 252e 50bc 1e7f 22be
000002c0: e963 a4bd 6c38 993d 6a85 2b3b 2642 7abd
000002d0: 6f64 e93b 9e6b c83c 75a4 c8bc 3fb4 3abd
000002e0: d72d a53c ba6b e4bc f47a 8b3c 2344 1cbc
000002f0: 6b79 e23d 389e 003d 144d 75bd b8cf 04bd
00000300: 2a8b c43c a900 133d 4549 e53c aae1 a0bd
00000310: 646a 15bc 0a4d 67bd 6fa8 53bd ca92 eb3d
00000320: 3a0a 593d 0e7a d93d b8f1 59bd 6514 2fbc
00000330: 417c 3bbd 6edc 8abd 4bfc 06bd bf4f 853d
00000340: 42ed c6bc 61e3 1dba 9246 2cbd 8ce7 bf3b
00000350: d0f8 03be 9053 423b 727a 013d afa2 b03c
00000360: 97c0 e3bd 1484 063d 046a 86bd 1857 8cbd
00000370: ea76 f6bc 35fe c3bd 6f5d b43c 111e 0ebe
00000380: 9a3b 35be 7452 783d 30ff 38bd b766 c6bc
00000390: d179 0ebe ae93 7dbe e501 f7bd 8bbe 96bd
000003a0: ee05 ebbd 4a55 61bc 5904 bf3d 0b78 013d
000003b0: 020f bd3c da48 883d 03d6 9fbc bf0f 1cbc
000003c0: 2767 2e3d 4282 f9bb f075 66bd 5eff 07bc
000003d0: c68a 45bc a75c 6ebd 6e60 ef3c 5c41 8dbe
000003e0: a709 f9bd fd91 383d 6fb3 043d 4a4c 8c3d
000003f0: b377 9b3d 6776 173d c369 01be d063 22bd
-0.09943602 -0.16344416 0.028390314 -0.13303879 -0.19934025 -0.09020317 -0.12291834 -0.052756477
0.10133246 0.031427443 0.03363792 -0.00565323 0.02967199 -0.03168106 0.16771904 -0.039110187
-0.0026358874 -0.027877118 -0.023427892 -0.032333665 -0.064062804 -0.024489896 -0.05136208 -0.001910996
0.017030628 -0.03293966 0.12938118 -0.09157544 -0.014355329 -0.11159993 0.014325945 0.0582552
0.03726501 -0.033350013 0.002220951 -0.022087554 0.09098672 -0.038767807 -0.034670528 0.050615743
-0.013887862 0.13929814 0.002599618 -0.047575112 -0.0768729 -0.095282644 0.067323 0.16118343
-0.02688458 0.09635747 0.2239324 0.0024616907 0.027509429 0.08618336 0.028844398 0.04270712
0.03518565 -0.07254803 0.0007620145 0.090120725 0.083942704 0.053916898 0.11980071 -0.024289645
0.04782766 0.04939381 -0.035816483 -0.11950204 0.08476679 -0.040513877 0.008903216 -0.04144886
0.0032491428 -0.008210768 -0.074838 0.102382876 -0.016972346 -0.058815997 -0.14730816 0.003475481
-0.028019868 -0.028954668 -0.094513655 -0.029035324 -0.07683945 -0.033736806 -0.08608082 -0.0442021
-0.040198892 -0.044486377 0.08036848 0.09330663 0.1318656 0.077260524 0.040545646 0.0037341202
0.06827333 0.062143825 -0.02837252 -0.01969191 0.14681214 0.15153079 -0.047421653 -0.04532587
0.04166286 -0.046016794 0.07673587 0.21281315 0.017558541 0.0067494796 0.07755822 -0.04565595
-0.056104474 0.0054551247 0.010214537 0.047599424 -0.03298643 0.02784016 0.15507184 -0.03000212
-0.030009286 -0.09556505 -0.15200299 0.14536075 -0.04423698 -0.124680705 -0.022831911 0.01553668
-0.11490506 -0.05036055 -0.09263314 -0.087801434 0.02552511 0.0820338 0.04054353 -0.045192063
-0.032470305 -0.04920524 0.0006745778 -0.0057622343 0.06679128 -0.08361316 -0.0067280377 -0.043432936
-0.01737738 0.0219372 0.073460214 -0.013417468 -0.0068338383 0.0017365195 0.12440563 -0.0057266443
-0.038529266 0.024859963 0.096858814 -0.032050714 0.029095134 0.08365184 -0.07933504 0.04624378
-0.072490156 -0.016784359 -0.10598266 -0.15683621 -0.08559418 -0.06701319 0.0130036445 -0.048376717
-0.011624539 -0.0050967378 -0.053194515 0.059649944 -0.053058524 -0.059230592 -0.012706314 -0.15868804
-0.08026869 0.07481465 0.002617205 -0.06109824 0.0071225683 0.024465378 -0.024492482 -0.045582052
0.02016346 -0.0278834 0.017026402 -0.009537729 0.11058315 0.03140089 -0.05988796 -0.03242466
0.02399214 0.0358893 0.02798904 -0.07855542 -0.009119604 -0.056469955 -0.051674303 0.11502607
0.05298827 0.10618983 -0.053209037 -0.010686015 -0.045772795 -0.06780325 -0.03295545 0.06509351
-0.024283055 -0.0006022957 -0.04205949 0.00585646 -0.12887883 0.0029651858 0.031610914 0.021561949
-0.11120718 0.032840803 -0.065631896 -0.06852549 -0.030086 -0.095699705 0.022017209 -0.13878657
-0.17698517 0.06062551 -0.04516524 -0.0242189 -0.13913657 -0.24763367 -0.12060908 -0.07360562
-0.114757404 -0.013753245 0.09327001 0.031608623 0.023078445 0.0665452 -0.019511228 -0.009525239
0.042578842 -0.007614405 -0.056264818 -0.00830063 -0.012057012 -0.05819383 0.029220786 -0.27588928
-0.12160044 0.0450611 0.032397684 0.068504885 0.0759119 0.03697815 -0.12638001 -0.03964597

blocks.2.conv.bias f4 [32]
00000000: cd24 5a36 6f96 8637 a079 36b7 cd97 f035
00000010: 7c79 da35 1a89 3937 01e2 4536 7a36 1537
00000020: 821b 7836 85ba dab6 d3d7 b0b6 4ede 54b6
00000030: 70b0 b0b6 e6e9 2ab5 ccd5 d7b6 9b98 2db6
00000040: f2f3 2d37 428a 3e37 b69d 05b7 e413 acb7
00000050: 9473 9835 3456 d636 0779 c1b6 e61d 38b5
00000060: 89cd fbb7 8dbf 9b36 f48d c537 322a 5536
00000070: b797 5736 bb4e bd36 c335 6837 0a16 de36
3.2505952e-06 1.6044096e-05 -1.0876363e-05 1.7925573e-06 1.6277622e-06 1.1058781e-05 2.948684e-06 8.893776e-06
3.6970891e-06 -6.51862e-06 -5.270334e-06 -3.171986e-06 -5.2657488e-06 -6.36703e-07 -6.4323885e-06 -2.5867837e-06
1.03684015e-05 1.1357073e-05 -7.964138e-06 -2.051326e-05 1.135852e-06 6.3877324e-06 -5.7659377e-06 -6.858885e-07
-3.0017241e-05 4.6416594e-06 2.3550332e-05 3.1764034e-06 3.2125806e-06 5.6418044e-06 1.3840795e-05 6.6186813e-06

blocks.2.bn.weight f4 [32]
00000000: 8cc8 6b3f 9da4 663f 9647 533f 37f3 623f
00000010: 20f6 643f 0e4b 693f 36c7 353f 96ae 5a3f
00000020: a292 3c3f 89a6 743f d1f6 433f 4a65 4c3f
00000030: 77f1 823f c433 763f a159 5a3f 903e 623f
00000040: c0b1 583f 315c 783f 9bf7 7d3f b493 583f
00000050: 0464 5d3f f5b6 483f b0fb 553f 81a2 563f
00000060: b820 8a3f b67b 583f 79f0 603f 9ca1 593f
00000070: 1c8e 623f 5f01 453f 0d74 833f 02bd 513f
0.92102885 0.9009493 0.82531106 0.88652366 0.89438057 0.9113015 0.71007097 0.85422647
0.73661244 0.9556661 0.76548487 0.79842055 1.0229939 0.9617274 0.8529301 0.8837671
0.84646225 0.9701567 0.9920594 0.8460038 0.86480737 0.7840417 0.8358717 0.8384171
1.0791235 0.8456377 0.8786693 0.8501222 0.8849809 0.7695522 1.0269791 0.8192903

blocks.2.bn.bias f4 [32]
00000000: fa4f 24be 4f52 ccbe 112f 69be fb74 a5be
00000010: 211a fabd 9adc 3cbe 3b70 37be 1049 2dbd
00000020: 7c7f 6abe 0f64 e8be 4c3f 19be 6b10 76be
00000030: e7e8 7fbe cd44 2ebe 49bc 24be 4e73 83be
00000040: ce6b 32be ed9e a4bd 5b58 3dbe 1dcb 98be
00000050: 8772 82be e5b3 26be b7cc 75be 8f32 c8bd
00000060: 20a1 15bf 8b2a ecbe 32f5 c8be 1ac4 fabd
00000070: a647 83be a86a 43be e69c b1be 9e8a 6cbe
-0.16046134 -0.39906546 -0.2277186 -0.32315812 -0.12212015 -0.18443528 -0.17913906 -0.042306006
-0.22900194 -0.4538884 -0.14965552 -0.240297 -0.24991189 -0.17018433 -0.1608745 -0.25673908
-0.17423937 -0.08038125 -0.18490736 -0.29842463 -0.25478002 -0.16279562 -0.24003874 -0.09775268
-0.5844898 -0.46126208 -0.3924957 -0.12244435 -0.256406 -0.19083655 -0.34690017 -0.23099753

blocks.2.bn.running_mean f4 [32]
00000000: 1f06 0bc0 72b3 643b a0db 94bf 145c 34be
00000010: 6704 22bf 5c5b 77bf 77a2 71bd 49ce 0bc0
00000020: f11e 42bf 1592 39bf d8b7 10c0 38fd a1bf
00000030: 32b4 41bf 7764 4ac0 d4bb fd3d b785 ccbf
00000040: fef6 72bf 3db7 f5bf 7497 6ec0 ab45 c9bf
00000050: 69d5 cc3d 3394 04bf a23b 06bf 0cb1 313f
00000060: 6e46 babf 3036 9cbe 039c d5be 7997 2540
00000070: 8789 c23b 154d 67bf 1d69 3bbf 69d0 2fc0
-2.1722486 0.0034896997 -1.1629524 -0.1761325 -0.6328797 -0.9662378 -0.05899283 -2.1844656
-0.7582846 -0.7248853 -2.261221 -1.2655401 -0.7566558 -3.162382 0.12389341 -1.5978307
-0.9490813 -1.9196545 -3.727994 -1.5724386 0.10001642 -0.51788634 -0.5243474 0.6941078
-1.4552743 -0.30510092 -0.4172059 2.5873702 0.0059368047 -0.9035199 -0.73207265 -2.7470953

blocks.2.bn.running_var f4 [32]
00000000: fece 0640 18ba d43f a11c fa3f e902 e93f
00000010: 80a5 c13f dcb4 df3f 8544 0040 5441 8d3f
00000020: 70a7 f03f b4c2 c03f ce31 0a40 5d6b c43f
00000030: b97a b23f f548 f73f 5f19 4740 41d1 983f
00000040: 52ef 4d40 5057 1440 a922 6340 7356 923f
00000050: 7406 a83f c0cf e33f 9791 a73f 752c 3c40
00000060: 40b6 1a40 149d 1440 90d6 ab3f 2771 1640
00000070: e417 ec3f 31a2 1940 2bee 833f 5ca7 ae3f
2.1063838 1.6619291 1.9539987 1.8204013 1.5128632 1.7477069 2.004182 1.1035562
1.8801098 1.5059419 2.1592898 1.5345265 1.3943702 1.931914 3.1109235 1.1938859
3.217732 2.3178291 3.5489905 1.1432632 1.3126969 1.7797775 1.3091305 2.9402134
2.4173737 2.3220873 1.3424854 2.3506563 1.8444791 2.4005244 1.0307058 1.3644824

blocks.3.conv.weight f4 [32, 32, 3, 3]
00000000: cea3 ff3d 6f42 563a 9ab4 7c3d 6cab 403d
00000010: 31c6 e9bd 4d15 583d 835e e03c 186c 4fbd
00000020: b411 b43d 6b65 7ebb db67 323d 6d31 11bd
00000030: 44ce e7bb 0094 e53c d445 9d3d 1fd0 bb3c
00000040: b599 f13d c6fc fbbc 8b13 cf3c 0449 5cbd
00000050: 09e3 9bbc fbf2 50bd 8e01 063c f8b3 b2bd
00000060: e920 953d 973f b43d 0515 c0bc 9d8a 55bd
00000070: 5cc3 2c3d 78fc b13c 8e12 fcbd bd9c 243d
00000080: cdb2 6abd 4a2d 0dbd 1ac0 37bc 07d9 313c
00000090: c705 d5bd bb58 c63d 1057 243d 5d9c 063d
000000a0: c915 ab3d 54d7 25bc dd8f 8a3d 59f1 ca3d
000000b0: 8c68 b5bd 6120 19be c404 3c3c 91b3 c33d
000000c0: 710f 13be 32bd 203c da20 d03d 191e 30be
000000d0: bdb3 1cbe 246f ad3d df04 47bd d124 9fbb
000000e0: 166c 6e3c 6d55 afbc f0cd 8bbd 3579 83bc
000000f0: a470 5f3c 7e0c 873c 48e2 f43c 4b72 a9bd
00000100: d581 78bd ea9c f6bd 010a c0bb 71ea b7bd
00000110: e3de 2fbd 45fd cb3d fd89 ef3b 9e7e 05bc
00000120: 064b b0bc a92a 263c f9a6 173d 89b4 e4bc
00000130: aa1f d4bc c27e 0abd e1df aabc d4b7 143e
00000140: 81be b63d 495a e23c 5d16 9cbd 409b d8bd
00000150: 7738 223d b5be 6c3c 5f48 733c a30c 1eba
00000160: 8256 813c dcbe 3a3c bce9 8b3c f043 8e3d
00000170: 68e6 2f3d 3313 873c de45 ee3c faae ca3d
00000180: 7c08 923d 1e3c f93d 1206 663d 1d8b 3cbd
00000190: d171 4d3c 0224 bdbc 13de 89bd 6a0b a0bd
000001a0: d851 22be 8bd9 f0bd 2599 f3bd 1bc3 c6bd
000001b0: 23bf 653d 5c9b b6bb 92f0 4dbc c262 103d
000001c0: f4db 05bd 17f0 013d 5714 13ba 6c40 e13a
000001d0: 0b89 b2bc d318 9f3c 4541 263d 6ed5 8dbb
000001e0: 6dae 31bd c9cb 0fbe a319 38bc 013c db3c
000001f0: 1069 803d 924f 073d bd95 a0bd e931 753b
00000200: 7eac 97bd 2850 3dbe 1209 dbbc 3962 67bd
00000210: 1fd0 a5bd d73f 89bd faa3 a4bd 458b b4bb
00000220: b810 d43b f007 a53d 9c12 cfbb 420c 4c3d
00000230: 1dc8 c23d e38c 4ebd c5d1 ce3c 93f5 003e
00000240: c858 353d 4865 a5bd 1d76 fd3c cfc7 a23c
00000250: a31a 0b3c a28d cd3d 6e92 ca3d a9c6 53bd
00000260: e6ce b73c bfb5 293d a614 963d 848d 1b3e
00000270: 9346 0ebd b995 2cbd de5f 143c b3d6 b53d
00000280: 81c4 26bd 6d87 0e3d dec3 cc38 ae31 2a3c
00000290: 9e73 a63d effe f9bc 83d7 13bd fecb 3d3d
000002a0: f2bf 283d 00ef bfbc 77a3 d43d 317e cb3b
000002b0: 838a 753d 1ada bc3d 788d c13d c9b5 98bd
000002c0: 7320 b9bd 1b2f a53d edeb 6fbc 5eb2 2bbe
000002d0: 6f10 ae3b 7806 333d d445 2cbd 5900 093c
000002e0: fb77 0fbc d4a4 02be e973 8b3c 5f7b 2c3d
000002f0: 021b 31bd 13fa fa3d 8019 1b39 da07 d5bc
00000300: 2996 74bc 8811 053d 49d3 a23d 6be2 183d
00000310: b3be 65bc 93e2 9abd 7caf 4f3d 8725 ba3c
00000320: 8ce4 82bc f80c 083d fd3a 93bd 05ca 1cbe
00000330: 5410 853d 0ba9 4ebd dbbf 19bd 0628 a3bd
00000340: 9a9f 18bd 9a25 02be a181 56bd ef22 e8bd
00000350: be42 f8bd 900c dc3c 5fb8 56bd 8d30 313d
00000360: 61b6 cabd b97c 4abd 8c71 533d c21b 19be
00000370: 707d e93c 4e8b bb3d 9da8 fdbd a88e 673c
00000380: f24b 4b3e a59e 563d 46b4 a43c b55a 40bc
00000390: 8d0d 233d 3cc7 99bc ca27 57bd 96ef de3c
000003a0: cbfc 24be f551 60bc 7b7d ba3d 40f0 683b
000003b0: 2501 21be 963d 263b d3be ebbd 12e5 31bd
000003c0: 968c 1ebc 7b13 a1bc 5ebb ebbd ac2e 943d
000003d0: 416c 90bd 0fc8 37be 6f11 463d 868d 2bbe
000003e0: 8831 26bd fecc 973d a52e 843d d782 e03c
000003f0: a9c5 d53d b2ab 89bc b542 5abd 470c 89bd
0.12482415 0.00081733515 0.061695673 0.04703848 -0.11414755 0.05275469 0.027388817 -0.050640196
0.08792439 -0.0038817774 0.043556076 -0.035447527 -0.0070741493 0.028024673 0.07679334 0.022926388
0.117968954 -0.03076018 0.025277874 -0.05378057 -0.019029157 -0.051012974 0.008179082 -0.087257326
0.07281668 0.08801191 -0.023447523 -0.052134145 0.042178497 0.021726832 -0.123082265 0.04018854
-0.057299424 -0.03446702 -0.011215234 0.010854966 -0.104014926 0.09684893 0.04012209 0.032863963
0.083537646 -0.010122139 0.06765721 0.09909315 -0.08857831 -0.14953758 0.011475746 0.09555734
-0.14361359 0.009810733 0.10162516 -0.17198981 -0.1530294 0.08468464 -0.04858863 -0.004856684
0.014552137 -0.021403039 -0.06826389 -0.016049007 0.013637695 0.016485449 0.029893056 -0.08273753
-0.060670692 -0.12041648 -0.0058605676 -0.08980263 -0.04293717 0.09960417 0.0073101507 -0.008147864
-0.021520149 0.010142007 0.037024472 -0.027918117 -0.025894005 -0.033812292 -0.020858707 0.1452325
0.089230545 0.027630942 -0.07621453 -0.105764866 0.03960463 0.014449765 0.014848798 -0.00060291047
0.01578832 0.0113980435 0.017079227 0.06946552 0.042944342 0.016488647 0.02908605 0.098966554
0.071305245 0.121696696 0.056158133 -0.046031106 0.012539343 -0.023088459 -0.067318104 -0.07814677
-0.15851533 -0.11760243 -0.118944444 -0.09705182 0.056090485 -0.0055727195 -0.012569563 0.035250433
-0.032680467 0.03172311 -0.0005610636 0.0017185337 -0.021793863 0.019421017 0.04058959 -0.0043284213
-0.043379236 -0.14042582 -0.011236581 0.02676201 0.06270039 0.03303487 -0.0784106 0.0037413782
-0.07405947 -0.18487608 -0.026737723 -0.056490157 -0.080963366 -0.067016296 -0.080390885 -0.0055097663
0.0064717196 0.080581546 -0.006319357 0.049816377 0.09510825 -0.05042733 0.02524651 0.12593679
0.04427412 -0.080759585 0.03094011 0.019870667 0.008490237 0.1003678 0.098912105 -0.05170313
0.022437524 0.041433092 0.07328157 0.15190703 -0.034735274 -0.042134974 0.00905606 0.08878841
-0.040714744 0.03479712 9.763961e-05 0.010387821 0.08127521 -0.03051707 -0.0360942 0.04633712
0.04119868 -0.023429394 0.10382741 0.0062101115 0.05994655 0.09221287 0.09450811 -0.07456548
-0.09039392 0.08065625 -0.014643651 -0.1676726 0.0053120176 0.04370734 -0.04205878 0.008361899
-0.008756633 -0.1275819 0.017023044 0.042109843 -0.043238647 0.12254729 0.00014791451 -0.02600472
-0.014928379 0.032487422 0.07950456 0.037325304 -0.014022517 -0.07562747 0.050704464 0.022722973
-0.01597812 0.033215493 -0.071889855 -0.1531144 0.06497255 -0.05045418 -0.037536483 -0.07966618
-0.037261583 -0.12709656 -0.052369718 -0.11334788 -0.12122105 0.026861459 -0.052421924 0.043259192
-0.09898067 -0.04943535 0.05162196 -0.14951995 0.028502196 0.0915743 -0.12385676 0.014133133
0.1985319 0.05239739 0.020105492 -0.011740376 0.039807845 -0.01877176 -0.05252818 0.027213853
-0.16112058 -0.013691415 0.09105965 0.003554359 -0.15723093 0.0025366298 -0.11511006 -0.04343135
-0.009677073 -0.01966261 -0.11510347 0.072354645 -0.07051898 -0.1794741 0.04835647 -0.16753206
-0.04057458 0.07412146 0.06454209 0.02740614 0.10438091 -0.016805504 -0.053286273 -0.06691795

blocks.3.conv.bias f4 [32]
00000000: 16ed 1c36 d29b 0436 36d6 6a37 16fb 14b7
00000010: f024 22b6 9403 82b7 7580 ba36 d72d a836
00000020: 6ecb 8136 d4ce 4b37 bf60 bb35 399c f036
00000030: f12d 80b6 464b 1836 ecdd ca35 806f 94b6
00000040: e362 7b37 fc1f 93b6 5472 77b7 30d6 54b7
00000050: 05e5 6836 08d1 4ab7 c151 a2b5 29f0 9936
00000060: 0f1c 27b7 1011 0f36 b6be 57b7 b397 41b6
00000070: ac8c a1b6 df45 33b6 74fc 3137 8558 ddb6
2.3383814e-06 1.9760232e-06 1.3997362e-05 -8.879948e-06 -2.4161382e-06 -1.5498874e-05 5.5581863e-06 5.0121266e-06
3.868182e-06 1.2147899e-05 1.3960743e-06 7.170744e-06 -3.8200455e-06 2.269358e-06 1.5114761e-06 -4.423724e-06
1.498379e-05 -4.384665e-06 -1.4748966e-05 -1.2686054e-05 3.4704e-06 -1.2088807e-05 -1.2093734e-06 4.5877136e-06
-9.960509e-06 2.1318592e-06 -1.2859402e-05 -2.8847542e-06 -4.8145503e-06 -2.671375e-06 1.0608801e-05 -6.5966183e-06

blocks.3.bn.weight f4 [32]
00000000: edf0 5c3f 9092 3c3f ebad 6a3f bc35 6f3f
00000010: 6908 593f cdc8 803f 5292 5d3f a7e8 653f
00000020: 1bbe 4b3f 7bc9 563f ab6c 523f 3a7a 5f3f
00000030: dcc5 4e3f 959e 553f 21e2 573f 2840 413f
00000040: 7235 673f e252 613f 4189 6c3f fb2e 763f
00000050: 7f59 653f 6f33 463f 7ccc 6d3f f99c 573f
00000060: 64dc 5d3f 5bd5 733f a77a 7e3f 9532 573f
00000070: 1dd2 703f e7f4 413f a413 853f 2812 5b3f
0.86305124 0.73661137 0.9167163 0.9344137 0.8477846 1.006128 0.8655139 0.89808124
0.7958695 0.83901185 0.82197064 0.8729588 0.8077066 0.834451 0.8432942 0.7548852
0.90315926 0.88017094 0.9239693 0.96165437 0.89589685 0.7742223 0.92890143 0.84223896
0.86664414 0.9524743 0.994059 0.8406156 0.9407061 0.75764316 1.0396619 0.8557458

blocks.3.bn.bias f4 [32]
00000000: 5dcc 42be c463 81be c9ef 4dbe 6a52 78be
00000010: 66c5 a8bd 19ca 9dbe d075 aaba 9599 9cbe
00000020: 28f6 93be 53d1 83be cd0c 1dbe 05a8 ffbd
00000030: 9ecd 1cbe fb69 0bbe 431f 16be 2bb4 25be
00000040: ba0b 23be 6090 d6bd cbe7 95be a383 92be
00000050: 391a b3be 3b79 7bbe f095 06be 9185 9a3d
00000060: 1555 8ebe 2640 b9be 39b8 9bbe d3ec bcbd
00000070: 877c 70be 704e 2fbd ec39 93be 8b2d c8be
-0.19023271 -0.25271428 -0.20111002 -0.24250188 -0.08240776 -0.3081825 -0.0013005082 -0.30585924
-0.2889874 -0.2574564 -0.15336914 -0.12483219 -0.15312812 -0.13614647 -0.14660363 -0.1618201
-0.15922442 -0.10476756 -0.29278407 -0.28616056 -0.34980944 -0.24557965 -0.13143134 0.07545007
-0.27799287 -0.36181754 -0.30413988 -0.09224858 -0.23485003 -0.042799413 -0.28755128 -0.39097247
