weights/geese_net_alpha_fold0_best_2.pth (torch, 615236 bytes, 94 tensors)

conv0.conv.weight f4 [32, 30, 3, 3]
000000 cc 4f 2c 3e 61 d2 b4 3d cd 94 3b 3d d3 0f 89 3e
       0.16827315 0.08829189 0.045796204 0.26769885
000010 4f 1d 8a 3e 88 23 3f 3e 7e 5d 8d 3e 9b f2 17 3e
       0.26975486 0.18665898 0.2761039 0.1483864
000020 11 84 83 3e 68 ad fa bc 12 9b 1f 3e a7 a8 c1 bd
       0.25686696 -0.030600265 0.15586498 -0.09455996
000030 aa 6f f2 3d 96 72 ab 3c 96 19 71 3d 8f ac e2 bd
       0.118377045 0.020928662 0.05886229 -0.11068069
000040 e7 ea ab 3d 9c 80 9e 3d 70 fd f3 3c 32 89 27 3e
       0.083944134 0.07739374 0.029783934 0.1636093
000050 73 77 32 bd 70 bc d9 3d 73 73 e7 3d 23 13 a0 3d
       -0.043570947 0.10631645 0.11301317 0.0781615
000060 c2 cf a1 bd 14 5e 77 3d b1 d3 8e 3d 0c 92 19 bc
       -0.07900955 0.060392454 0.06973971 -0.009373199
000070 5b 9a 1c 3e 97 6f 9f bd ce 14 a1 3d 7e e0 7c 3d
       0.15293257 -0.07784956 0.07865296 0.06173753
000080 3b 5a 54 3d c8 01 65 bd 2e 38 a6 3c 7f 82 b6 3d
       0.051843863 -0.0559099 0.02029046 0.08911609
000090 74 1f c1 bd 38 44 42 3e 8a 55 a7 bd 70 ee 83 3d
       -0.09429827 0.18971336 -0.08170612 0.06441963
0000a0 a3 77 53 bd dc 04 16 3e 59 29 c9 bd 93 97 ce 3c
       -0.051627766 0.14650291 -0.098223396 0.02521876
0000b0 15 ff 85 3b a7 fa 05 bd 7c 90 99 3d 4e c7 38 bc
       0.004089246 -0.032709744 0.07498261 -0.011277987
0000c0 e4 a1 77 3c 56 79 8b bc d3 c3 f9 3b 4d 93 86 bd
       0.015114281 -0.01702563 0.007622221 -0.06571064
0000d0 46 a9 65 bc 1b ac f2 bb 98 ce f1 3c 16 f3 e7 3d
       -0.014017409 -0.0074057705 0.029517457 0.11325662
0000e0 ad 86 d7 3a 90 00 38 3d aa e3 30 3d 86 92 72 3c
       0.0016443335 0.04492241 0.043185867 0.014805442
0000f0 22 41 23 bd d6 d1 58 3a 49 c8 df 3c 0d ca cd bb
       -0.039857037 0.0008271014 0.027317183 -0.00628019
000100 96 65 a4 3d ed 2f 0a 3d d8 38 32 3d 35 f3 ee bb
       0.080271885 0.03373711 0.04351124 -0.007292176
000110 ec d5 29 3d 0e 83 bf bc 75 75 80 3d 0e 72 c6 bc
       0.041463777 -0.023377921 0.06272403 -0.024224307
000120 26 13 d1 3d 52 ca 97 bd c5 4f 1a 3d 57 9d 14 3e
       0.102087304 -0.074116364 0.03767373 0.14513145
000130 a8 29 38 3e 94 b8 78 3c 29 b6 d2 3d 34 05 00 3e
       0.1798464 0.015180726 0.102886505 0.12501985
000140 84 a3 70 3c c2 12 a7 3d ae f1 98 bd 0c 50 d8 3c
       0.014687423 0.08157875 -0.07467972 0.026405357
000150 1d 76 f8 3d a0 ad 63 3e 09 06 ca 3c dc b5 26 3e
       0.12131903 0.22234201 0.02466108 0.16280311
000160 0c 34 33 3d 03 5b d7 3c e2 11 86 3d 9f 04 95 bd
       0.043750808 0.026288515 0.065463796 -0.07276272
000170 3d 7d d5 3c 7d 29 2a 3e 2b 99 2f 3e e1 7a 71 3d
       0.026060695 0.16617389 0.17148273 0.058955077
000180 a9 67 1e 3e 33 78 70 3d d2 29 04 3d 4e 63 85 3d
       0.1546923 0.05870838 0.032266445 0.065130815
000190 73 66 58 bd 1b 97 10 3d 54 13 e7 3d 1c e9 19 3e
       -0.05283208 0.035300355 0.112829834 0.1503033
0001a0 1d c6 23 3d 9f e7 0a 3e 5e 82 9f 3d 87 95 37 3d
       0.039983857 0.13564919 0.077885374 0.044820335
0001b0 6b a4 ce bd 99 5e cb bb 3a 5e 8b bd d3 85 fb bd
       -0.10089954 -0.0062063453 -0.06805082 -0.12281384
0001c0 d4 c8 6d 3e fd 24 2f 3d 2f 40 d2 bd a2 8b 1d be
       0.23221141 0.042759884 -0.10266148 -0.15385297
0001d0 5f 49 5f bd 3e de 55 bd 3f 80 de 3d b8 33 07 be
       -0.05451333 -0.0522139 0.10864305 -0.13203323
0001e0 f9 cd 25 3c 48 c5 a5 bd e5 03 b6 bc 0b b1 4c bd
       0.0101199085 -0.08094269 -0.022218654 -0.04997353
0001f0 b1 f8 04 bd d5 e4 96 bc 97 b2 c6 bc e8 7d b2 3d
       -0.032463733 -0.018419662 -0.02425508 0.08715421
000200 6f f6 3d bd bb 51 2a bc e5 7a 97 3a af a5 81 bd
       -0.046377596 -0.010395463 0.0011557011 -0.0633043
000210 d3 02 55 bd 47 19 7b bd 70 2e 68 3b ad 1b e4 3a
       -0.052004647 -0.061303403 0.003542807 0.0017403268
000220 39 c1 2a 3d d1 47 4b bd 67 8d 84 bc 6f bc 0e 3c
       0.041688178 -0.049629036 -0.016180707 0.008711918
000230 3b af 6a bd a1 c3 61 bd 89 f3 2d bd f7 9a 41 bd
       -0.05729602 -0.055118207 -0.04246858 -0.047266927
000240 2c ab 59 3c c2 bf 8c bd bf 80 fa bc 98 dd 96 3c
       0.013285439 -0.068725124 -0.030578969 0.018416211
000250 d3 af 9a 3d 41 fb b3 3d f4 e2 98 3c c6 42 5a 3c
       0.07553067 0.08788157 0.018662907 0.013321584
000260 6e 1f 6b 3c f4 7a ed bc 29 1e 16 3e bf 6c f8 bc
       0.014350755 -0.028989293 0.14659943 -0.030325292
000270 a2 fc 00 3d a2 72 b0 bd c8 3e b8 3b b0 02 b2 bd
       0.03149093 -0.086156145 0.0056227185 -0.08691919
000280 28 66 23 3e 6d e6 8b bd f9 a2 39 bc 46 b1 16 3e
       0.15956938 -0.068310596 -0.01133036 0.14716062
000290 47 45 c0 bc 73 b8 66 3d 9e a8 09 3c 60 bc 2d 3c
       -0.023470534 0.05632825 0.008402018 0.010603994
0002a0 d0 8f 00 bd 5a 37 b9 3d 31 da 96 ba 3d 7e 6c bc
       -0.03138715 0.090437606 -0.0011509118 -0.014434394
0002b0 b1 a3 b6 3d ca 4c 23 bc 0a 20 47 3d d3 05 5e 3d
       0.089179404 -0.009967038 0.04861454 0.054204773
0002c0 23 fc c8 bc c0 9d 73 bd f2 f5 8f 3d eb 89 40 bd
       -0.02453429 -0.059476614 0.07029332 -0.04700653
0002d0 ed a7 7e bc cc c0 27 3e 42 e8 33 bc 8a 03 05 3d
       -0.015542966 0.1638214 -0.010980668 0.03247408
0002e0 f4 94 e7 3c e7 e5 84 bd ae f9 f0 bc f9 83 b5 3d
       0.028269269 -0.06489163 -0.029415932 0.088630624
0002f0 35 83 19 bd f6 64 0b 3d dd 95 73 bd 45 0f 81 3d
       -0.037478644 0.03403183 -0.059469093 0.063017406
000300 cc 45 d7 bd 3a 82 e8 3d 6f 8b c6 bb 2c 61 40 3d
       -0.105113596 0.11352964 -0.0060591022 0.04696767
000310 77 8f bc bd 9a 7c 2d 3d f1 b0 13 3d fa de 4d bd
       -0.09207051 0.042355157 0.036057416 -0.050261475
000320 13 db 8c 3d b6 60 07 be 0b 90 3c bd 29 14 0b 3c
       0.068777226 -0.13220486 -0.046035808 0.008488693
000330 07 02 ff 3b bc 37 8b bd 5f 06 35 3d 7f 59 81 bc
       0.007782224 -0.0679774 0.04419553 -0.015789745
000340 b1 aa 99 bc fd 7a 15 3d 56 4c ed bd 25 6c bc bd
       -0.01875815 0.036494244 -0.115868255 -0.092003144
000350 36 df 60 3d b4 57 14 3d 71 4a fa bd dd 14 89 3d
       0.05490037 0.036216453 -0.1222123 0.066934325
000360 bd 5b 96 3d 4c 53 bd bc 05 9f a1 3d 10 bc 0a be
       0.073417164 -0.023111008 0.07891659 -0.13548303
000370 4f 0b bb 3c b7 e9 d2 bc a0 dc 08 bb a6 77 0c be
       0.02283254 -0.02574621 -0.0020883456 -0.13717517
000380 45 01 22 3d fd d5 74 3c 4e 1b 90 3b 63 19 48 3c
       0.039551992 0.014943597 0.004397786 0.012213084
000390 9d 10 0f 3c fa 86 ca bc 24 50 b1 bd f7 08 9d bc
       0.008731988 -0.024722565 -0.08657864 -0.019169314
0003a0 40 e2 a8 3b 95 6b 8b bd 6d 63 de 3c c5 1d e1 3b
       0.005153924 -0.06807629 0.02714702 0.006870004
0003b0 6a de 77 bc f1 5c 64 bc 0f cb 31 bd 54 2f 66 bd
       -0.015128711 -0.013938175 -0.043406542 -0.05619748
0003c0 35 91 3a 3b b4 3e 61 3d d7 6f 2c 3d 20 8b e7 bc
       0.0028467898 0.05499144 0.042098846 -0.028264582
0003d0 dd d3 b9 bc 5a de 00 bd ed 8d 23 bc b4 de 25 ba
       -0.022684032 -0.03146205 -0.009982568 -0.0006327436
0003e0 2b 39 9f bc 84 3d b0 bc 5d 9e 9e 3d ac f2 23 3d
       -0.01943644 -0.021513708 0.07745049 0.04002635
0003f0 58 32 b1 3c 92 55 06 3d 92 b5 6b bc a6 9e 90 bc
       0.021630451 0.03279645 -0.014386551 -0.017653774

conv0.conv.bias f4 [32]
000000 f8 69 a9 38 7a 2b 0d b9 85 67 29 38 0f 32 b6 b9
       8.078286e-05 -0.00013463004 4.038915e-05 -0.00034751042
000010 03 65 da 38 b6 34 42 b8 27 03 00 b9 15 ab 38 b9
       0.00010413865 -4.6302295e-05 -0.00012208206 -0.0001761134
000020 1a ff 18 38 07 67 9b b7 f0 39 0a 39 54 ef 1b b8
       3.6477206e-05 -1.8525416e-05 0.00013182289 -3.717777e-05
000030 5d 8c 17 b9 8c 55 63 37 8f 77 97 b8 80 18 66 38
       -0.00014452772 1.3550172e-05 -7.2225106e-05 5.485909e-05
000040 7e 0b 65 38 a1 17 85 b7 e6 0f 57 b8 fe 49 eb b8
       5.4608558e-05 -1.5865839e-05 -5.12748e-05 -0.00011219455
000050 e5 f4 0f b9 1f a4 8d b8 d7 c4 02 b8 ca d9 01 b8
       -0.00013728773 -6.753974e-05 -3.1177737e-05 -3.095883e-05
000060 6c a3 ad 38 fd ad 51 36 b5 60 ea 36 c7 6f 0c 39
       8.2797225e-05 3.1244701e-06 6.9850016e-06 0.00013393081
000070 f6 a0 49 37 f1 9a 28 38 5d 0e ae 38 b3 c5 19 38
       1.201801e-05 4.019862e-05 8.299642e-05 3.6662164e-05

conv0.bn.weight f4 [32]
000000 06 dc 36 3f 4f c0 19 3f 03 25 38 3f a2 78 97 3f
       0.7142948 0.60059065 0.71931475 1.1833689
000010 44 51 4b 3f 61 da 47 3f 54 3e 38 3f 37 1c 43 3f
       0.79420877 0.78067595 0.71970105 0.7621493
000020 02 01 5d 3f 37 a7 30 3f 7f 1d 60 3f ea 4c 2c 3f
       0.8632966 0.6900515 0.8754501 0.6730486
000030 6e fc 50 3f 24 db 3e 3f e4 cb 26 3f f7 22 5a 3f
       0.8163518 0.7455313 0.6515486 0.852096
000040 ef 0e 65 3f b1 18 05 3f b2 0a 2e 3f b9 c9 4b 3f
       0.8947591 0.519908 0.6798507 0.7960468
000050 4f aa 49 3f 0b ec 40 3f 20 04 1b 3f 25 1a 3c 3f
       0.78775495 0.75360173 0.6055317 0.73477393
000060 31 e4 62 3f 77 c2 3e 3f b8 e5 59 3f 1d da 4f 3f
       0.8862944 0.7451548 0.8511615 0.8119219
000070 7f b9 2d 3f c2 e3 58 3f f0 05 3e 3f 46 d0 65 3f
       0.6786117 0.8472253 0.7422781 0.89770925

conv0.bn.bias f4 [32]
000000 dd 21 7d bd b5 38 90 bd 70 12 5c be f8 f4 42 3e
       -0.061799873 -0.07042066 -0.21491408 0.1903876
000010 9b 69 20 3e d2 1f 2f be 47 26 8e 3b 44 a2 1a 3d
       0.15665285 -0.17101982 0.004338059 0.037752405
000020 3a ca 4b be eb 71 8d 3d 2d fb 02 bb ea 0e 08 bd
       -0.19901362 0.06906494 -0.0019986138 -0.03321735
000030 0d 3e 05 be a4 75 01 be aa 8f 72 3d ca 78 42 3d
       -0.13011952 -0.12642533 0.05921904 0.047478475
000040 11 d7 49 bb c4 54 da 3a 0c 63 93 bd 10 f9 6e 3d
       -0.0030798356 0.0016657342 -0.07196626 0.058342993
000050 b9 64 ea 3d b8 72 81 3b 20 88 b3 bc 26 a4 0e bd
       0.114449926 0.003950443 -0.021915495 -0.034824513
000060 4c 10 c7 3c bc d7 56 3d b1 b4 8c bd 43 2f 0e be
       0.024299763 0.052451834 -0.06870402 -0.13885216
000070 2e d7 de be 9c 57 bf bd 94 28 51 3e 28 55 af bc
       -0.43523544 -0.09342882 0.20425636 -0.02140291

conv0.bn.running_mean f4 [32]
000000 4b 28 9e 3e a3 d7 7b bc e2 dd 88 be c9 f4 3a be
       0.30890116 -0.015371236 -0.26731783 -0.1825744
000010 52 b9 27 3e c7 ff 3d 3d 78 2b 2e 3f 80 f0 38 3d
       0.16379288 0.046386506 0.6803508 0.045151234
000020 80 36 04 3e c2 9d ac be 43 c1 09 bd a4 10 5d 3c
       0.12911415 -0.3371411 -0.033631574 0.013492737
000030 fb 0a 01 bd c5 a9 d0 3d c1 e0 96 bd ec ff 48 3c
       -0.031504612 0.10188631 -0.07367087 0.012268048
000040 be 1c 6d bd 32 73 20 3e 99 5c 9d bc b1 a2 11 bd
       -0.05788874 0.15668944 -0.019209193 -0.035555545
000050 13 c4 81 3d 66 8c 01 be 8f 35 45 be fc 49 b8 bd
       0.06336226 -0.12651214 -0.19258712 -0.089984864
000060 3d 9d 1c be ba d8 66 3e 7c 80 94 3c ac b9 8a 3e
       -0.15294357 0.22543612 0.018127672 0.2709478
000070 4c 2a 0e 3f 1f 78 5f 3e 57 6e 03 be 2c 56 06 be
       0.5553329 0.21823166 -0.1283506 -0.1311881

conv0.bn.running_var f4 [32]
000000 4d cc 60 3d 4d 6c 57 3d 46 9e 9c 3d db 21 56 3d
       0.054882336 0.052593518 0.07647376 0.05227838
000010 9d 85 8c 3d 95 6c 3e 3d 47 47 b2 3d 1c 44 2a 3d
       0.06861422 0.04649027 0.08705001 0.04156886
000020 31 1d 06 3d d4 c2 81 3d 93 69 7d 3d 0b bd 39 3d
       0.032742683 0.06335989 0.06186826 0.0453463
000030 ae 66 0e 3d 37 52 96 3d 3b e5 20 3d 0f 53 49 3d
       0.03476589 0.073399 0.03928111 0.049151476
000040 85 e9 43 3d d5 dd 13 3d 52 cb 63 3d 6f c0 3d 3d
       0.047830123 0.036100227 0.055613823 0.046326097
000050 53 a4 3d 3d 25 03 44 3d 28 ba c7 3d 91 0b 41 3d
       0.04629929 0.04785456 0.09752303 0.04713017
000060 62 3d 88 3d 3e 16 59 3d 1b ca 0d 3d 38 00 48 3d
       0.06652333 0.052999727 0.03461657 0.048828334
000070 c3 a5 fd 3d b8 69 5f 3d 36 d7 77 3d 5a dc 5c 3d
       0.12385132 0.05454418 0.060507976 0.05392108

cnn_blocks.0.conv.weight f4 [32, 32, 3, 3]
000000 e5 3d 06 bd 8e fe 61 be 17 31 0e be 5c 19 19 be
       -0.03277387 -0.22069761 -0.13885914 -0.1495108
000010 1a b2 a9 be e8 0c e0 bd 2d 64 6b bc bb a8 74 bd
       -0.33143693 -0.10939962 -0.0143671455 -0.059731226
000020 08 20 65 3d 0f cd 52 3d c8 61 1c 3e b5 df 50 3d
       0.05593875 0.05146509 0.15271676 0.050994594
000030 34 1b 22 bd eb 16 1d 3d 4d 2a 70 3d ec 1c 51 bd
       -0.039576724 0.038351934 0.05863409 -0.051052973
000040 dd cb e2 3b 2e 64 e3 bd 95 46 91 bc 78 53 03 bd
       0.006921275 -0.11103092 -0.017733851 -0.032062024
000050 f3 72 48 bd 4b 50 e9 3d 05 06 a5 bd af 11 8d bd
       -0.04893775 0.11392268 -0.08057789 -0.068881385
000060 42 3c 6b 3d 9b 36 e3 3d 78 c0 95 3c a3 3d e0 3c
       0.057430513 0.110943995 0.018280253 0.02737314
000070 8c 51 75 bd 53 91 87 3d b7 d1 85 bd 9d dc 62 bd
       -0.059892222 0.06619515 -0.065341406 -0.055386174
000080 a6 62 5c 3d 99 0c 56 3d 92 9e 82 3d 2d 7c 18 3e
       0.053805016 0.052258108 0.06377901 0.1489112
000090 e4 85 c3 3c b8 0e 9c 3d eb 01 7f 3b d6 15 9e 3c
       0.023867555 0.07619995 0.0038911055 0.019297522
0000a0 88 30 a5 bc c3 de fb bc 65 92 91 3d 61 5c bd 3d
       -0.020164743 -0.03074587 0.07108001 0.092461355
0000b0 8c 5e 18 3e 25 30 08 be 94 7e 40 bb 99 32 51 bd
       0.14879817 -0.13299616 -0.0029372321 -0.051073644
0000c0 36 63 b9 bd 60 60 43 3d 36 5c 59 3c 60 5f d0 3c
       -0.09052126 0.047699332 0.013266614 0.025436103
0000d0 10 ad 00 3d 5d bc 21 bd 8a ca 62 bd 69 b3 ee 3d
       0.031415045 -0.039486278 -0.055368938 0.116553135
0000e0 e3 b1 8b 3c c8 8d 85 3d ea 1e ee bc 94 25 c2 3c
       0.017052596 0.06521183 -0.029067475 0.02369956
0000f0 3f aa b9 3c 4a 48 43 3b 0e 40 06 3c 1d e4 99 bb
       0.022664187 0.0029797726 0.008193983 -0.0046963827
000100 92 91 9f bd d7 af 92 3d 44 d1 04 be af 2b 9b 3d
       -0.07791437 0.07162445 -0.12970454 0.07576691
000110 28 5e 2a 3d e3 66 31 bd 8b 6b c2 3d 12 84 d7 3d
       0.0415937 -0.04331101 0.094931684 0.10523237
000120 fe ad 84 bd 44 26 80 3d 51 a1 8a bd 1c a5 0f bd
       -0.06478499 0.062572986 -0.0676905 -0.03506957
000130 3b 1c 03 3e 07 03 21 be e1 e3 9d bc b6 5f 4e 3d
       0.12803738 -0.15723811 -0.0192737 0.050384246
000140 14 78 8a bc 4b e4 1b 3b 27 d4 4f bd 38 6f 87 3c
       -0.01690296 0.0023787196 -0.050739434 0.016532525
000150 c1 a7 45 bc c3 ea 38 bc ba f1 82 bb 85 f6 20 3d
       -0.012063921 -0.01128644 -0.003996101 0.0392976
000160 ad 71 07 3d f5 ae f4 bd d6 d8 a1 3d da e4 3a 3e
       0.033067394 -0.11947433 0.07902686 0.18251362
000170 b3 71 f5 bc 11 b9 4a 3d ab ef 90 3d 14 a6 0e 3d
       -0.029961443 0.0494929 0.07076963 0.034826353
000180 f9 40 20 be b3 45 1f 3d f5 37 6a bd 02 96 6b bc
       -0.15649785 0.03888483 -0.05718227 -0.014379026
000190 32 9b 0b bc be f8 38 3d 40 99 3e be 37 88 e5 bd
       -0.008520888 0.045159094 -0.18613148 -0.112076215
0001a0 7a 40 0e be 16 05 2e 3b 88 fe 45 be 7c e1 85 3d
       -0.13891783 0.0026553324 -0.19335377 0.06537148
0001b0 ce 45 c7 bc e4 c7 38 3c 11 aa 43 3c 58 01 6c bd
       -0.024325278 0.011278126 0.011942402 -0.05761847
0001c0 b2 5e 83 bd bb f2 bd bc 1e 65 a2 bd 02 04 a5 ba
       -0.06414546 -0.023187032 -0.07929443 -0.0012589695
0001d0 61 71 47 bd bb 54 de bc e3 6b 66 3d 34 72 03 be
       -0.04869211 -0.027140012 0.056255233 -0.12836534
0001e0 9b e0 03 be 54 ef b8 bc f2 8c 1a bd 13 fb 62 3d
       -0.12878649 -0.022575058 -0.037732072 0.055415224
0001f0 fb 34 b1 3d 64 f5 c9 bc 99 91 f9 3b 01 76 09 be
       0.08652683 -0.024653144 0.0076162335 -0.13423921
000200 e3 93 98 bd a6 c9 dc 3b 2a c9 ba bd 8f 74 89 bd
       -0.07450082 0.0067379056 -0.091204 -0.06711685
000210 e7 6e 72 bc 69 b2 a3 bd c4 36 3f 3b 95 cd 15 3d
       -0.014796949 -0.079930134 0.002917693 0.03657301
000220 05 02 ed 3c 20 b1 04 3d 81 59 bc 3d 71 2d 5d 3b
       0.028931627 0.032395482 0.09196759 0.003374901
000230 a6 5f 79 3d c2 48 c3 3d 06 22 af bc 8f 80 3d bd
       0.060882233 0.09535362 -0.021378528 -0.04626518
000240 ac ae 4b 3d 7e 15 ab 3d c3 13 73 bc d5 19 c6 3d
       0.049727127 0.08353709 -0.0148362545 0.09672896
000250 34 80 b6 3d ba 1f 84 bc 00 a9 7b 3d 6c 13 6f 3d
       0.089111716 -0.01612841 0.061440468 0.05836813
000260 f1 fc 08 3d 70 99 9e 3d d8 3b 0d bc 95 14 33 3d
       0.03344435 0.0774411 -0.008620225 0.0437208
000270 4e 58 89 3a a3 63 0e bd 5f 36 a2 bd 7e 07 2d bd
       0.0010478587 -0.03476299 -0.07920527 -0.042243473
000280 72 d9 49 bc f9 c6 d7 bd fb 5e 80 3c bc b3 a0 3d
       -0.012319909 -0.10535998 0.01567029 0.078467816
000290 7d 32 2c 3e 98 63 06 3e a7 4f b5 bc f8 d5 0c 3e
       0.16816135 0.1312393 -0.022132708 0.13753498
0002a0 a5 25 09 3d 30 44 9f 3d ed 8b 31 3d 77 58 79 be
       0.033483166 0.077766776 0.043346334 -0.24350153
0002b0 63 d5 c3 bd fe 5a 23 be 53 67 de bd ff b7 dd 3c
       -0.09562185 -0.1595268 -0.10859551 0.027065275
0002c0 b2 22 c6 bd cb db fa bd dc 31 96 3c 35 0f 6c bc
       -0.09674586 -0.122489534 0.018334322 -0.0144079225
0002d0 eb 9a 30 3e 58 79 5a bd 37 4a 45 3e 5d 27 99 bd
       0.17246597 -0.05333838 0.19266592 -0.07478211
0002e0 54 b4 8c be d6 16 67 3d 15 91 53 bd a3 fe 66 3d
       -0.2748133 0.056418262 -0.051652033 0.056395184
0002f0 90 ea 0c ba c7 c1 14 be bc 1e 72 bd da de 04 3d
       -0.00053755287 -0.14527045 -0.05911134 0.03243909
000300 c7 00 dd 3c 32 54 b6 3c 97 0d 9a 3d c5 37 d5 bc
       0.02697791 0.022256944 0.07522123 -0.02602757
000310 c4 12 13 bd 3a 0f 57 3d ed f0 66 3d b9 27 b1 3d
       -0.03590657 0.052504756 0.05638211 0.086501546
000320 bf af a6 3b 81 4f d5 bd 03 9f c7 3d 49 b8 af 3c
       0.0050868685 -0.10415555 0.09747126 0.021450179
000330 2f 49 eb 3b 3b 8b 89 3d 49 41 6e bc 28 d8 86 bc
       0.007180355 0.06716009 -0.014541932 -0.016460493
000340 d8 88 09 bb 8c 38 c6 bd f2 e7 a9 bd 02 b3 77 3c
       -0.0020986106 -0.09678754 -0.08296193 0.015118362
000350 f5 5e 92 bd 23 1b 27 be 20 47 4e be 55 0d 64 3d
       -0.07147018 -0.16318946 -0.2014432 0.055676777
000360 5f 77 16 3d 5e 05 5e 3c 34 9a 8d 3c 93 dd 19 3e
       0.036734935 0.013551084 0.017285444 0.1502593
000370 3d 29 a0 3e c0 5f 20 bd 71 e4 82 3d 8b f3 20 3e
       0.31281462 -0.039153814 0.06391228 0.15717904
000380 50 96 2c bc 84 de 51 3d df 64 12 3d b2 87 37 3d
       -0.010533884 0.051237598 0.03574073 0.044807144
000390 c4 f1 07 bd bd ae f9 bd d0 b0 5a b9 91 00 97 3d
       -0.03318955 -0.12191532 -0.00020855968 0.07373155
0003a0 c8 4b ff bc 1f 24 08 bd fb 3d cb bd 43 7b 41 bc
       -0.031164065 -0.033237573 -0.09923931 -0.011809173
0003b0 24 e7 9b 3d 40 db 16 3d cb 4a 44 3e d9 2e 71 3d
       0.07612446 0.036830187 0.19169156 0.058882568
0003c0 c2 2f 3d bd c4 98 b0 bd 22 df 91 bd 3a b8 07 3c
       -0.046188124 -0.08622888 -0.07122637 0.008283669
0003d0 b0 b3 f6 3c c3 2a 2d bc 9f 79 23 bd 33 cb b7 3d
       0.030114979 -0.010569277 -0.03991091 0.08974304
0003e0 53 99 d7 bc 17 00 d4 bd b3 8d 6a 3c e3 9c b1 bc
       -0.026318228 -0.1035158 0.01431601 -0.021681255
0003f0 29 aa 24 3e 68 d6 19 bd 90 6f b9 3d 45 a8 89 3d
       0.16080536 -0.03755799 0.09054482 0.06721548

cnn_blocks.0.conv.bias f4 [32]
000000 65 c2 60 b7 51 49 67 37 ec e4 d4 36 22 bd cd 37
       -1.3396701e-05 1.3785743e-05 6.3447424e-06 2.4525976e-05
000010 a5 71 6e 36 94 77 1b b7 e7 f6 03 38 82 11 5c b7
       3.5530913e-06 -9.266561e-06 3.146278e-05 -1.3117098e-05
000020 36 ee c5 b6 5a 9d 28 38 9d d8 bd b6 ba cb a1 b6
       -5.898789e-06 4.0200866e-05 -5.657856e-06 -4.821891e-06
000030 ed a2 64 b7 56 1c ad b7 96 8e f0 b7 2f e6 38 37
       -1.3627793e-05 -2.0636402e-05 -2.8676626e-05 1.1020848e-05
000040 7f f6 12 38 9c 49 de b6 5e 0a 25 b7 f5 87 64 b8
       3.503868e-05 -6.624685e-06 -9.83718e-06 -5.4486056e-05
000050 97 33 c8 36 2e c8 83 36 6e 0d 1a b8 c0 e7 93 36
       5.9664703e-06 3.927408e-06 -3.672897e-05 4.4079206e-06
000060 15 1b 13 36 be 7a bb 37 ca 1c ef b7 18 7e a3 b7
       2.192047e-06 2.2349293e-05 -2.8504426e-05 -1.9489831e-05
000070 5d fb a9 36 ac e5 29 b7 71 64 61 37 49 d6 bb b7
       5.065855e-06 -1.012666e-05 1.3434431e-05 -2.2391921e-05

cnn_blocks.0.bn.weight f4 [32]
000000 a5 58 73 3f 19 1e 40 3f 2c 64 58 3f 99 ee 61 3f
       0.95057136 0.75045925 0.8452785 0.88254696
000010 30 db 41 3f 1f a9 5d 3f 53 0c 6b 3f 60 0d 64 3f
       0.7572508 0.86586183 0.9181568 0.8908291
000020 a7 5e 4f 3f b9 66 4a 3f 65 27 48 3f 51 b2 59 3f
       0.81003803 0.7906299 0.7818511 0.85037714
000030 67 ed 3d 3f 92 04 38 3f 6c 09 3c 3f da f7 3e 3f
       0.7419037 0.71881974 0.73451877 0.7459694
000040 1d 37 68 3f 4b 5c 4d 3f 57 68 78 3f ff 7b a3 3f
       0.90709096 0.8021895 0.9703421 1.2772216
000050 96 5d 6c 3f 56 e7 86 3f 2c e7 54 3f c7 6d 49 3f
       0.923303 1.0539348 0.8316524 0.7868313
000060 d9 41 5b 3f b5 e0 69 3f 1b 28 80 3f a6 58 62 3f
       0.8564735 0.913585 1.0012239 0.88416517
000070 64 f9 8d 3f 3a a4 6f 3f 89 c5 5c 3f 8e b3 7f 3f
       1.1091733 0.93609965 0.86238915 0.99883354

cnn_blocks.0.bn.bias f4 [32]
000000 b5 8a 9c be f5 65 15 be 50 bc 5b be fc 1c 9e be
       -0.30574575 -0.14589675 -0.21458554 -0.30881488
000010 90 09 32 be 08 c7 bb be 46 d3 bb bc d3 78 e2 be
       -0.1738646 -0.36675286 -0.022927891 -0.44232807
000020 1e 73 99 be 86 53 69 bd 5f f8 95 be 81 97 a3 be
       -0.2997064 -0.05696442 -0.29291055 -0.31951526
000030 aa cf ca be 88 d7 fc 3a 6f a5 3c be 04 03 9b be
       -0.3961156 0.0019290308 -0.18422483 -0.30275738
000040 74 94 c2 be 28 c6 b3 bd 83 59 2a be 2d 14 28 bf
       -0.38003886 -0.0877803 -0.16635709 -0.65655786
000050 3d c7 83 be ca eb 8e be 0c 4c e6 3c f4 b9 f3 bd
       -0.25737944 -0.27914268 0.028112434 -0.11900702
000060 52 bf 77 be 06 3e c0 bd f0 40 4d be 61 38 81 be
       -0.24194077 -0.0938683 -0.20044303 -0.25238326
000070 0c 2e b7 be 11 20 90 be ee fe ba be 2d 7a 00 be
       -0.35777318 -0.28149465 -0.3652262 -0.12546606

cnn_blocks.0.bn.running_mean f4 [32]
000000 8b b5 5f 3e 99 63 10 3e ef de 9c be da aa 02 3e
       0.21846597 0.14100493 -0.30638835 0.12760487
000010 4d 06 32 bf 5e ac 06 bf b6 20 da 3d 94 f4 ff bd
       -0.69540864 -0.5260676 0.1065077 -0.124978215
000020 e9 9a 44 bf ee 56 99 3e be 36 bf bf 96 6f 14 bd
       -0.76798874 0.29949135 -1.4938581 -0.03623923
000030 18 34 cc 3e ad 5e fd be 3f 1a 5b 3f bf 58 b0 be
       0.39883494 -0.49486294 0.85586923 -0.34442708
000040 b2 df b5 3e 4d ad 54 3e 85 4f 4a bf 57 2f 58 bf
       0.35522228 0.20769234 -0.7902759 -0.84447235
000050 f8 83 26 bf 63 94 26 bf 16 dc 02 bd 7f 37 e3 3e
       -0.6504512 -0.6507017 -0.03194817 0.44378278
000060 bd 68 36 be e2 f0 a9 bf ef bc 7c bd 0c e3 bb bf
       -0.17813392 -1.3276637 -0.06170362 -1.4678664
000070 1d 4d a6 be a1 b9 3d 3f 85 50 ea 3d 73 ca f8 be
       -0.32480708 0.7411137 0.11441139 -0.48591956

cnn_blocks.0.bn.running_var f4 [32]
000000 4e a6 52 3f ef d9 86 3f 05 d6 24 3f e7 63 80 3f
       0.8228501 1.0535258 0.6438907 1.0030488
000010 76 64 65 3f ea f2 14 3f 1c e7 32 3f bc 6d 4c 3f
       0.89606416 0.5818316 0.69883895 0.7985494
000020 4a 84 1d 3f 8b 44 30 3f b6 ef 5b 3f 3a 21 22 3f
       0.6152998 0.6885459 0.85912645 0.6333195
000030 6f d3 19 3f 2e 3b 0d 3f e9 a9 07 3f fd 8b e5 3e
       0.6008825 0.55168426 0.5299364 0.44833365
000040 d5 c2 ca 3e 61 72 40 3f 24 6d 9b 3f ed fd 3f 3f
       0.3960177 0.7517453 1.2142682 0.74996835
000050 94 00 4a 3f 20 a0 8a 3f dd a2 8f 3f be 01 17 3f
       0.7890713 1.0830116 1.1221577 0.58987033
000060 12 66 5f 3f 2f e4 4f 3f 21 41 4a 3f 8f b8 4a 3f
       0.8726512 0.81207556 0.7900563 0.79187864
000070 6f 1f 5a 3f 21 ff 97 3f 31 49 42 3f 0f 8b 55 3f
       0.85204214 1.1874734 0.7589293 0.8341531

cnn_blocks.1.conv.weight f4 [32, 32, 3, 3]
000000 68 da 81 3b 24 11 b3 bd 24 c6 3a 3c ee 3c c4 bc
       0.0039628036 -0.08743504 0.0113997795 -0.023954835
000010 c5 4f 9a be aa a8 16 3c 02 ab 88 3c df af 68 3c
       -0.30138984 0.009195486 0.016683105 0.014202087
000020 e0 a7 ea 3c bf 36 7c 3d 55 0b 51 bd 31 20 d6 bc
       0.028644502 0.061575647 -0.051036198 -0.026138397
000030 60 e7 bf bc 9e 76 8c 3d 82 e2 17 bd 37 6c 42 3c
       -0.023425758 0.06858562 -0.03708125 0.011866621
000040 8e 02 56 3c 07 90 dd 3b 6d ca 87 3d 1b 72 bd bd
       0.0130621325 0.006761554 0.066304065 -0.092502795
000050 7b d5 24 bc ac af e4 3d 1b 42 44 3c 24 0b 9a bd
       -0.010060663 0.11166319 0.011978651 -0.07521656
000060 b9 59 7f 3d 2c 4c 68 3b 82 dd 06 bd d9 f5 70 3b
       0.062341426 0.0035445793 -0.03292609 0.003676763
000070 40 f0 8b 3c 6c 10 35 bc c7 91 f6 bc b5 80 d1 bd
       0.017082334 -0.011051279 -0.030098809 -0.10229627
000080 95 9c 71 bd 0f c5 46 3c 31 be 3b bd fe 24 38 3c
       -0.05898722 0.012131943 -0.045835678 0.011239288
000090 ca a7 8d bb 79 00 34 be 09 b8 0e bc 67 90 17 bc
       -0.0043229805 -0.17578305 -0.00871087 -0.009250737
0000a0 ce 96 7d be 1b 07 09 be 75 9f 14 bd 93 3a 5e bd
       -0.24764559 -0.13381617 -0.036284883 -0.05425508
0000b0 b6 8e 80 3d 5f 74 5b bd a0 c4 ee 3c 04 31 ce bc
       0.0627722 -0.053577777 0.029146492 -0.025169857
0000c0 23 cd 81 bc 45 10 f4 3d 8f 3c dc bd 53 9a 95 bd
       -0.015844887 0.11917166 -0.10753738 -0.07304826
0000d0 a4 27 49 bd f9 6a d8 3c bb b4 be bc 5b c1 02 3d
       -0.04911007 0.026418196 -0.023279538 0.03192268
0000e0 ea ac 54 3d c1 8d d5 bc 23 88 26 3d a7 a0 e1 3b
       0.051922716 -0.02606857 0.040657174 0.0068856063
0000f0 77 f4 60 bd 97 86 38 3d 0c d3 5f 3d 7d 07 17 bd
       -0.05492064 0.04505023 0.05464463 -0.036872376
000100 8c a1 6e 3b 97 a1 0d 3d d8 be 06 be d0 3a ed 3d
       0.0036412207 0.034577932 -0.13158739 0.11583483
000110 27 fd be bb c8 ce 68 3c 89 c7 ff bd d6 e9 62 bc
       -0.005828518 0.014209457 -0.1248923 -0.013849696
000120 23 29 85 bc 40 21 71 3c 32 11 97 3c 36 20 42 bd
       -0.016254967 0.0147174 0.018440817 -0.047394
000130 ff 2d ac 3d f3 a5 eb 3c ff 09 81 3d c4 f8 c9 bc
       0.084072106 0.028765654 0.06300735 -0.024654754
000140 c1 b5 91 bc 92 24 53 bd d3 ce 18 3d e3 8b b4 bc
       -0.017786862 -0.051548548 0.037306618 -0.02203936
000150 cd 57 da 3d 3c 2e e5 bb 08 8c 69 3c 08 8e a2 3d
       0.10661278 -0.006994037 0.014254577 0.079372466
000160 c4 2c 00 3d b9 b1 35 3c 66 59 c4 3c cf 18 19 3d
       0.03129269 0.011089736 0.02396841 0.037377175
000170 9f 0f 4b bc 1b 71 9d 3d 05 0f bd 3d e4 80 70 ba
       -0.012393861 0.07687589 0.092313804 -0.00091744796
000180 dc 2c 73 bd 34 3a d2 bd b7 f3 ea bc 2d a2 bf bb
       -0.059368953 -0.102650076 -0.028680665 -0.0058481903
000190 04 53 7b bd 5b ce 15 3c 99 28 3a bd 92 58 12 bc
       -0.061358467 0.009143437 -0.045448873 -0.00893225
0001a0 d5 3d a0 bd 70 07 2b bc 07 17 09 3d b3 e4 55 3b
       -0.078242935 -0.010438785 0.033469226 0.0032637536
0001b0 33 60 a0 bd a7 7d 88 bd c5 7d 81 bc 98 d4 43 3c
       -0.078308485 -0.06664591 -0.015807042 0.011952542
0001c0 e8 10 68 bd cf e2 18 3d 53 37 75 bc e3 b0 88 3b
       -0.056656748 0.037325677 -0.014966804 0.004171477
0001d0 d3 48 31 bd 3a b4 c1 ba cb cb ef bd 54 22 2c be
       -0.04328234 -0.0014778443 -0.11708792 -0.1680997
0001e0 98 64 3d bb f4 e1 d4 bd 10 19 94 bd 81 34 47 3d
       -0.002889907 -0.1039466 -0.07231343 0.048634056
0001f0 fd 78 0d 3d 96 7e 42 3d 9f 97 97 bd ef e0 07 3d
       0.03453921 0.047484003 -0.07401966 0.033173498
000200 1a a4 d9 3c 80 05 6d bd e6 86 6f bd 55 3a 80 3d
       0.026567508 -0.057866573 -0.05847826 0.06261126
000210 98 ce 12 3c 2f 24 ac 3c 4f ea 87 bd 78 5f ee 3c
       0.008960389 0.021013347 -0.06636488 0.029098257
000220 d9 c6 fc bd 5c 0b 13 be 4a d1 83 bb 1d c7 92 ba
       -0.12342615 -0.14359802 -0.004022752 -0.0011198256
000230 9a 57 0a 3d bf 2d 2d be 1e 98 a2 3d e3 45 4d bd
       0.03377495 -0.16911982 0.0793917 -0.050115477
000240 e6 0c 84 3d e4 f7 5c bc b3 d8 3e 3d 75 1e 4a 3b
       0.06447773 -0.013486836 0.04659338 0.0030840908
000250 13 01 73 b9 db e0 68 3d 7b 27 36 bd c3 15 aa bd
       -0.00023174686 0.056855064 -0.044471245 -0.08304932
000260 be 2f 86 bd 94 14 f1 bd d8 4e f8 bd a5 31 4e bd
       -0.06552075 -0.11771503 -0.12124413 -0.050340313
000270 c3 e0 a9 bc 3d a4 a9 3b 9a 91 12 3e c0 63 f9 bc
       -0.020737058 0.0051770494 0.14313355 -0.030443072
000280 06 e7 af bc 1e 65 c2 3c 14 c1 0e be 1c 7f d3 bd
       -0.021472465 0.023729857 -0.13940841 -0.103269786
000290 b2 07 d4 bc df f1 32 3d 68 e3 46 bd 33 d4 22 3d
       -0.025882576 0.043687697 -0.048556715 0.03975315
0002a0 d7 cd 5c 3b 02 bd 26 3d 61 48 b2 bd 01 19 4e be
       0.0033692026 0.040707596 -0.087052114 -0.20126726
0002b0 d6 6f a7 be be 06 a2 be 38 a5 c4 be ee ec e4 bd
       -0.32702512 -0.3164577 -0.38407302 -0.11178003
0002c0 26 71 aa be 88 b1 a8 be 7c a0 86 be 08 0c e1 bd
       -0.3328945 -0.32947946 -0.26294315 -0.10988623
0002d0 d2 f8 ca 3d 50 c5 a1 bc 68 be 12 3e 04 a6 28 bd
       0.0991074 -0.019747406 0.14330447 -0.04117395
0002e0 66 ef c3 be 17 be 29 3c 7e b6 2c 3d b5 7b 4a 3d
       -0.38268584 0.010360262 0.042166226 0.049434382
0002f0 d5 c7 4a 3d b1 53 a5 bd 5b a0 a7 3d 4f 16 b8 3c
       0.04950698 -0.080726035 0.08184882 0.022471575
000300 af 76 d6 3d 0b 04 9e 3d a6 f3 d2 3b 34 ba 32 3d
       0.10471856 0.07715615 0.0064377366 0.04363461
000310 48 27 c4 3c 3a 9f 26 bb a6 7f f8 bd ed 2d 26 3b
       0.023944512 -0.0025424496 -0.12133722 0.0025356964
000320 44 19 8a bd 28 ba ae bd 51 55 e3 bd 34 fb d7 bd
       -0.067431 -0.085316 -0.11100257 -0.1054596
000330 27 de 41 bd 96 8c ea 3c 22 6c 71 bd 2e db 4f 3c
       -0.047331 0.02863149 -0.058941014 0.012686534
000340 9f 92 dd 3d 3e a8 e9 bc 9c 74 94 3c af 7b f2 3d
       0.108189814 -0.028522607 0.01812201 0.11839997
000350 1d 5f 0d bd 22 5b 1b bc 56 64 4e 3e db 85 97 bd
       -0.034514535 -0.009482177 0.20155463 -0.07398578
000360 e3 b3 38 3d ea ff a6 3d 57 0c 1b 3d dc 96 90 3d
       0.04509343 0.081542805 0.037853565 0.07060024
000370 1d 4e aa ba 36 17 db bd e0 e9 a3 3d 0f 3f 9c bd
       -0.001299325 -0.106977865 0.080035925 -0.07629215
000380 09 e3 9a bd 43 f6 c0 3d 65 ee 8a 3b 2a da 91 bd
       -0.07562835 0.09421971 0.0042398446 -0.071216896
000390 c3 69 d5 3d ec 52 c2 bd dc c9 9c bc be ec cb 3d
       0.10420563 -0.09488472 -0.019139223 0.09957264
0003a0 8e 27 f6 3d 65 c1 23 3d f6 8e 00 3d 8e d8 f8 bd
       0.12019263 0.039979357 0.03138634 -0.121506795
0003b0 8c 90 81 3c fa a2 cd 3b cc 85 cb 3d a6 14 96 bc
       0.015815996 0.006275532 0.09937629 -0.018320393
0003c0 a4 74 ef 3d 7d 0a 56 3d e0 5c 30 bd 25 dc 02 3e
       0.11692169 0.052256096 -0.043057323 0.12779291
0003d0 d6 81 2d bd ff d4 22 3d 08 17 c1 3c f1 2f dd bd
       -0.04236015 0.03975391 0.023570552 -0.1080016
0003e0 29 c5 54 bd 2e 55 2e 3d f0 fd a4 bd 56 27 18 3e
       -0.05194584 0.042561702 -0.08056247 0.14858755
0003f0 37 75 91 be 28 d2 97 bd fe 8c 61 bd e3 3c 03 be
       -0.2840974 -0.07413131 -0.0550661 -0.12816195

cnn_blocks.1.conv.bias f4 [32]
000000 55 c4 0e 38 27 1f 48 34 2c f8 b3 36 20 cd 71 b6
       3.4038287e-05 1.8637785e-07 5.3635067e-06 -3.6031197e-06
000010 34 f2 32 b7 c4 8f 32 b7 cd 83 fd 36 de 4b 61 37
       -1.0666019e-05 -1.06431e-05 7.555331e-06 1.3428709e-05
000020 a3 4c 32 b8 4c d7 bc 36 25 d4 bc 36 7e 01 98 36
       -4.250988e-05 5.6279005e-06 5.6275335e-06 4.5301267e-06
000030 31 50 97 b6 3e 6a 1d b7 4d a5 72 37 22 bf 03 35
       -4.509486e-06 -9.382666e-06 1.4462811e-05 4.907944e-07
000040 83 de 17 b7 15 58 7a 37 ba 5b 09 37 d6 d2 46 b6
       -9.052109e-06 1.4921669e-05 8.187193e-06 -2.9627022e-06
000050 97 87 53 37 49 12 b7 b6 eb 2e 7e b6 e5 16 08 b6
       1.26081495e-05 -5.4559537e-06 -3.787626e-06 -2.0278906e-06
000060 d0 12 29 b7 2e dd 14 b7 af 5c 93 b6 84 dd 05 36
       -1.0077565e-05 -8.872985e-06 -4.391731e-06 1.9947483e-06
000070 19 55 dc 35 17 70 36 37 0a aa 87 37 28 a1 b9 b5
       1.6416044e-06 1.0874143e-05 1.6172435e-05 -1.3830477e-06

cnn_blocks.1.bn.weight f4 [32]
000000 c5 48 a4 3f 71 c7 79 3f 32 02 5d 3f 8e 58 30 3f
       1.2834707 0.9756995 0.86331475 0.68885124
000010 bd 5e 57 3f 3f 15 7d 3f 1a 8f 3a 3f 5f e4 46 3f
       0.84128934 0.98860544 0.72874606 0.77692217
000020 c3 f1 93 3f da 9a 52 3f 76 24 81 3f 72 9c 5d 3f
       1.1558155 0.82267535 1.0089252 0.8656684
000030 46 5b 50 3f 3b c7 58 3f 76 6b 51 3f 4b 31 86 3f
       0.8138927 0.84679 0.818046 1.0483793
000040 8a bd 3e 3f 57 e1 5c 3f d7 f4 6e 3f 24 40 8a 3f
       0.74507964 0.8628134 0.93342346 1.0800824
000050 16 6d 6a 3f ba 27 5c 3f b4 13 85 3f e9 ef 52 3f
       0.915727 0.8599812 1.0396638 0.82397324
000060 4d c9 65 3f ba 57 82 3f 55 10 6c 3f 7e da 66 3f
       0.89760286 1.0183022 0.9221242 0.9017714
000070 eb 9a 5d 3f 55 c2 84 3f 57 25 62 3f 98 c4 73 3f
       0.8656451 1.0371805 0.88338226 0.95221853

cnn_blocks.1.bn.bias f4 [32]
000000 17 7d 1f bf 39 95 da bd 5e 49 5a be 33 c4 ab be
       -0.62300247 -0.10672993 -0.2131705 -0.33548126
000010 e8 76 ab be 6a 85 6a be e5 0f e3 bd 57 33 e5 bd
       -0.33489156 -0.22902456 -0.11087016 -0.11191433
000020 98 e3 94 be 09 b7 4e bd 6e bf b2 be 1e 76 92 be
       -0.2907989 -0.050467525 -0.34911674 -0.2860574
000030 3e 82 9b be 56 a3 43 be 7e 4b 8a bd 46 f1 9d be
       -0.30372804 -0.19105276 -0.0675268 -0.3084814
000040 0e 30 f9 bd 2b 1d 0d be cc 61 5b be 23 91 84 be
       -0.12167369 -0.13780658 -0.21424025 -0.2589198
000050 5e ee 5a be 1b c0 75 be 62 3c c0 3d 7a 4e 09 be
       -0.21379992 -0.23999064 0.09386517 -0.13408843
000060 b6 3a ba be 4c 73 83 be 0a df d7 be fe 7d e2 be
       -0.36372918 -0.25673902 -0.42162353 -0.4423675
000070 a0 f7 95 be af f7 5a be 50 70 af be 74 3a fa bd
       -0.29290485 -0.21383546 -0.34265375 -0.1221818

cnn_blocks.1.bn.running_mean f4 [32]
000000 87 85 05 c0 8f 13 0b c0 66 d5 27 bf 47 ac 4b be
       -2.0862749 -2.1730688 -0.65559995 -0.19889937
000010 85 f7 20 bf 13 44 44 c0 52 8d e3 bf f2 6a 01 3f
       -0.62877685 -3.066655 -1.7777503 0.5055381
000020 75 30 66 3e f1 9a be 3c 7a 37 26 bf 04 2c 98 bc
       0.22479422 0.023267241 -0.649284 -0.018575676
000030 4b 80 3a bf 5d c6 11 bf b6 9b fb bf b8 76 11 bf
       -0.7285201 -0.56943303 -1.9656894 -0.56821775
000040 b5 28 4e be a1 a6 c4 bf 67 6d a4 bf 95 79 03 3f
       -0.20132716 -1.5363351 -1.2845887 0.51357394
000050 0c 38 4a ba 62 42 a2 be 95 43 05 c0 02 03 bc bf
       -0.000771404 -0.3169127 -2.0822499 -1.4688418
000060 b7 6d 32 bf 52 04 fb bf 64 64 59 3f 2c 49 0b bf
       -0.6969866 -1.9610693 0.8491881 -0.54408526
000070 4c 8f 45 be 4f c7 a0 bf 96 07 d8 be eb 71 bd bf
       -0.19292945 -1.2560824 -0.42193288 -1.480039

cnn_blocks.1.bn.running_var f4 [32]
000000 6b b3 11 40 5b aa 2f 40 02 74 bb 3f 5c 61 8d 3f
       2.2765758 2.7447727 1.4644778 1.1045337
000010 70 4c 8c 3f 63 2c c4 3f c2 a1 a4 3f b7 ee c1 3f
       1.0960827 1.5326046 1.2861865 1.5150975
000020 a5 db d0 3f a7 9b ad 3f 0a bb ca 3f 6c 98 91 3f
       1.631703 1.3563126 1.583833 1.137464
000030 03 87 ae 3f 68 c2 aa 3f e5 d6 bb 3f 4a d9 1d 40
       1.3634952 1.3340578 1.4674956 2.4663873
000040 59 f7 b9 3f 50 36 96 3f 88 5d be 3f d3 2d d4 3f
       1.452861 1.1735325 1.4872293 1.6576484
000050 d4 9a 01 40 f2 3f ac 3f 33 86 fa 3f 34 f8 ad 3f
       2.025075 1.3457015 1.9572204 1.359137
000060 39 f5 05 40 87 ef 13 40 6b 7c 8e 3f 10 9f f7 3f
       2.0930922 2.3114946 1.1131719 1.9345417
000070 3f 87 94 3f 93 a3 0c 40 ca b4 99 3f e5 90 f3 3f
       1.1603774 2.1974838 1.2008297 1.9028593

cnn_blocks.2.conv.weight f4 [32, 32, 3, 3]
000000 36 86 3e be 24 df e2 bd 2e 65 26 3c 02 f0 89 be
       -0.18605885 -0.11077717 0.010155959 -0.26940924
000010 b3 8b 76 be ac 92 92 bd 9f f1 9d bd 53 2c 10 3e
       -0.24076729 -0.07156882 -0.07712101 0.14079408
000020 19 cd 08 3e 24 9e 8e bd 7e c9 aa bd e1 65 24 bd
       0.13359489 -0.06963757 -0.08339213 -0.04013622
000030 13 00 9b 3c f6 40 2b bd 34 a6 7f bd 14 74 18 3e
       0.018920934 -0.04181 -0.062414363 0.1488803
000040 30 17 5f bc 8f 9c a1 bd bc 95 39 bd 62 c6 0b 3c
       -0.013616368 -0.07891189 -0.045308813 0.008531185
000050 2d 79 64 bd 24 38 24 3d 85 2d d0 bd bd a8 f7 bb
       -0.055779625 0.040092602 -0.10164932 -0.007557957
000060 17 c1 6e bc ff 6f d7 bc 77 46 ac bd 99 c0 b3 3c
       -0.014572403 -0.026298521 -0.084118776 0.021942424
000070 62 63 13 3e 8a 7b 8c 3d 90 3f 77 3c 28 b5 4b bd
       0.1439338 0.06859501 0.015090838 -0.04973331
000080 ad 9e d8 bc 9d 04 47 bd e7 61 9b bc 26 88 8b 3d
       -0.02644285 -0.048588384 -0.018967582 0.06813078
000090 c4 19 b3 3d be 2a 1c bd 86 43 28 3c 2b 2e 87 3d
       0.08745149 -0.0381267 0.010270005 0.06600603
0000a0 63 10 a7 bd ff 3f d9 3c f7 8b 81 bd 67 8d 0b be
       -0.081574224 0.026519774 -0.06325524 -0.1362816
0000b0 de 40 5c bc de ed 19 b8 ea 75 1b 3e be e1 4c 3e
       -0.0134432 -3.6699574e-05 0.151817 0.20007989
0000c0 b3 2c 4a bd 05 b6 58 bd 8d 51 ff 3d 1c 85 94 bd
       -0.049359035 -0.052907962 0.124667265 -0.07251951
0000d0 2d 7a 76 bd 14 aa 7d 3d 41 4e 9d bb 52 04 ce 3b
       -0.06017511 0.061929777 -0.0048005884 0.006287136
0000e0 7f 40 07 3c dc cd 50 bd f9 e2 b0 bd 06 84 91 3d
       0.008255123 -0.050977573 -0.086370416 0.071052596
0000f0 8c 58 09 3c 79 bb a7 bd 7a d0 a1 3c df 61 f7 bc
       0.008382928 -0.081900544 0.01975273 -0.030198036
000100 37 66 1d 3c 43 3a 37 bd 6b b2 5b bd 4e f4 f7 3d
       0.009606889 -0.044733297 -0.05363695 0.12107144
000110 6d 71 78 bd 13 23 c4 bc 92 9c fd bd df 8a 92 bd
       -0.060655046 -0.023942506 -0.12383379 -0.07155394
000120 43 89 b3 3d 48 f8 d7 3b f0 d4 99 bc 42 4b 0d 3e
       0.08766415 0.0065908767 -0.018778294 0.1379824
000130 b2 67 ac 3d b1 8d 55 bb 49 ef 94 bd 3e 3d fc bd
       0.08418216 -0.0032585675 -0.072722025 -0.123163685
000140 77 c0 36 be 76 89 10 3c 78 3f b5 3d ac b7 a3 3c
       -0.17846857 0.008821836 0.08849996 0.019985043
000150 69 0b 41 bd 51 3a 54 bd 00 eb 36 3d 6f bb 75 3c
       -0.047130022 -0.051813427 0.044657707 0.014998301
000160 95 82 14 bd 56 cd 9f 3a f2 ac a2 3d 00 f6 bc 3d
       -0.036257345 0.0012191932 0.07943143 0.09226608
000170 d7 54 51 3d c4 65 cb 3c d1 23 d7 3d 04 38 da bb
       0.0511063 0.0248288 0.10504878 -0.0066595096
000180 2b b4 2c bd 9e 2c ed 3c 43 ba 6d bd cb 41 e9 bd
       -0.04216401 0.02895194 -0.05803896 -0.11389502
000190 89 f4 35 3d ee cd 14 3e d3 02 2d be 86 35 2b bd
       0.04442266 0.14531681 -0.16895609 -0.04179909
0001a0 c7 22 c9 3d 42 f7 3f be eb 59 f7 bd f6 d1 80 3c
       0.098210864 -0.18746665 -0.12077697 0.015725117
0001b0 bd 48 ed bb 0d e2 0a 3d be b5 2c bd cb 24 02 be
       -0.007241337 0.033906985 -0.04216551 -0.12709348
0001c0 30 41 5b bd 50 11 99 bc d6 ae 68 bc 7e ed 42 3c
       -0.053528965 -0.018685013 -0.01420184 0.011897443
0001d0 b3 ab 0b bd da 4a e7 3b 6c cb 88 bd 59 eb a0 bd
       -0.034099292 0.0070584835 -0.06679425 -0.07857389
0001e0 38 6a 36 bb 65 51 c5 bc 39 42 71 bd 5f 6a de 3c
       -0.0027834307 -0.024086663 -0.058901045 0.027150331
0001f0 68 c8 8c bd 5a a9 90 bd 90 69 d5 3d fb 75 13 bd
       -0.06874162 -0.07063551 0.10420525 -0.036001187
000200 aa d8 27 bd 79 ea b9 bd 6b c1 4f bd 9f b5 ff bc
       -0.04097811 -0.09077925 -0.050721567 -0.031214533
000210 c4 4a 06 bd 1e 73 c1 bd 75 44 06 be 17 b5 67 bd
       -0.032786146 -0.09445785 -0.13112052 -0.056569185
000220 f9 9e 02 3d d3 b1 23 3d 8e 72 db bd a8 38 3d 3d
       0.03188989 0.03996451 -0.10715209 0.04619661
000230 54 20 a9 3d 6f 3b ac bc 0c 66 23 bd ba 72 6e ba
       0.08258119 -0.021024434 -0.03989224 -0.0009096075
000240 46 b6 0c be 70 dc 36 bd 4a c7 f5 bc e1 d8 7d 3c
       -0.13741407 -0.04464382 -0.030002255 0.0154936025
000250 e9 83 34 bd fe c1 51 3c 31 01 78 3d 1f ac eb bc
       -0.04407111 0.012802599 0.06054801 -0.028768597
000260 c8 3c 01 3d 48 0e 53 3b 51 95 fa bd f3 5b b7 bc
       0.031552106 0.0032204557 -0.12235511 -0.022382712
000270 f5 6e 1f 3d cb 40 98 3b e3 e5 2c bd ea 19 28 3c
       0.038924176 0.004646396 -0.042211425 0.010260085
000280 16 d6 94 bd e0 e3 e2 3d ff 95 67 3d 8d d0 8d bd
       -0.07267396 0.1107862 0.05653953 -0.069245435
000290 77 20 bf bc 45 8d 88 3c 0b f9 31 3d ca 57 c7 3c
       -0.02333091 0.016668925 0.043450397 0.024333853
0002a0 12 27 a5 bd 1f 04 2b 3d 7c 2b ec 3d f8 d9 51 3e
       -0.08064093 0.041751977 0.115317315 0.20493305
0002b0 89 a9 9d bd 53 7d 24 bd f4 ec 8b 3d bb 76 af bc
       -0.07698352 -0.04015858 0.068323046 -0.02141892
0002c0 24 f5 9a bd c8 1c 6a 3d e0 2b 13 bd 54 6e 9b bd
       -0.07566288 0.057156354 -0.035930514 -0.07589403
0002d0 d7 3f ff bc 0a a3 63 bd 25 77 2f bd 12 89 ad 3d
       -0.03115837 -0.055575408 -0.042838234 0.0847341
0002e0 c3 7b 9e bd 96 74 c7 3b fa 08 76 3d b5 31 a1 3c
       -0.077384494 0.006086896 0.060067154 0.019677022
0002f0 03 e1 0f be 68 3b 7b bd 44 20 d3 3d 3a 28 c0 bd
       -0.14050679 -0.06133595 0.103088886 -0.093826726
000300 a8 ea f9 3d 35 cb 9f 3d 47 39 0e bd dd d0 94 bd
       0.1220296 0.078024305 -0.034722593 -0.072664
000310 16 4f 1f 3e 2e 41 53 3d 78 d9 29 be 6c 7e 8c bc
       0.15557513 0.051575832 -0.16586864 -0.017150126
000320 62 93 16 3d fc 48 91 bd 44 f4 a7 bd b9 f5 98 bb
       0.03676165 -0.07093999 -0.08200887 -0.0046679643
000330 0a 9e 98 3c d3 8e b1 3d 90 d2 83 3b ac 6d f4 3c
       0.018630046 0.0866982 0.0040229037 0.029837452
000340 c1 52 a1 3d 44 e6 a5 3c 89 55 15 be de 31 3c 3c
       0.07877112 0.0202514 -0.1458341 0.011486499
000350 4e 4e 8c 3d 1e 88 83 bc 5a 73 fc 3c 24 b7 81 3d
       0.06850873 -0.016056117 0.030816723 0.063337594
000360 2b 1e 04 3d 7d 7c 01 3d ab 12 12 bb 68 e4 6c 3d
       0.032255333 0.031612862 -0.002228896 0.057835013
000370 4d 36 4f 3d 5a 2c fe 3c cf 43 16 3e 19 60 82 3d
       0.050588895 0.031027008 0.14674304 0.063659854
000380 f5 86 c5 3c 33 47 92 3d e7 17 b8 3d 0d 50 f5 bc
       0.024112204 0.071424864 0.08988934 -0.029945398
000390 5e 39 28 3d 33 27 b3 bc ad 09 ad 3d 75 cf 8e 3c
       0.041070335 -0.021869278 0.08449111 0.017432908
0003a0 0c e7 9c 3d bc 7f e3 3d 42 e4 06 bc 20 b7 8e 3d
       0.07661256 0.11108348 -0.008233132 0.06968522
0003b0 8c 15 5b be 9e 87 18 bd d0 02 cc 3d 92 89 7b bc
       -0.21394938 -0.03723871 0.09961474 -0.015352624
0003c0 50 e0 40 3d 44 05 c6 3d d2 e8 3a 3d c7 4c 0a 3e
       0.04708892 0.09668973 0.04563219 0.1350585
0003d0 ca 84 0a 3d ab d4 85 bd 33 05 8c 3d da d8 b1 bc
       0.033818044 -0.06534704 0.06836929 -0.021709848
0003e0 05 65 61 bd bd cc 69 3d 5a 1c a4 3d a3 24 75 bd
       -0.05502798 0.05708002 0.0801322 -0.059849393
0003f0 26 51 ca 3d 0a 09 03 3e 68 87 8d 3c 1c 13 29 bd
       0.09878759 0.12796417 0.01727648 -0.04127799

cnn_blocks.2.conv.bias f4 [32]
000000 e6 88 38 36 5e 41 2f 37 fe 83 73 b7 2c 99 0c b6
       2.7497822e-06 1.0446032e-05 -1.45146605e-05 -2.0950783e-06
000010 48 99 01 37 2d 9e 21 34 17 5d 7d 37 a5 15 30 b7
       7.724688e-06 1.5051837e-07 1.5101649e-05 -1.0495457e-05
000020 cc 65 e6 36 a9 df d8 36 81 93 93 36 75 25 2a 37
       6.866385e-06 6.463339e-06 4.398113e-06 1.0141511e-05
000030 d1 08 36 b5 07 99 ac 36 62 76 d3 b6 f8 1b 38 b5
       -6.7813113e-07 5.143814e-06 -6.3020716e-06 -6.858604e-07
000040 45 34 44 33 6d 6a 35 36 f6 dc 56 37 94 0b b2 37
       4.5682345e-08 2.703305e-06 1.28068405e-05 2.1224645e-05
000050 ad 82 75 36 00 9c 8c b6 00 8c 3b 37 1e f4 70 b6
       3.6583908e-06 -4.190486e-06 1.1178665e-05 -3.5904882e-06
000060 45 be 8e b7 00 90 ae b6 f1 1d e1 b5 ad a0 f5 36
       -1.701632e-05 -5.202368e-06 -1.677252e-06 7.320274e-06
000070 1f ef 81 b6 f9 53 d4 36 d1 1d 66 b7 39 6b 6e b7
       -3.872337e-06 6.327868e-06 -1.37160105e-05 -1.421087e-05

cnn_blocks.2.bn.weight f4 [32]
000000 81 16 71 3f 61 0e 7a 3f 44 28 4e 3f f4 91 72 3f
       0.94174963 0.9767819 0.8053019 0.94753957
000010 9d 09 65 3f f2 8d 8d 3f e7 f3 5e 3f 02 58 46 3f
       0.89467794 1.1058943 0.87090915 0.7747804
000020 09 d1 87 3f 97 cf 34 3f 82 a9 71 3f af 5a 50 3f
       1.0610667 0.70629257 0.94399273 0.8138837
000030 ab 29 33 3f 3c 7f 55 3f 62 5d 49 3f 2c 7d 57 3f
       0.69985455 0.8339727 0.78658116 0.8417537
000040 f9 b4 53 3f c5 c6 69 3f d0 c9 5d 3f 5c 1c 5d 3f
       0.8269802 0.91318923 0.86636066 0.863714
000050 3f 92 54 3f 13 3d 4e 3f 17 25 87 3f a4 0c 44 3f
       0.83035654 0.8056194 1.0558194 0.7658179
000060 b2 3e 89 3f 16 f4 70 3f ea 8e 64 3f a6 87 72 3f
       1.0722258 0.94122446 0.8928057 0.94738233
000070 b6 e5 55 3f 2e 03 62 3f 2b a3 65 3f 8a fe 82 3f
       0.83553636 0.882861 0.897021 1.0233929

cnn_blocks.2.bn.bias f4 [32]
000000 0e ad 97 be 48 4b 75 be be 31 23 be a6 ca b2 be
       -0.29624218 -0.23954499 -0.15936944 -0.34920233
000010 9c 38 50 be 24 fc 90 be 88 4f 89 be 38 93 2e be
       -0.20334095 -0.28317368 -0.2681849 -0.17048347
000020 71 b5 a6 be 61 85 26 be 1e 39 96 be 25 a9 6a be
       -0.32560304 -0.16261818 -0.29340452 -0.22916086
000030 82 b2 81 be f7 1b 88 be 6b e5 55 bd d1 5e b4 be
       -0.25331503 -0.26583835 -0.052220743 -0.3522859
000040 c8 ea 14 be 2c 10 31 be 28 3b 74 be af 70 bc be
       -0.14542687 -0.17291325 -0.23850691 -0.3680472
000050 21 e9 01 be 99 8f 34 be ab 62 5b be 23 41 6c be
       -0.12686588 -0.17632903 -0.21424358 -0.23071723
000060 5d 8f 05 bf 03 2a 67 be b9 e6 0e be b2 b6 cb be
       -0.5217188 -0.2257462 -0.13955201 -0.39787823
000070 23 a9 5f be 80 ee c4 bd 80 93 ac be dc 1c b1 be
       -0.21841864 -0.09615803 -0.33706284 -0.3459233

cnn_blocks.2.bn.running_mean f4 [32]
000000 38 d3 9c bf b9 2c 2d bf a2 77 d8 bd 17 a3 44 bf
       -1.2251959 -0.67646366 -0.10569693 -0.76811355
000010 42 25 0a bf 15 32 1d 3c a3 91 93 3f ef e2 6b bf
       -0.539631 0.00959446 1.152882 -0.9214315
000020 8c dc 6a be 02 21 a5 3d 2c 73 d3 be fd eb 1f be
       -0.22935694 0.08062936 -0.41298807 -0.15617366
000030 1b 55 c8 bf 0e 3b 54 bf 29 b5 8d be dd 15 8b be
       -1.5650972 -0.8290261 -0.27677277 -0.27165118
000040 14 63 9c bf 3f 49 11 c0 80 5d 15 bf 90 ee 40 bf
       -1.2217736 -2.2700956 -0.58345795 -0.7536402
000050 a3 e5 82 3f d4 48 d3 3e 2d cc 80 3f ea 0c 95 3d
       1.022633 0.412665 1.006231 0.07277854
000060 7b 0d 6f bf b1 e7 eb bf cc 22 99 bf cb 01 2e bd
       -0.93379945 -1.8430082 -1.1963744 -0.04248218
000070 1d b7 c5 bf ef 86 94 3f 21 6c 62 bf 3a 7d 1a c0
       -1.5446507 1.1603678 -0.8844624 -2.4138932

cnn_blocks.2.bn.running_var f4 [32]
000000 f3 f0 d4 3f 65 ef 5b 40 40 0d b7 3f 1b 7d 17 40
       1.6636032 3.4364865 1.4300919 2.3670108
000010 5a b8 fd 3f 33 fc 40 40 c6 f8 1e 40 d0 20 09 40
       1.9821885 3.015393 2.483934 2.1426277
000020 d5 cd d6 3f c7 e5 b9 3f 69 08 15 40 07 50 c9 3f
       1.6781565 1.4523247 2.3286383 1.5727547
000030 bc 18 27 40 8c 10 d3 3f 9f 80 30 40 ec 37 ba 3f
       2.6108847 1.6489425 2.7578504 1.4548316
000040 7e a9 8b 40 0e 9c 48 40 8e ef 09 40 5f 45 98 3f
       4.36444 3.1345248 2.1552463 1.189617
000050 e2 e2 24 40 96 24 ee 3f 92 1a 0e 40 a3 c6 8d 40
       2.5763478 1.8604915 2.2203717 4.4304976
000060 6f 3a 01 40 2b 09 45 40 74 97 0e 40 0a 2a 19 40
       2.0191915 3.0786846 2.227994 2.3931909
000070 ec 09 e8 3f ca b6 73 40 6c a2 e0 3f 8e 47 c5 3f
       1.8128028 3.8080316 1.7549567 1.5412462
