weights/geese_net_fold1_best.pth (torch, 767420 bytes, 94 tensors)

embed_step.weight f4 [5, 3]
0	0xb9b6384d	-0.00034755692
1	0x3e81913f	0.25306126
2	0xbe2e6a7a	-0.17032805
3	0xba7781e3	-0.0009441657
4	0xbd87c210	-0.06628811
5	0x3c8ffd3a	0.017576803
6	0xbaaea48c	-0.0013324185
7	0xbe101ada	-0.14072743
8	0x3da6b25e	0.081394896
9	0xba8dbfed	-0.0010814645
10	0xbe1f4b32	-0.15556028
11	0x3dda651a	0.10663815
12	0xbad83818	-0.001649621
13	0xbe0f5895	-0.13998635
14	0x3ddc5c6c	0.107598156

embed_hunger.weight f4 [5, 3]
0	0xbe1963a8	-0.14979422
1	0xbe03963c	-0.12850279
2	0x3e0d905b	0.13824598
3	0x3d49df6d	0.04928534
4	0x3d095f65	0.03353824
5	0xbd55b787	-0.05217698
6	0x3dfe1189	0.12405688
7	0x3da963b6	0.082709715
8	0xbcf8f3ad	-0.030389631
9	0x3c91f2bc	0.01781594
10	0x3dd8a418	0.105781734
11	0xbe11093c	-0.14163679
12	0xbb8da674	-0.0043228213
13	0x3dc47955	0.09593455
14	0xbd7cf68c	-0.061758563

embed_diff_len.weight f4 [7, 4]
0	0x3f94f06e	1.1635873
1	0x3ec3f367	0.3827164
2	0xbf86ed33	-1.0541137
3	0xbf850d4b	-1.0394682
4	0x3eba9c00	0.36447144
5	0x3dff9f26	0.12481527
6	0x3e7cbf3b	0.24682324
7	0xbf06e049	-0.5268598
8	0x3e206df6	0.15666947
9	0x3e8044e3	0.25052556
10	0x3e5efa1d	0.21775098
11	0xbe3316b6	-0.17489132
12	0xbcd3bbb3	-0.025846338
13	0x3e922677	0.2854497
14	0xbecfe9a4	-0.4060794
15	0x3ee6cb06	0.4507677
16	0xbef3ea6f	-0.47639796
17	0xbf346d5c	-0.7047937
18	0xbe7f8d64	-0.2495628
19	0x3ea34c5b	0.31894192
20	0xbf047a26	-0.51748884
21	0x3d011ca7	0.031521466
22	0x3df3499f	0.118792765
23	0x3edb1962	0.42792803
24	0x3e2103c9	0.157241
25	0xbf3b51eb	-0.7317187
26	0x3f081db1	0.53170305
27	0x3f86d465	1.0533568

embed_diff_head.weight f4 [9, 4]
0	0xbe450f36	-0.19244084
1	0xbf9f8b81	-1.2464448
2	0xbf762fee	-0.96166885
3	0xbf8605b2	-1.0470488
4	0xbecbb1d1	-0.397841
5	0x3ee5b459	0.44864157
6	0xbe4b8fdf	-0.19879101
7	0x3e4889fa	0.19583884
8	0xbed18c21	-0.40927222
9	0xbd8b28dd	-0.067949034
10	0xbea78a5f	-0.32722756
11	0x3f0506df	0.5196361
12	0xbeaace55	-0.33360544
13	0xbdb0e142	-0.086367145
14	0x3efb45bb	0.49076638
15	0x3e8e1f4e	0.2775826
16	0x3eb10119	0.3457115
17	0xbf305bbd	-0.6888998
18	0x3e8f1844	0.279482
19	0x3e8ffe31	0.2812362
20	0x3d69f569	0.057118807
21	0x3f02b834	0.5106232
22	0x3f0bad06	0.5456089
23	0xbe0507c8	-0.1299125
24	0x3f1ad326	0.60478437
25	0xbe22323d	-0.15839477
26	0x3d1ed4ee	0.038777284
27	0xbe1e6c16	-0.15470919
28	0x3ea9b64a	0.33146888
29	0x3e658ebb	0.22417729
30	0x3ddd722a	0.10812791
31	0xbdcd9130	-0.10037458
32	0x3eb33296	0.34999532
33	0xbccbc21d	-0.024872834
34	0x3da805b1	0.082042105
35	0x3ec71169	0.3888047

conv0.conv.weight f4 [32, 25, 3, 3]
0	0xbdfb5729	-0.12272484
1	0xbdc4bda6	-0.09606485
2	0xbd9798e4	-0.074022084
3	0xbde6b6f8	-0.11265367
4	0xbe11aa47	-0.14225112
5	0xbdf20a76	-0.118184015
6	0xbd94dee4	-0.072690755
7	0xbdfaf4de	-0.12253736
8	0xbd169111	-0.03675944
9	0xbd31563f	-0.04329514
10	0xbe44c89e	-0.19217154
11	0xbda47023	-0.08029201
12	0xbde47c0c	-0.111564726
13	0xbeb1ba74	-0.34712565
14	0xbe210f44	-0.1572848
15	0xbe173a1b	-0.14768259
16	0xbe6a739e	-0.22895667
17	0xbeb845d1	-0.35990766
18	0xbcab7e4d	-0.020934248
19	0xbe34aba7	-0.17643605
20	0xbda925c2	-0.08259155
21	0xbe39f237	-0.18158804
22	0xbe79e91c	-0.2440533
23	0xbe45227f	-0.1925144
24	0xbd46505f	-0.04841649
25	0xbe3caa86	-0.18424425
26	0xbe9eacd0	-0.3099122
27	0xbd2d2f38	-0.04228136
28	0xbe1ece84	-0.15508467
29	0xbdd63b0a	-0.104604796
30	0xbe2281cf	-0.1586983
31	0xbe57eb66	-0.21085891
32	0xbe2f24e7	-0.17103921
33	0xbe503b58	-0.20335138
34	0xbe5f3da3	-0.21800856
35	0xbeaa3fee	-0.332519
36	0x3c972b2e	0.018453207
37	0xbd45f34f	-0.04832774
38	0xbc3d0edc	-0.011539187
39	0xbd651dee	-0.055936746
40	0xbd554bc2	-0.0520742
41	0xbda09e0d	-0.07842646
42	0x39896aaa	0.00026210147
43	0xbd0eeb62	-0.034892447
44	0xbd233726	-0.039847516
45	0xbcf52244	-0.029923566
46	0x3c006b90	0.007838145
47	0xbce8f41c	-0.028436713
48	0xbcecb364	-0.028894134
49	0x3d0fdfd0	0.035125554
50	0xbc4160d2	-0.011802869
51	0xbc31cc7a	-0.010851974
52	0xbd1e1823	-0.038597237
53	0xbd1e01c2	-0.038575895
54	0xbd3e398a	-0.046441592
55	0x3d657d5c	0.056027755
56	0xbd313bd3	-0.043269943
57	0x3d180609	0.03711513
58	0xbc0115a8	-0.007878698
59	0x3c0e1515	0.008672019
60	0xbcc3366e	-0.023829665
61	0x3cbbe68f	0.022937087
62	0xbd1206d0	-0.03565103
63	0xbcc8758a	-0.02447011
64	0xbc7fe510	-0.015618578
65	0xbd15c3d3	-0.036563706
66	0xbaf11cf5	-0.0018395471
67	0x3d8ff088	0.070282996
68	0x3c51fb50	0.012816265
69	0xbd174ef0	-0.036940515
70	0xbd806f04	-0.062711746
71	0xbd462ad2	-0.04838068
72	0x3cf892b0	0.030343384
73	0xbd81fa9a	-0.063466266
74	0xbc0a2e1e	-0.008433847
75	0x3c8d2315	0.017228642
76	0xbe45b19b	-0.19306032
77	0xbd11886b	-0.03553049
78	0x3c3f19b8	0.011663847
79	0xbc45c156	-0.012070021
80	0xbd019a26	-0.031641148
81	0xbc8343fb	-0.016023627
82	0xbcd172ed	-0.025567496
83	0xbd25d032	-0.040481754
84	0xbcf849d5	-0.030308643
85	0xbdaf47bf	-0.08558606
86	0xbd7de299	-0.06198368
87	0x3c1d2af9	0.009592765
88	0xbd7e00aa	-0.062012352
89	0xbc8d2de1	-0.01723379
90	0xbcecf477	-0.028925164
91	0xbc0f380c	-0.00874139
92	0xbcb475ac	-0.022028767
93	0xbc8d0a87	-0.017216934
94	0xbdb2084d	-0.086929895
95	0xbd76dfc6	-0.060272
96	0xbc10be89	-0.00883449
97	0xbd4052d1	-0.04695398
98	0xbc1e3f39	-0.009658628
99	0xbca4ff4d	-0.020141268
100	0xbd6ca1b5	-0.057771403
101	0xbc7b1f6d	-0.015327317
102	0xbc7a36f2	-0.015271889
103	0xbdd80028	-0.10546905
104	0xbda99b64	-0.082815915
105	0x3a87e8a7	0.0010369018
106	0xbd7704fa	-0.06030748
107	0xbbbb9ae6	-0.0057252524
108	0xbd43d3de	-0.047809474
109	0xbc90d685	-0.017680416
110	0xbdd49475	-0.103798784
111	0xbd56d87a	-0.052452542
112	0x3c468f0e	0.012119068
113	0xbd492c78	-0.049114674
114	0xbd6b43ff	-0.057437893
115	0xbccb6b8b	-0.024831554
116	0xbde5b2aa	-0.11215718
117	0xbcf94bf9	-0.030431734
118	0x3cff68bd	0.031177873
119	0xbc8f319a	-0.017479707
120	0x3cb606c6	0.022220027
121	0x3df52efb	0.119718514
122	0x3cae1d57	0.021254225
123	0xbd505103	-0.05085851
124	0x3d1f79cf	0.038934525
125	0xbd7a133e	-0.061053507
126	0xbcf06625	-0.029345581
127	0x3c9b6e92	0.018973622
128	0xbd1821c1	-0.037141565
129	0xbd787472	-0.060657926
130	0x3e0163db	0.12635748
131	0x3be6558c	0.007029241
132	0xbd58770b	-0.052847903
133	0x3c7778d3	0.01510449
134	0xbda6f505	-0.081522025
135	0xbd92fab8	-0.07176727
136	0x3cd874f1	0.02642295
137	0xbceb4c66	-0.028722953
138	0x3cefa998	0.029255673
139	0x3cb76de9	0.022391276
140	0xb998bae8	-0.00029130955
141	0xbd6aa465	-0.057285685
142	0x3cf6b466	0.030115318
143	0xbd9811c9	-0.07425267
144	0x3d3fb19c	0.04680024
145	0x3e631375	0.22175391
146	0x3e18c3e3	0.14918475
147	0x3e5da0a9	0.21643318
148	0x3e736794	0.2376998
149	0x3e9972ed	0.29970494
150	0x3dc57bd1	0.09642757
151	0x3eab9954	0.33515418
152	0x3e292d2d	0.1652114
153	0xbd1a1e29	-0.03762642
154	0x3e0f67ad	0.14004393
155	0xbb8d1e4b	-0.0043065897
156	0x3d57f4a6	0.05272355
157	0x3e3954eb	0.180988
158	0x3e1ee058	0.15515268
159	0xbd0bc722	-0.034125455
160	0x3d658b40	0.056041002
161	0x3d3d3837	0.04619619
162	0x3d54fd94	0.051999643
163	0xbc71076b	-0.014711241
164	0x3d99b249	0.07504708
165	0x3c244b57	0.010027728
166	0x3deb218f	0.1148101
167	0x3dbc8c25	0.09206418
168	0x3cf8127e	0.030282255
169	0x3ac04dbb	0.0014671603
170	0x3d614cf9	0.055005047
171	0x3d08ab17	0.03336629
172	0x3a717c93	0.00092119834
173	0x3d5bdae9	0.053675566
174	0x3d33ed7c	0.043927655
175	0x3d8c785c	0.06858894
176	0x3db64b02	0.08901025
177	0x3b8fd4ea	0.004389395
178	0x3d008466	0.031376265
179	0x3ce7a074	0.028274752
180	0x3d2dfb0e	0.042475753
181	0x3d80d3fa	0.06290431
182	0x3cc4bcde	0.02401584
183	0x3c097fc1	0.008392275
184	0x3e06dd43	0.13170342
185	0x3e0b9b69	0.13633503
186	0x3c878fb5	0.016548017
187	0x3d233a22	0.03985036
188	0x3c3a0ac8	0.0113551095
189	0x3ce58be4	0.028020807
190	0x3d12a75f	0.03580415
191	0x3d1ba60f	0.038000163
192	0xbca4c16c	-0.020111762
193	0xbc37dca0	-0.011222035
194	0xbca855a7	-0.020548655
195	0x3cac28be	0.021015521
196	0x3d148afe	0.036265366
197	0x3c36875a	0.011140669
198	0xbb194e87	-0.0023392753
199	0xbbc9e90b	-0.006161814
200	0xbd7e4de1	-0.06208599
201	0x3d46adaf	0.04850548
202	0xbd825147	-0.06363159
203	0x36329801	2.6612545e-06
204	0x3ac9856d	0.0015374847
205	0xbd115a8e	-0.03548675
206	0xbcd0571c	-0.025432162
207	0xbb918c8f	-0.0044418047
208	0xbcd332f5	-0.025781134
209	0xbd5f8388	-0.054568797
210	0xbbfb4b36	-0.007668878
211	0xbcd0671d	-0.025439793
212	0x3c2d22fd	0.010567424
213	0xbbb884d6	-0.0056310697
214	0xbd8d904f	-0.0691229
215	0xbd5a24e4	-0.053257838
216	0xbc4896c7	-0.012242979
217	0xbb1212da	-0.0022289068
218	0xbd1b9193	-0.037980627
219	0x3be33889	0.0069342298
220	0xbdcf8609	-0.10132987
221	0xbced7d1f	-0.028990326
222	0x3d0625bb	0.032750826
223	0xbd5193e4	-0.05116643
224	0x3c93abfb	0.018026343
225	0x3c78a51f	0.015176087
226	0xbdcff3d3	-0.10153928
227	0x3cdc0e7f	0.026862381
228	0xbda9ee7c	-0.082974404
229	0xbe972bef	-0.29525706
230	0xbd272a59	-0.04081187
231	0x3b6c2c3a	0.0036037103
232	0xbe27182c	-0.16317815
233	0x3b383bc0	0.0028111786
234	0xbb747d92	-0.003730629
235	0x3ea4fb4e	0.3222298
236	0xbc8f4f29	-0.017493801
237	0x3edb5f3f	0.42846105
238	0x3d083a96	0.033258997
239	0x3e96ec1f	0.2947702
240	0x3b2fd567	0.0026830079
241	0x3eb1c115	0.34717622
242	0xbc33f544	-0.010983769
243	0xbc604fcb	-0.013690899
244	0x3e9b8e6b	0.30382094
245	0xbd2ff453	-0.042957615
246	0x3edddf0b	0.4333423
247	0xbca79325	-0.020455906
248	0x3e8f31c9	0.2796767
249	0x3c2ee741	0.010675252
250	0x3eba6d42	0.36411482
251	0xbc519925	-0.01279286
252	0xbae7a713	-0.0017673693
253	0x3ea0f01c	0.3143319
254	0xbc3877d0	-0.011259034
255	0x3edcf305	0.4315416

conv0.conv.bias f4 [32]
0	0xb8fb7254	-0.00011989908
1	0x3878fb71	5.936198e-05
2	0xb871691e	-5.7556776e-05
3	0xb8745568	-5.8253674e-05
4	0x39a12ca9	0.00030741587
5	0xb937db13	-0.00017533851
6	0xb8207a1c	-3.8260696e-05
7	0x37d7ac2a	2.5710167e-05
8	0xb74fa1ef	-1.2375865e-05
9	0x3916a555	0.00014366706
10	0x379390e3	1.7591234e-05
11	0x38d4221b	0.000101153004
12	0xb8944d34	-7.07157e-05
13	0x37879cd3	1.6166281e-05
14	0xb84aa8ed	-4.8317877e-05
15	0x37ddeb1b	2.6454733e-05
16	0xb8075e43	-3.2274296e-05
17	0x38291af9	4.031786e-05
18	0x3846b8ad	4.737887e-05
19	0xb7a73868	-1.9934218e-05
20	0x378523e0	1.5871541e-05
21	0x390d8b7d	0.00013498771
22	0x38b1eb29	8.48382e-05
23	0xb9ebbd08	-0.00044963532
24	0x389a031f	7.3438736e-05
25	0x39a95d2b	0.00032303607
26	0xb7c9b267	-2.4044142e-05
27	0xb929db4a	-0.00016198787
28	0xb7b8c62d	-2.2026792e-05
29	0xb8dd1529	-0.000105420426
30	0x39a2f0e2	0.0003107852
31	0xb93ae1f0	-0.0001782251

conv0.bn.weight f4 [32]
0	0x3f83462b	1.0255789
1	0x3fa835dd	1.3141438
2	0x3f4063c4	0.7515223
3	0x3f9c4dcf	1.2211245
4	0x3f82c203	1.0215458
5	0x3f4b7524	0.7947562
6	0x3f992469	1.1964236
7	0x3f4e948b	0.8069541
8	0x3f44432e	0.7666501
9	0x3f485d20	0.782671
10	0x3f75ff4f	0.96092695
11	0x3f64b74f	0.89342207
12	0x3f628b1a	0.884935
13	0x3f543689	0.82895714
14	0x3f284804	0.6573489
15	0x3f77b411	0.96759135
16	0x3f41d34f	0.75713056
17	0x3f85e547	1.0460595
18	0x3f815069	1.0102664
19	0x3f61cf36	0.88206804
20	0x3f57b0c0	0.84254074
21	0x3f7cef31	0.9880248
22	0x3f66a8cc	0.90101314
23	0x3f8970d2	1.0737555
24	0x3f5bbedb	0.858381
25	0x3f98fad7	1.195155
26	0x3f8bc89b	1.0920595
27	0x3f920496	1.140765
28	0x3f780956	0.96889246
29	0x3f5b2013	0.85595816
30	0x3f7ef071	0.99585634
31	0x3f741267	0.9534058

conv0.bn.bias f4 [32]
0	0xbdf8d8b3	-0.12150707
1	0xbed76dac	-0.4207586
2	0xbe3c4ef2	-0.1838949
3	0xbdef069a	-0.11671181
4	0xbe690728	-0.22756636
5	0xbde5edcc	-0.11226997
6	0xbe65a072	-0.22424486
7	0xbde93c48	-0.11388451
8	0xbd076e3e	-0.03306412
9	0xbeba8004	-0.36425793
10	0xbe6e60d7	-0.23279129
11	0x3e838fc5	0.25695625
12	0x3d63998f	0.055566367
13	0xbd9295d1	-0.071574815
14	0xbe74cb29	-0.23905624
15	0xbd9da89b	-0.076981746
16	0xbe986af9	-0.29769114
17	0x3d20f4fe	0.039296143
18	0x3e3c4955	0.18387349
19	0xbd42e94b	-0.047585767
20	0x3b45e2d0	0.0030195005
21	0xbe359fca	-0.17736736
22	0x3ce832e0	0.028344572
23	0xbe5735c8	-0.2101661
24	0xbe029d78	-0.12755382
25	0xbdd1d9b9	-0.102466054
26	0xbd0fabb6	-0.035075866
27	0xbe5228bc	-0.20523351
28	0xbe7f1064	-0.24908596
29	0xbe3faadc	-0.18717521
30	0xbe123154	-0.1427663
31	0xbd785996	-0.06063231

conv0.bn.running_mean f4 [32]
0	0xbdb10faa	-0.08645566
1	0x3ace4434	0.0015736879
2	0x3bb4d82b	0.0055189333
3	0x3d28928b	0.04115538
4	0x3dc8b320	0.097997904
5	0x3da50a0b	0.08058556
6	0xbcfaa0ff	-0.030594347
7	0xbe2dc2ec	-0.16968888
8	0xbe87a87c	-0.2649573
9	0xbcbe3d64	-0.023222633
10	0x3e8cf884	0.27533352
11	0x3dfa6e6a	0.12228091
12	0x3e161bba	0.14659014
13	0xbd24fd35	-0.04028054
14	0xbc6d1b6b	-0.014471869
15	0xbdc878d5	-0.09788672
16	0x3e398e7b	0.18120758
17	0x3e42fe28	0.19042265
18	0xbe63edd3	-0.22258691
19	0xbde1a641	-0.110180385
20	0x3e309abb	0.17246525
21	0x3d15f7a5	0.036613125
22	0xbdd8e94f	-0.10591375
23	0x3dd8cce6	0.10585956
24	0xbd5314f8	-0.05153367
25	0x3e12f6bb	0.14351933
26	0x3bb92e51	0.0056512733
27	0xbe110654	-0.1416257
28	0xbd6e3502	-0.05815602
29	0xbce28468	-0.027651027
30	0xbb488ae2	-0.0030600359
31	0x3ded0d38	0.11574787

conv0.bn.running_var f4 [32]
0	0x3d1d71f1	0.03843874
1	0x3ca9f9b0	0.020748943
2	0x3d3227c9	0.043494973
3	0x3d00187c	0.03127335
4	0x3cb70575	0.02234147
5	0x3cca2eaf	0.024680464
6	0x3d02bf4a	0.03192071
7	0x3d0fbd98	0.03509292
8	0x3d8e2c9d	0.06942103
9	0x3d13c603	0.03607751
10	0x3d2f17f3	0.04274745
11	0x3d4561b2	0.048188873
12	0x3d344bee	0.044017725
13	0x3d113206	0.035448097
14	0x3cd295f3	0.025706267
15	0x3d06339e	0.03276407
16	0x3d1807c0	0.037116766
17	0x3d2e1d5d	0.04250847
18	0x3d5ff6e1	0.0546788
19	0x3d04c204	0.03241159
20	0x3d0e617c	0.034760937
21	0x3cd3f7cc	0.025874995
22	0x3d1f287c	0.03885697
23	0x3cf031f0	0.029320687
24	0x3cd66992	0.026173387
25	0x3ced3ac5	0.028958688
26	0x3ccad981	0.024761917
27	0x3d072381	0.032992844
28	0x3d029db8	0.031888694
29	0x3cb2c6f5	0.021823386
30	0x3ceca2bd	0.028886193
31	0x3d092576	0.03348299

blocks.0.conv.weight f4 [32, 32, 3, 3]
0	0x3d299013	0.041397166
1	0x3cb285a9	0.02179225
2	0x3d81b814	0.06333938
3	0x3e1649b0	0.14676547
4	0x3cc99618	0.024607703
5	0x3cf8aa50	0.030354649
6	0x3d4b70f9	0.049668286
7	0x3d9adfb8	0.07562202
8	0x3d99636e	0.07489668
9	0x3dcf2590	0.10114586
10	0xbe1ba691	-0.15200259
11	0x3cc3963b	0.023875346
12	0xbe41d3c8	-0.18928444
13	0x3de027e2	0.10945107
14	0xbe3a4ec4	-0.18194109
15	0x3d0d77a2	0.03453792
16	0xbe8a1265	-0.2696716
17	0x3dcb64f0	0.09931362
18	0x3e3cd703	0.18441395
19	0x3cccc3e2	0.024995748
20	0xbd98d9a5	-0.074633874
21	0xbd136e25	-0.035993714
22	0xbd0147cd	-0.031562615
23	0x3daf9707	0.08573728
24	0x3c8b8869	0.017032819
25	0x3c7132c8	0.01472158
26	0x3dc89b86	0.09795289
27	0xbd33f8e8	-0.043938547
28	0x3a28d235	0.00064400147
29	0xbbbc8a60	-0.0057538003
30	0x3c5b9f95	0.013404747
31	0xbd8d1201	-0.068881996
32	0xbcd7cd95	-0.026343146
33	0xbd557045	-0.05210902
34	0x3cb7d684	0.022441156
35	0xbce4b3a7	-0.027917696
36	0xbe081f6d	-0.13293238
37	0xbd7903db	-0.060794692
38	0xbb62cea1	-0.0034608024
39	0xbe0c05a8	-0.13674033
40	0xbe73e6a9	-0.23818459
41	0xbcbf7c36	-0.023374658
42	0xbeafcb29	-0.34334686
43	0xbdcc2bce	-0.099692926
44	0xbe42a400	-0.19007874
45	0xbd88190d	-0.06645403
46	0x3ddeb24f	0.108738534
47	0xbcaa4180	-0.020783186
48	0x3ca25908	0.019817844
49	0x3e01bd60	0.12669897
50	0xbc91736d	-0.017755235
51	0xbd29b671	-0.041433755
52	0x3d084187	0.033265617
53	0xbdb27c2e	-0.08715092
54	0xba1ea7a0	-0.00060522
55	0x3cc6a338	0.02424775
56	0xb8caea88	-9.6757954e-05
57	0x3d4a8b90	0.049449503
58	0x3d0c5ed9	0.03427014
59	0x3d9b424c	0.075810045
60	0x3a05e05f	0.0005106981
61	0x3d8740fb	0.06604191
62	0xbc06b8cb	-0.008222769
63	0xbc2ba15a	-0.010475481
64	0xbd07e731	-0.033179466
65	0x3d247379	0.040149186
66	0xbd2e0087	-0.04248097
67	0x3ba6d57c	0.0050913673
68	0x3cd43668	0.02590485
69	0x3ce09e70	0.027419299
70	0xbd57956e	-0.05263274
71	0x3d1e4627	0.03864112
72	0xbd1f3a66	-0.038874052
73	0x3d642318	0.05569753
74	0xbd977776	-0.07395832
75	0xbd41faf2	-0.04735846
76	0x3cad504d	0.021156454
77	0xbda5bc31	-0.08092535
78	0x3b6ead69	0.0036419278
79	0x3db9394e	0.09044133
80	0xbd9b3188	-0.07577807
81	0xbe17c1bb	-0.14819996
82	0x3d81012f	0.06299054
83	0xbb0d644a	-0.002157467
84	0xbe34b4ae	-0.17647049
85	0x3c11912b	0.008884708
86	0xbd07aea5	-0.03312554
87	0xbe2e1b4e	-0.17002603
88	0xbaa1ef7e	-0.00123547
89	0xbd847b88	-0.06468874
90	0xbd592bcd	-0.053020287
91	0x3b650f1b	0.003495163
92	0xbd89ccd0	-0.06728518
93	0xbd4529b5	-0.048135478
94	0xbe1824b9	-0.14857759
95	0xbc7e0504	-0.0155041255
96	0xbd841f1c	-0.06451246
97	0x3c0ae337	0.008477024
98	0xbe038a9c	-0.12845844
99	0x3d1670df	0.036728736
100	0x3c6f4571	0.014603958
101	0xbdda4a96	-0.106587574
102	0xbb34ac3e	-0.0027568485
103	0xbd8fa543	-0.07013943
104	0x3c93f47e	0.018060919
105	0xbd436848	-0.047706872
106	0x3d56bec5	0.052428026
107	0xbc5e6b7e	-0.013575433
108	0xbd0b04d9	-0.03394017
109	0xbe041e2b	-0.12902133
110	0xbdb931bb	-0.090426885
111	0xbd435fb6	-0.0476987
112	0xbd7fde2c	-0.06246774
113	0xbdcf718e	-0.10129081
114	0xbb0849ba	-0.0020795898
115	0xbd40d4e1	-0.047078017
116	0xbc5c5bd6	-0.01344963
117	0x3cfe3b18	0.031034037
118	0x3b36b594	0.0027879225
119	0xbdcd2b7f	-0.10018062
120	0x3d86f437	0.06589549
121	0xbe000335	-0.12501223
122	0x3d0eb421	0.034839753
123	0x3c739e28	0.01486925
124	0xbe02dc3c	-0.12779325
125	0xbb6b13b2	-0.0035869894
126	0x3d105fa8	0.035247475
127	0xbd80faef	-0.06297862
128	0x3d3cf4fe	0.04613208
129	0x3df581e1	0.11987663
130	0xbaee019b	-0.0018158437
131	0xbd659074	-0.056045964
132	0xbe160006	-0.14648446
133	0xbdb6424f	-0.08899366
134	0xbe33e145	-0.17566402
135	0xbd54a904	-0.051919
136	0x3d0bd42a	0.034137882
137	0x3b939252	0.0045035267
138	0xbd1a670d	-0.037695933
139	0x3d61dc33	0.05514164
140	0xbdf79fa8	-0.12090999
141	0x3d9c4773	0.07630815
142	0xbddaa06c	-0.10675129
143	0xbcab7cff	-0.020933626
144	0xbd8d8c35	-0.06911508
145	0xbd26aec6	-0.04069402
146	0xbc3e442d	-0.011612934
147	0xbbc231fc	-0.0059263688
148	0xbcaab3ef	-0.020837752
149	0x3da3292e	0.07966839
150	0x3d1b28ce	0.03788071
151	0xbd1effae	-0.038818054
152	0x3c36daa0	0.011160523
153	0x3d246771	0.040137712
154	0xbcaa64a5	-0.020799944
155	0x3d82d934	0.063890845
156	0x3d41d5da	0.047323085
157	0xbdc87845	-0.097885646
158	0x3c29f747	0.010373897
159	0xbc952e33	-0.018210506
160	0xbdc84163	-0.097780965
161	0xbd0fe52c	-0.035130665
162	0xbc7b3c3d	-0.015334186
163	0x3da40c90	0.080102086
164	0x3ada5681	0.001665786
165	0x3c7696b6	0.015050581
166	0xbd28f389	-0.04124788
167	0x3d721281	0.059099678
168	0xbdc7d8d6	-0.09758155
169	0xbd08ed67	-0.03342953
170	0xbdd38f95	-0.103301205
171	0x3d969748	0.07353073
172	0x3d19a71c	0.037512884
173	0xbd9593cf	-0.07303583
174	0x3d9ff653	0.078106545
175	0xbd88b596	-0.0667526
176	0xbd0ec092	-0.034851618
177	0x3d3ecf11	0.046584193
178	0x3da7dd88	0.081965506
179	0xbc9abd5d	-0.018889124
180	0xbd01ba17	-0.03167161
181	0x3c9c663a	0.019091714
182	0x3d50b06f	0.05094951
183	0xbaae9b63	-0.0013321455
184	0xbda451cf	-0.08023416
185	0x3cde8c2d	0.02716645
186	0xbd95df3f	-0.073179714
187	0xbd01ed21	-0.031720284
188	0x3dad8f43	0.08474591
189	0x3db82444	0.08991292
190	0x3cbca0fe	0.023025986
191	0x3d45af87	0.0482631
192	0xbd424e77	-0.04743811
193	0x3d6bdd93	0.057584357
194	0x3de15c7d	0.11003969
195	0x3de32c43	0.11092427
196	0xbd897ec5	-0.067136325
197	0x3db99ce7	0.0906313
198	0xbd7fe87f	-0.062477585
199	0x3cdec059	0.027191328
200	0xbd087984	-0.03331901
201	0x3ce437f6	0.027858716
202	0x3dbefcf7	0.09325593
203	0xbd959bbf	-0.07305097
204	0xbd19e253	-0.037569355
205	0x3d1113a3	0.035419118
206	0xbce7854c	-0.028261803
207	0xbcdac130	-0.026703447
208	0x3cc518cc	0.024059676
209	0xbdad586a	-0.08464129
210	0x3b748efd	0.0037316673
211	0x3e0439b2	0.12912634
212	0xbd80fbf7	-0.062980585
213	0xbd3796e0	-0.04482162
214	0x3c02258c	0.007943522
215	0xbd07b996	-0.033135973
216	0x3c0d60bf	0.008629023
217	0x3ca66c28	0.020315245
218	0x3d240205	0.04004099
219	0xbd3f8ab0	-0.046763122
220	0xbdbb8725	-0.09156636
221	0x3bfc4415	0.0076985457
222	0xbc8844b1	-0.016634317
223	0xbddbb857	-0.107285194
224	0xbcc70404	-0.024293907
225	0xbc07e960	-0.008295387
226	0x3dd810e4	0.10550097
227	0x3c91c96d	0.017796243
228	0x3dbca74d	0.092115976
229	0x3e458e89	0.19292654
230	0x3de0a1df	0.109683745
231	0x3c91c40d	0.01779368
232	0x3d5ba63d	0.053625334
233	0x3d42c3ed	0.04755013
234	0xbdcefc7a	-0.1010675
235	0xbdc23cc5	-0.09484247
236	0xbce3c62c	-0.027804457
237	0x3d795a9b	0.060877424
238	0x3d2b681f	0.041847344
239	0xbe1fd8f1	-0.156101
240	0xbdedd222	-0.11612345
241	0x3d1bc440	0.038028955
242	0xbe5d31d8	-0.21601045
243	0xbd19cf85	-0.03755142
244	0x3d0daa11	0.034586016
245	0xbbe09c4b	-0.006854569
246	0x3dcd56e9	0.100263424
247	0x3cf83b6c	0.030301772
248	0xbcdf7657	-0.027278109
249	0xbc612376	-0.013741365
250	0x3ca23dff	0.019804953
251	0xbc889bee	-0.016675916
252	0x3bf7916a	0.0075551765
253	0x3c03d798	0.008047007
254	0xbd7d3d0c	-0.061825797
255	0x3d46ac5b	0.048504215

blocks.0.conv.bias f4 [32]
0	0xbdd4f704	-0.10398677
1	0xbd4d410b	-0.050110858
2	0xbd15a60f	-0.03653532
3	0xbdd8ed4d	-0.105921365
4	0xbdd4ce31	-0.103908904
5	0xbe2c2204	-0.16809851
6	0x3cd48452	0.025942001
7	0xbdf7dfbf	-0.12103223
8	0x3de528af	0.111894004
9	0x3d804305	0.06262783
10	0xbeb76375	-0.35818067
11	0x3de616c2	0.112348095
12	0x3c05e371	0.008171902
13	0x3d7fe883	0.0624776
14	0x3cc14d91	0.023596557
15	0xbd8e9689	-0.06962306
16	0x3d04ce36	0.03242322
17	0xbd8561dc	-0.06512806
18	0xbd8afd9e	-0.06786655
19	0x3d6587ac	0.05603759
20	0xbde5d93f	-0.11223077
21	0xbda608a6	-0.08107118
22	0xbd628172	-0.05529923
23	0xbd16dcec	-0.03683178
24	0xbd58d7a0	-0.05294001
25	0xbe83787c	-0.2567786
26	0xbdb0dfbe	-0.086364254
27	0xbd3bf05c	-0.04588352
28	0xbc9ff5cf	-0.01952639
29	0xbdd60c5c	-0.10451576
30	0x3d2a8976	0.041635
31	0x3dc117ed	0.094283916

blocks.0.bn.weight f4 [32]
0	0x3f34c9d9	0.70620495
1	0x3f4de2ff	0.80424494
2	0x3f2f1de6	0.68404996
3	0x3edb2ffb	0.42810044
4	0x3f4c5c08	0.7982793
5	0x3f3fa4c8	0.7486081
6	0x3f2333d3	0.6375095
7	0x3f4b49c2	0.7940942
8	0x3f5a9282	0.85379803
9	0x3f6c9fd3	0.9243137
10	0x3f1a8473	0.6035835
11	0x3f152bf0	0.5827017
12	0x3f39fbb5	0.726497
13	0x3f388bca	0.720883
14	0x3f95a50c	1.1690993
15	0x3f3adbed	0.7299183
16	0x3f4bc28c	0.7959373
17	0x3f3b70d4	0.7321904
18	0x3f230c17	0.6369032
19	0x3f293740	0.6609993
20	0x3f383187	0.7195057
21	0x3f61ef3e	0.8825568
22	0x3f17110b	0.5901038
23	0x3f569872	0.83826363
24	0x3f51f357	0.8201193
25	0x3f4102d1	0.7539492
26	0x3f54c197	0.83107895
27	0x3f4254f6	0.7591089
28	0x3f168206	0.5879215
29	0x3f2f5234	0.68484807
30	0x3f33dec8	0.7026181
31	0x3f5d24bb	0.8638417

blocks.0.bn.bias f4 [32]
0	0xbed0aabe	-0.40755266
1	0xbf3d6027	-0.7397484
2	0xbe859cf5	-0.2609631
3	0xbee4366b	-0.44572768
4	0xbecfb5c7	-0.40568373
5	0xbe0fc46a	-0.1403977
6	0xbc84e798	-0.016223714
7	0xbecf7b6e	-0.40523857
8	0xbe94ab28	-0.29036832
9	0x3e459aa2	0.19297269
10	0xbe90c53c	-0.28275478
11	0xbec3dd72	-0.38254887
12	0xbdff1297	-0.124547176
13	0xbe977002	-0.29577643
14	0xbe8ac78f	-0.27105376
15	0xbea058d3	-0.31317768
16	0xbed9a798	-0.42510676
17	0xbeae4d7c	-0.3404349
18	0xbe750215	-0.23926575
19	0xbe52dc34	-0.20591813
20	0xbe9c895f	-0.30573556
21	0xbec26613	-0.379685
22	0xbe4fe5db	-0.20302527
23	0xbec2d5a2	-0.38053614
24	0xbe637c77	-0.22215448
25	0xbea0a9d9	-0.31379583
26	0xbefc50e6	-0.4928047
27	0xbe1edc85	-0.15513809
28	0xbec8f3cf	-0.3924851
29	0xbe194377	-0.14967142
30	0xbe45fb3d	-0.19334121
31	0xbed40ffe	-0.4141845

blocks.0.bn.running_mean f4 [32]
0	0xbf3d34fa	-0.7390896
1	0xbf0afbcf	-0.5429048
2	0xbee6324d	-0.4496025
3	0xbf3888c8	-0.7208371
4	0xbf176f5a	-0.59154284
5	0xbee1773d	-0.44036284
6	0xbebbb6b6	-0.36662835
7	0xbd252b04	-0.040324226
8	0xbee43b96	-0.4457671
9	0xbede42df	-0.43410394
10	0xbed2a7cc	-0.41143644
11	0xbe911065	-0.2833282
12	0xbeadc4ac	-0.3393911
13	0xbf15e489	-0.5855184
14	0xbf529b49	-0.82268196
15	0xbed8c1fb	-0.42335495
16	0xbf16307c	-0.5866773
17	0xbf21841b	-0.630922
18	0xbf258e50	-0.64670277
19	0xbed92c91	-0.42416814
20	0xbf1426eb	-0.57871884
21	0xbf0a46e2	-0.5401441
22	0xbe8b964c	-0.27263105
23	0xbf2c5ed8	-0.6733222
24	0xbf18f371	-0.5974646
25	0xbf38a1ef	-0.7212209
26	0xbf111eeb	-0.566878
27	0xbf3dee5e	-0.74191844
28	0xbf2baa58	-0.670568
29	0xbed08b0d	-0.40731087
30	0xbeb7ce4c	-0.3589958
31	0xbf11e010	-0.5698252

blocks.0.bn.running_var f4 [32]
0	0x3faaa75a	1.3332322
1	0x3f5e5e79	0.86862904
2	0x3f1a6a76	0.60318696
3	0x3f3eb759	0.74498516
4	0x3f3b421a	0.7314774
5	0x3f440c8a	0.76581633
6	0x3f9ef931	1.2419797
7	0x3f2e1b1e	0.6801013
8	0x3f3c6680	0.735939
9	0x3f8d43ee	1.1036355
10	0x3ee8fc91	0.45505193
11	0x3ed04160	0.40674877
12	0x3f281d11	0.6566935
13	0x3f500a72	0.8126594
14	0x3fc3e2a0	1.5303535
15	0x3f2b7def	0.66989034
16	0x3f28300f	0.6569833
17	0x3f750e97	0.9572539
18	0x3faac64a	1.3341763
19	0x3f70713e	0.93922794
20	0x3f38b250	0.72147083
21	0x3f456987	0.77114147
22	0x3f06df8b	0.5268485
23	0x3f98a5b8	1.1925573
24	0x3f27d295	0.655557
25	0x3f89b6ac	1.0758872
26	0x3f9ff79e	1.2497442
27	0x3fc77f58	1.5585737
28	0x3f30be54	0.6904042
29	0x3f0ca2ef	0.54936117
30	0x3f4204b6	0.7578844
31	0x3f0b34c1	0.5437737

blocks.1.conv.weight f4 [32, 32, 3, 3]
0	0x3e0acaee	0.13553974
1	0xbd088b60	-0.033336043
2	0x3df9f566	0.12205009
3	0x3d265cef	0.040615972
4	0xbe287038	-0.16449058
5	0x3d6aa82d	0.05728929
6	0x3dd310c9	0.10305936
7	0x3d525270	0.05134815
8	0x3e0e4e32	0.13897017
9	0xbdf1f7f9	-0.11814875
10	0xbe2f4c2d	-0.17118903
11	0xbe688317	-0.22706257
12	0xbebf49ce	-0.37360996
13	0xbe531a80	-0.20615578
14	0xbe4b48e8	-0.1985203
15	0xbc79e384	-0.015251998
16	0xbe7df959	-0.2480215
17	0xbe2ddef6	-0.16979584
18	0x3dd0b718	0.10191172
19	0x3d294104	0.04132177
20	0xbdabeb53	-0.08394494
21	0x3d518671	0.051153604
22	0xbd2def4d	-0.042464543
23	0xbcda60aa	-0.026657421
24	0x3d2b3d84	0.041806713
25	0xbd24f54e	-0.040273003
26	0x3ce0056f	0.027346341
27	0x3cd921cc	0.026505373
28	0x3dd8fa9e	0.105946764
29	0x3d897868	0.06712419
30	0x3c69ea0c	0.0142769925
31	0xbd11c53f	-0.0355885
32	0x3d8c9e0d	0.06866083
33	0xbd17604f	-0.03695708
34	0x3da1885d	0.07887337
35	0x3d81fbb2	0.06346835
36	0xbcb948cb	-0.022617718
37	0xbdfeafef	-0.124359004
38	0xbdf3c87d	-0.119034745
39	0x3d56bc5f	0.05242574
40	0xbdbb7310	-0.09152806
41	0xbdc0f390	-0.09421456
42	0x3ce1b6c9	0.027552979
43	0xbd6c522e	-0.05769556
44	0xbd9757d0	-0.07389796
45	0xbd8140b0	-0.06311166
46	0x3caa9baa	0.02082618
47	0xbc64e207	-0.013969905
48	0xb9b0e79f	-0.00033741907
49	0x39f2bce8	0.00046298583
50	0xb98441ef	-0.00025226126
51	0xbc5f8a85	-0.0136438655
52	0x3d021cdf	0.031765815
53	0xbd8b2c95	-0.06795613
54	0xbd536b27	-0.05161586
55	0x3cedbed2	0.029021654
56	0xbcff7104	-0.03118182
57	0x3c52bf89	0.012863048
58	0x381cde3e	3.7400278e-05
59	0x3d5e5265	0.054277796
60	0x3c20d99a	0.009817505
61	0x3cf233c9	0.029565709
62	0x3c7f87ae	0.015596313
63	0xbd0b34da	-0.03398595
64	0x3df58503	0.119882606
65	0xbc6b00c8	-0.014343448
66	0xbd1a6bf6	-0.037700616
67	0xbd144f58	-0.03620848
68	0xbd9d22ab	-0.07672628
69	0x3c3c32ec	0.01148675
70	0xbd400fc3	-0.04689003
71	0x3b6c868a	0.0036090934
72	0xbd4a5707	-0.049399402
73	0xbd5c0586	-0.053716205
74	0x3d68be96	0.056822382
75	0x3c2e33a5	0.01063243
76	0x3d571e5c	0.052519187
77	0xbc9c587a	-0.019085158
78	0x3cd7f78d	0.026363159
79	0x3c877ac1	0.016538026
80	0xbe3cb1e4	-0.18427235
81	0xbcc2e901	-0.023792746
82	0x3d9ff5ce	0.078105554
83	0xbdd702b1	-0.1049856
84	0xbcef3039	-0.029197799
85	0x3cf33a3c	0.029690854
86	0x3cd56b60	0.026052177
87	0x3d2ab263	0.04167403
88	0x3c81d5d0	0.015849024
89	0xbd79e85c	-0.06101261
90	0x3cc2adea	0.02376457
91	0x3caf7bb0	0.021421283
92	0x3c964a04	0.01834584
93	0x3c519c7b	0.0127936555
94	0x3d1bbc9b	0.038021665
95	0xbc568225	-0.013092552
96	0x3d9805b1	0.074229605
97	0x3daaffbb	0.08349558
98	0xbd3ae2e0	-0.04562652
99	0x3c7d98e4	0.0154783465
100	0xbd1fe227	-0.039034035
101	0xbcddee92	-0.027091298
102	0x3d4cb528	0.04997745
103	0xbdd500cc	-0.104005426
104	0xbd8e2ec1	-0.06942511
105	0x3d08ec9e	0.03342878
106	0x3dda2995	0.106524624
107	0x3dc81f4a	0.09771593
108	0x3ce8971e	0.02839237
109	0xbdeddb10	-0.116140485
110	0xbe133920	-0.1437726
111	0xbd08d9c4	-0.033410802
112	0x3b73831e	0.003715701
113	0xbd4bb147	-0.04972961
114	0x3d811de1	0.06304527
115	0xbd5d0123	-0.053956162
116	0x3cbb7015	0.022880593
117	0xbda30569	-0.07960016
118	0x3d04c1b7	0.032411303
119	0xbd751162	-0.05983103
120	0x3d5bc680	0.0536561
121	0xbcb562d6	-0.022141855
122	0xbbc821b8	-0.006107535
123	0x3cb14348	0.021638528
124	0x3cf7d24d	0.030251646
125	0x3ad1f5f6	0.0016018737
126	0x3d49ccee	0.0492677
127	0xbdf4e43a	-0.11957593
128	0x3d86b942	0.06578304
129	0x3dc54d82	0.09633924
130	0xbe393fb5	-0.18090709
131	0x3b9f4c1d	0.0048613683
132	0x3c1376ed	0.009000522
133	0xbc354aa5	-0.01106516
134	0x3db56afe	0.08858298
135	0xbda800e5	-0.082032956
136	0xbdc85dcf	-0.097835176
137	0x3d863fa5	0.06555108
138	0xbd0cf71d	-0.034415353
139	0x3e26c0fd	0.16284557
140	0xbd82236a	-0.06354411
141	0x3c8a44c6	0.016878497
142	0xbd944f9b	-0.07241746
143	0xbc279607	-0.01022864
144	0x3ca61c3f	0.02027714
145	0x3ca03ef5	0.01956127
146	0x3b41b83d	0.0029559277
147	0xbc39da27	-0.0113435155
148	0xbc1ab3dd	-0.009442297
149	0x3e40979f	0.18807839
150	0x3cf90de5	0.030402133
151	0xbdbfe34c	-0.09369525
152	0x3d0efcb4	0.034908965
153	0x3c1b7baa	0.009489933
154	0x3cd95e91	0.02653435
155	0xbd2afda2	-0.04174579
156	0x3d601e61	0.05471647
157	0xbe8513d3	-0.25991687
158	0xbd946bdf	-0.07247137
159	0x3dd41bb3	0.10356846
160	0xbdeacaf2	-0.1146449
161	0xbd682f9b	-0.056686025
162	0xbb9401d9	-0.004516822
163	0xbd2ede17	-0.04269227
164	0x3d42ea66	0.04758682
165	0x3c32442c	0.010880511
166	0xbcec20ea	-0.028824288
167	0x3d3f1d13	0.046658587
168	0xbd3b06d7	-0.04566082
169	0xbd27bcc3	-0.0409515
170	0xbccd0b35	-0.025029758
171	0x3c58c24a	0.013229916
172	0xbca2f0d5	-0.019890228
173	0xbd8c8c8f	-0.06862747
174	0xbcb8593f	-0.022503493
175	0xbe3989c1	-0.18118955
176	0x3c9837eb	0.018581351
177	0x3dd33352	0.10312523
178	0xbda5fd7f	-0.08104991
179	0xbcd28e46	-0.025702607
180	0x3c64b551	0.013959245
181	0xbd7881e1	-0.060670737
182	0x3d9fa0dd	0.07794354
183	0xbbaef892	-0.0053396905
184	0xbd838324	-0.064214975
185	0x3d669efa	0.056303956
186	0xbcea0751	-0.028567942
187	0xbb3a2f8c	-0.0028409688
188	0x3d84bf2a	0.06481774
189	0x3d330edf	0.043715354
190	0x3d990150	0.074709535
191	0x3bf2c8e3	0.0074092015
192	0x3a96ed7d	0.0011514869
193	0x3dcce24b	0.100040995
194	0xbdb16cdb	-0.08663341
195	0x3db7178f	0.0894004
196	0xbd8e87af	-0.06959473
197	0xbd1f6726	-0.03891673
198	0xbd053931	-0.032525245
199	0xbbb5906d	-0.0055408985
200	0x3d9d14cb	0.076699816
201	0xbb966a3d	-0.0045903013
202	0x3d91b179	0.07113928
203	0xbcef6427	-0.029222561
204	0x3c631268	0.013859369
205	0xbe0d06d3	-0.13772134
206	0x3daf9ddc	0.08575031
207	0x3d3d19a6	0.04616704
208	0xbcecfb19	-0.028928326
209	0x3c309d56	0.010779699
210	0xbd511d4d	-0.051053334
211	0x3dc0f8fd	0.09422491
212	0xbd88bebf	-0.06677007
213	0xbd295ff9	-0.041351292
214	0xbdad9cfe	-0.084772095
215	0x3d3e6fc7	0.046493318
216	0x3c8d9581	0.017283203
217	0x3d11ab42	0.035563715
218	0x3d303410	0.0430184
219	0x3d7d745f	0.06187856
220	0xbd4ed76d	-0.050498415
221	0x3db58c96	0.08864705
222	0xbd75cc83	-0.06000949
223	0xbe416f3e	-0.18890092
224	0x3d962904	0.07332042
225	0xbc2b2c0c	-0.010447513
226	0x3d034335	0.032046515
227	0x3cd0f9c0	0.025509715
228	0x3d2af994	0.041741922
229	0x3dd5a302	0.10431482
230	0x3d24d411	0.040241305
231	0x3bddbd51	0.006766953
232	0xbd49597e	-0.049157612
233	0x3d77041b	0.06030665
234	0xbda79522	-0.08182742
235	0xbe15a117	-0.14612232
236	0xbda32e0e	-0.079677686
237	0xbdc32d60	-0.09530139
238	0x3d7d2dae	0.06181114
239	0xbe71d8f2	-0.23617914
240	0xbd078373	-0.033084344
241	0xbd23b708	-0.039969474
242	0xbe8d412c	-0.27588785
243	0xbce64fc3	-0.028114205
244	0x3d21e07a	0.03952072
245	0x3d515972	0.051110692
246	0x3d04604d	0.032318402
247	0xbda892f3	-0.08231153
248	0x3d8946db	0.06702968
249	0xbb4e43b2	-0.0031473455
250	0xbae5b962	-0.0017526562
251	0x3c252642	0.010079922
252	0xbd0f7df9	-0.035032246
253	0xbd6b171a	-0.05739508
254	0xbe077fb8	-0.13232315
255	0x3c3dbbee	0.01158045

blocks.1.conv.bias f4 [32]
0	0x3d328442	0.043583162
1	0xbd41e677	-0.04733893
2	0x3dcf561e	0.101238474
3	0xbe1c8433	-0.15284805
4	0xbd90b1d9	-0.07065172
5	0xbe2eb85e	-0.17062518
6	0x3e1ee151	0.15515639
7	0xbdaf5f97	-0.08563154
8	0x3dde767b	0.10862442
9	0x3ea1252f	0.3147368
10	0xbdac5bd5	-0.08415953
11	0x3e23b4c4	0.15986925
12	0xbd1edd05	-0.038785
13	0x3c779f77	0.015113703
14	0x3d7c2f0c	0.061568305
15	0x3d47ebfd	0.04880904
16	0x3cf0fbd6	0.02941696
17	0xbe12f5fe	-0.14351651
18	0x3dfc2a18	0.12312716
19	0x3da86079	0.08221526
20	0x3dcc5fa6	0.09979181
21	0xbe31634b	-0.17323034
22	0xbe4b1a31	-0.1983421
23	0xbe1e3ce4	-0.15452915
24	0xbd380b75	-0.0449328
25	0xbe6a7df4	-0.2289961
26	0x3b81099e	0.003937914
27	0xbd96576b	-0.073408924
28	0x3d83a2cd	0.06427536
29	0xbe0a32e0	-0.1349597
30	0x3c025391	0.007954494
31	0xbd6c605c	-0.057709083

blocks.1.bn.weight f4 [32]
0	0x3f5375e2	0.8260175
1	0x3f44b457	0.76837677
2	0x3f4bb1ef	0.7956838
3	0x3ee9680a	0.45587188
4	0x3f42c1b9	0.7607685
5	0x3f0455b4	0.5169327
6	0x3f5aecb5	0.85517436
7	0x3f4eefbd	0.8083456
8	0x3f2e5e0e	0.68112266
9	0x3f5196bf	0.81870645
10	0x3ef655e1	0.48112395
11	0x3f866c1d	1.0501744
12	0x3f32a78c	0.69786906
13	0x3f5e2aa1	0.86783797
14	0x3f8da6ac	1.1066489
15	0x3f214432	0.6299468
16	0x3f589cb7	0.8461413
17	0x3f2773bd	0.6541098
18	0x3f260ae5	0.64860374
19	0x3f3f9ce9	0.748488
20	0x3f1e9306	0.6194309
21	0x3f52fb14	0.82414365
22	0x3f0f0580	0.5586777
23	0x3f282b43	0.6569101
24	0x3f465b87	0.7748341
25	0x3f17cff9	0.59301716
26	0x3f632ffc	0.88745093
27	0x3f139ec9	0.5766416
28	0x3f332dda	0.6999184
29	0x3f3e53e8	0.7434678
30	0x3f3c44d4	0.73542523
31	0x3f6a0f55	0.91429645

blocks.1.bn.bias f4 [32]
0	0xbee59578	-0.44840598
1	0xbf162a19	-0.58657986
2	0xbe8c272e	-0.27373642
3	0xbee76ddf	-0.45201012
4	0xbebd9f49	-0.37035587
5	0xbe4f7f8f	-0.20263503
6	0xbe969d41	-0.2941685
7	0xbe584096	-0.21118388
8	0xbe9684e6	-0.29398268
9	0x3d8b7f47	0.068113856
10	0xbe940cfe	-0.28916162
11	0xbec117d0	-0.3771348
12	0xbe8943b9	-0.2680948
13	0xbe8b7809	-0.27240017
14	0xbf306534	-0.68904424
15	0xbe17de76	-0.14830956
16	0xbec02188	-0.37525582
17	0xbe83f2ad	-0.25771084
18	0xbe96feed	-0.29491368
19	0xbe7b5595	-0.24544366
20	0xbeda1a78	-0.4259832
21	0xbea6da2e	-0.32588333
22	0xbe8b634e	-0.272242
23	0xbed4420d	-0.41456643
24	0xbe908697	-0.28227684
25	0xbe0a46c5	-0.13503559
26	0xbf5034be	-0.8133048
27	0x3dd4dfe1	0.10394264
28	0xbebc5bf0	-0.36788893
29	0xbe7950bc	-0.24347204
30	0xbea7e1d6	-0.32789487
31	0xbe9a9be1	-0.3019705

blocks.1.bn.running_mean f4 [32]
0	0xbf93f1ee	-1.1558206
1	0xbf821880	-1.0163727
2	0xbf17d3f4	-0.5930779
3	0xbf9457fc	-1.1589351
4	0xbf2c924c	-0.6741073
5	0xbf203634	-0.6258271
6	0xbef6847b	-0.4814795
7	0xbeff3dbf	-0.49851796
8	0xbef6eba7	-0.48226663
9	0xbece77b2	-0.40325695
10	0xbee74932	-0.4517303
11	0xbf9cd50a	-1.2252514
12	0xbed3679f	-0.41289994
13	0xbf5318a2	-0.8245946
14	0xbf826e6b	-1.0189947
15	0xbf0a4732	-0.54014885
16	0xbf5e5600	-0.86849976
17	0xbf222501	-0.63337713
18	0xbf580ffa	-0.8439938
19	0xbf300d78	-0.6877055
20	0xbf336262	-0.70071995
21	0xbeeb5986	-0.45966738
22	0xbf0811cf	-0.53152174
23	0xbf4aeeaa	-0.7927042
24	0xbf2adca2	-0.6674291
25	0xbf5855e5	-0.84506065
26	0xbf4f4722	-0.80967915
27	0xbf485cc6	-0.7826656
28	0xbf6ebbab	-0.9325511
29	0xbeefdd89	-0.46848705
30	0xbf0bac96	-0.5456022
31	0xbf2ccb36	-0.67497575

blocks.1.bn.running_var f4 [32]
0	0x401910a7	2.3916414
1	0x3fda39b1	1.7048856
2	0x3f771682	0.9651872
3	0x3fd12efd	1.6342465
4	0x3f8d6c2f	1.104864
5	0x3f85a805	1.04419
6	0x3fc21d5e	1.5165212
7	0x3f94a788	1.1613626
8	0x3f54101e	0.8283709
9	0x3f8b96eb	1.0905432
10	0x3f3b7300	0.7322235
11	0x40223d5f	2.5349958
12	0x3f9161d0	1.1357975
13	0x3fd18914	1.6369958
14	0x4018609d	2.3808968
15	0x3f8b1ff4	1.0869126
16	0x3fa111b9	1.2583534
17	0x3facbb43	1.3494648
18	0x3fe43de2	1.7831385
19	0x3fa47cd7	1.2850598
20	0x3f7d0e7c	0.98850226
21	0x3f66db65	0.9017852
22	0x3f60862b	0.87704724
23	0x3fcfefbf	1.624504
24	0x3f9400b7	1.1562718
25	0x3fc86d26	1.565831
26	0x3f853d14	1.0409265
27	0x40570fb7	3.3603342
28	0x3fd64d92	1.6742423
29	0x3f77effe	0.96850574
30	0x3f7186c5	0.94346267
31	0x3f8de8d9	1.1086684

blocks.2.conv.weight f4 [32, 32, 3, 3]
0	0x3dfa45c4	0.12220338
1	0xbd2ff3ce	-0.04295712
2	0x3e0870ea	0.13324323
3	0x3d6cee71	0.057844583
4	0xbe2e40e8	-0.17016947
5	0x3dc19927	0.094530396
6	0x3dc9e17c	0.09857461
7	0xbcab79f4	-0.020932175
8	0x3e3ec194	0.18628532
9	0xbdf50c4b	-0.11965235
10	0xbe069a30	-0.13144755
11	0xbe80fae3	-0.2519141
12	0xbe4b49e4	-0.19852406
13	0xbdf38bd9	-0.11891908
14	0xbe1ee60e	-0.15517446
15	0xbe07fe72	-0.13280657
16	0xbe0a5c59	-0.1351179
17	0xbe7df634	-0.2480095
18	0x3dbc8b28	0.092062294
19	0x3d3dd6f5	0.046347577
20	0x3d16d89e	0.036827676
21	0x3b451de0	0.0030077621
22	0xbcf091aa	-0.029366333
23	0x3d8ab242	0.06772281
24	0x3ce5a9ad	0.02803501
25	0xbdf92730	-0.121656775
26	0x3ddea6aa	0.108716324
27	0x3d6a5f95	0.05722006
28	0x3da1c997	0.07899778
29	0x3decb47e	0.11557864
30	0x3c7c89f9	0.015413755
31	0x3d871c19	0.06597156
32	0x3dd792f1	0.10526074
33	0xbd598a70	-0.05311054
34	0xbcc3a759	-0.023883509
35	0x3cef004e	0.02917495
36	0x3bee2781	0.007267893
37	0xbde73949	-0.11290223
38	0xbdf6429d	-0.12024424
39	0x3b403031	0.00293256
40	0xbc0959a6	-0.00838319
41	0xbd6dce3f	-0.05805802
42	0x3d68cb8a	0.056834735
43	0xbd81590a	-0.06315811
44	0xbe200fb6	-0.15630993
45	0xbd907084	-0.07052711
46	0xbb806f99	-0.0039195535
47	0xbca35015	-0.019935647
48	0x3d04813f	0.03234982
49	0x3d3622df	0.04446685
50	0x3da53f24	0.08068684
51	0x3d65a093	0.05606134
52	0x3c4b511e	0.012409477
53	0xbc1fe4f1	-0.009759174
54	0x3c304c28	0.010760345
55	0x3cb2b7e5	0.021816203
56	0xbd2705ad	-0.040776897
57	0xbc3672c8	-0.011135764
58	0xbca89610	-0.020579368
59	0x3b920357	0.0044559645
60	0x3d666a57	0.056253757
61	0x3d895e68	0.0670746
62	0x3d5633af	0.052295383
63	0xbde368be	-0.11103962
64	0xbd67f558	-0.056630462
65	0xbd943a89	-0.07237727
66	0xb95fb4d8	-0.00021334307
67	0x3bb6a3d5	0.0055737295
68	0x3bed040e	0.0072331494
69	0xbd325455	-0.043537457
70	0x3c814703	0.015780931
71	0x3c16d52e	0.009206099
72	0x3b398ef1	0.002831396
73	0x3b9d9f17	0.0048102248
74	0x3d901c81	0.07036687
75	0x3cac0b23	0.021001404
76	0xbdbd6693	-0.0924808
77	0xbd837f04	-0.06420711
78	0xbc204e34	-0.00978427
79	0x3d948f05	0.07253841
80	0xbe170e0c	-0.14751452
81	0x3d41ab8d	0.047282744
82	0xbd35f30d	-0.044421244
83	0x3c63d2cc	0.013905238
84	0x3bb90017	0.0056457627
85	0x3d2929aa	0.0412995
86	0xbd56df78	-0.05245921
87	0x3b9ac792	0.0047234977
88	0xbd3c4735	-0.045966346
89	0xbe0040d6	-0.12524733
90	0xbdc9c0aa	-0.09851201
91	0x3d274824	0.040840283
92	0x3d7379e2	0.05944241
93	0x3daf6c91	0.08565629
94	0x3da7b14f	0.08188116
95	0xbc4067a3	-0.011743459
96	0xba9e1060	-0.0012059323
97	0x3d72db6a	0.05929128
98	0x3c2f8547	0.010712928
99	0x3d737f94	0.05944784
100	0xbd1809d0	-0.037118733
101	0x3d3c8e55	0.046034176
102	0x3da06ccf	0.078332536
103	0xbd5a8224	-0.053346768
104	0xbd1a58e2	-0.03768242
105	0x3d0c5485	0.03426029
106	0x3c295d0e	0.010337127
107	0x3e1cded0	0.15319371
108	0x3c0c53f1	0.008564935
109	0x3d212883	0.039345276
110	0xbdc46850	-0.095902085
111	0x3d014f67	0.031569865
112	0xbbbbfa0f	-0.0057365964
113	0xbd9b2876	-0.07576077
114	0xbca2cfc6	-0.019874465
115	0xbd00b61b	-0.03142367
116	0x3c67ba59	0.01414355
117	0xbcef5af6	-0.029218178
118	0xbae35813	-0.0017344974
119	0xbc92401f	-0.017852841
120	0x3dcec191	0.100955136
121	0x3b1cf27b	0.002394824
122	0xbd33b7d1	-0.043876473
123	0xbd061902	-0.032738693
124	0x3c6539ae	0.013990803
125	0xbcc36e65	-0.023856351
126	0x3dab0871	0.083512194
127	0xbd7be815	-0.061500628
128	0x3d9877db	0.074447356
129	0x3dff0dc3	0.12453797
130	0xbe65c645	-0.22438915
131	0xbc2c0ce1	-0.010501117
132	0x3ca09d2e	0.0196062
133	0xbc91c58e	-0.017794397
134	0x3d5b198a	0.053491153
135	0x3dbaa810	0.09114087
136	0xbd9c835d	-0.07642243
137	0x3bfc40ee	0.00769817
138	0xbd1e74bf	-0.038685557
139	0xbd24dd0e	-0.040249877
140	0xbd7ece67	-0.06220856
141	0x3c5b304d	0.013378215
142	0xbdd7205f	-0.10504221
143	0x3cb354a6	0.02189095
144	0xbcef493e	-0.02920973
145	0x3ca0e0b7	0.019638402
146	0xbca1a0bd	-0.019729966
147	0x3d80601a	0.0626833
148	0xbca37503	-0.019953256
149	0x3df1f3f2	0.11814107
150	0x3bfebaed	0.007773748
151	0xbded53fd	-0.11588285
152	0xbc356ed1	-0.011073784
153	0x3d4c2893	0.049843382
154	0x3d183c2f	0.03716677
155	0x3c8b1e75	0.016982296
156	0x3d15546c	0.036457464
157	0xbe579e66	-0.21056518
158	0xbd3037e4	-0.04302205
159	0x3dafbe15	0.08581177
160	0xbdb1eb2a	-0.08687432
161	0x3d05f3e4	0.032703295
162	0xbdbf95b1	-0.09354723
163	0xbd563989	-0.052300964
164	0x3d547d42	0.051877268
165	0xbbef5276	-0.0073035313
166	0xbd00ef9f	-0.03147852
167	0x3bee16f8	0.0072659217
168	0xbd95ffd1	-0.07324184
169	0xbcec7a47	-0.0288669
170	0xbc9bfb97	-0.019040866
171	0x3d3a0b3e	0.045420878
172	0x3cfef554	0.031122841
173	0xbce3be78	-0.027800784
174	0xbda4c39d	-0.08045123
175	0xbe1ba9c6	-0.15201482
176	0xbcba38ce	-0.022732165
177	0x3d6a047a	0.057133175
178	0xbcce917d	-0.025215859
179	0x3cf8b2fc	0.030358784
180	0x3d980faf	0.074248664
181	0xbbb25c28	-0.005443115
182	0x3d016a90	0.031595767
183	0x3d63c118	0.05560407
184	0xbe3da734	-0.18520814
185	0x3cc8a754	0.02449385
186	0x3d146739	0.036231253
187	0xbcfd6604	-0.030932434
188	0x3d252529	0.04031864
189	0x3d76f1e2	0.06028927
190	0x3d506319	0.050875757
191	0xbd201512	-0.039082594
192	0x3d324c13	0.04352958
193	0x3d949f45	0.07256941
194	0xbbef6b26	-0.0073064743
195	0x3d832d16	0.06405084
196	0xbd217d00	-0.03942585
197	0xbc942ac5	-0.0180868
198	0x3d106dda	0.035261013
199	0x3cda917e	0.026680704
200	0x3dd79c10	0.105278134
201	0x3c902852	0.017597351
202	0x3d67883d	0.05652641
203	0x3c19ee35	0.009395172
204	0x3a36ddf4	0.00069758226
205	0xbd21a04b	-0.039459508
206	0x3dc5f536	0.09665911
207	0x3cb73b8f	0.022367267
208	0xbdbe1210	-0.09280789
209	0x3d588f5c	0.052871093
210	0x3ccb9ed5	0.02485601
211	0x3db78a5a	0.08961935
212	0xbdb4e3cc	-0.08832511
213	0xbdb11213	-0.086460255
214	0xbbda6a1c	-0.0066654813
215	0xbd1559f4	-0.03646274
216	0x3d80cda2	0.06289221
217	0xbbc2a31b	-0.005939854
218	0x3d88fae7	0.06688481
219	0x3cc0e877	0.023548348
220	0xbd806a91	-0.06270326
221	0x3dbb789b	0.09153863
222	0x3c472418	0.0121546015
223	0xbdea6209	-0.1144448
224	0xbd6d839e	-0.057986848
225	0x3be2be7f	0.0069196816
226	0xbd88f272	-0.06686868
227	0x3d08884c	0.033333108
228	0xbd12a72c	-0.03580396
229	0x3c032039	0.008003288
230	0xbcf2d174	-0.02964089
231	0x3d600d4d	0.054700185
232	0xbbc83153	-0.0061093955
233	0x3d3d2958	0.046182007
234	0x3cd37f3a	0.025817502
235	0xbd14fd45	-0.03637435
236	0xbe0ebfc5	-0.13940342
237	0xbd8055a2	-0.06266333
238	0x3b2d8ce7	0.002648169
239	0xbe45335d	-0.19257875
240	0xbc8e4d9f	-0.017370997
241	0xbd6b8302	-0.057497986
242	0xbe931cb8	-0.28732848
243	0x3b8849fb	0.00415921
244	0x3c97f077	0.01854728
245	0x3d564c83	0.05231906
246	0x3bf2602d	0.007396719
247	0x3d49e975	0.049294908
248	0xbd508492	-0.05090768
249	0xb9090b0c	-0.00013069453
250	0xbbb88d51	-0.0056320806
251	0x3c77a6a1	0.015115411
252	0xbd1e4e8f	-0.038649138
253	0xbd982634	-0.07429162
254	0xbdffc3bc	-0.12488505
255	0xbcf7eeff	-0.03026533

blocks.2.conv.bias f4 [32]
0	0xbd3826ec	-0.044958994
1	0xbd320c90	-0.04346901
2	0x3db0281e	0.08601402
3	0xbe17be08	-0.14818585
4	0x3e16139e	0.14655921
5	0xbe071773	-0.13192539
6	0x3d377999	0.0447937
7	0xbd281df7	-0.0410442
8	0x3d99d948	0.07512146
9	0x3e4c2193	0.19934683
10	0xbe11d571	-0.14241578
11	0x3e072798	0.13198698
12	0xbc1bd6d2	-0.009511666
13	0x3d666104	0.056244865
14	0x3b48c42d	0.0030634508
15	0x3d0a7c66	0.03381004
16	0x3dab4b8c	0.08364019
17	0xbbc2ff1a	-0.0059508206
18	0x3dd0b867	0.10191422
19	0xbc067a29	-0.008207836
20	0x3d901c8d	0.07036696
21	0xbded049b	-0.11573144
22	0xbe2f4527	-0.17116223
23	0xbb2d4b5a	-0.0026442618
24	0x3c0d3480	0.008618474
25	0xbc6898df	-0.014196604
26	0xbdc888ce	-0.097917184
27	0x3daebf58	0.0853259
28	0xbd46823c	-0.048464045
29	0xbc5ffae5	-0.013670658
30	0x3c110533	0.008851337
31	0xbd57cb4a	-0.052684106

blocks.2.bn.weight f4 [32]
0	0x3f2fbf66	0.68651426
1	0x3f64be37	0.89352745
2	0x3f473b22	0.77824605
3	0x3ef54015	0.47900453
4	0x3f4db353	0.8035175
5	0x3f140d70	0.57833004
6	0x3f535fd3	0.8256809
7	0x3f3bef47	0.73411983
8	0x3f3051bb	0.6887471
9	0x3f3a08e8	0.7266984
10	0x3f21c628	0.6319299
11	0x3f7c8a53	0.98648566
12	0x3f5930cb	0.8484008
13	0x3f522120	0.82081795
14	0x3f7401da	0.95315325
15	0x3f2b937a	0.67021906
16	0x3f4cfcba	0.8007313
17	0x3f2fa2d9	0.6860786
18	0x3f38476f	0.71984
19	0x3f3eae8a	0.74485075
20	0x3f52c982	0.82338727
21	0x3f5f3aba	0.87198985
22	0x3f29c9b0	0.66323376
23	0x3f1c03ab	0.60943097
24	0x3f21947a	0.6311718
25	0x3f236498	0.6382537
26	0x3f72d7f5	0.94860774
27	0x3ef57e9c	0.47948158
28	0x3f1cfb0c	0.6132057
29	0x3f343429	0.7039209
30	0x3f27b1bd	0.6550558
31	0x3f4139af	0.75478643

blocks.2.bn.bias f4 [32]
0	0xbef0470a	-0.46929199
1	0xbf010902	-0.5040437
2	0xbe66b6d5	-0.22530682
3	0xbed154d0	-0.4088502
4	0xbea4eb21	-0.3221064
5	0xbe92b9c9	-0.28657368
6	0xbe8e2e16	-0.27769536
7	0xbe013434	-0.1261757
8	0xbea130c2	-0.31482512
9	0xbd536d47	-0.051617887
10	0xbe8f991c	-0.280465
11	0xbf0402c2	-0.5156671
12	0xbe7caac8	-0.24674523
13	0xbe8f80d9	-0.2802799
14	0xbf32fe37	-0.6991915
15	0xbe64e820	-0.22354174
16	0xbee8df49	-0.45482853
17	0xbe946323	-0.28981885
18	0xbee62fc9	-0.44958332
19	0xbeafdf4a	-0.34350044
20	0xbe495052	-0.19659546
21	0xbe81fe69	-0.25389412
22	0xbe76593b	-0.24057476
23	0xbe9517d9	-0.29119757
24	0xbe83e7d8	-0.2576282
25	0xbe3149af	-0.17313264
26	0xbf748bc9	-0.95525795
27	0x3c8d768d	0.017268443
28	0xbeb692d1	-0.35658887
29	0xbe60f346	-0.21967801
30	0xbed58170	-0.41700315
31	0xbe9af413	-0.3026434

blocks.2.bn.running_mean f4 [32]
0	0xbf7b7fe1	-0.98242
1	0xbf82d3f3	-1.0220932
2	0xbf54fa6e	-0.83194625
3	0xbfe414f5	-1.7818896
4	0xbf45e8b8	-0.77308226
5	0xbf2ece0c	-0.6828315
6	0xbe4f5dbc	-0.202506
7	0xbf0a5181	-0.54030615
8	0xbf2344cc	-0.6377685
9	0xbeec94c6	-0.46207255
10	0xbed2d9b3	-0.41181716
11	0xbfa1969c	-1.2624087
12	0xbf512da9	-0.81710297
13	0xbf69f0f3	-0.91383284
14	0xbf7739cf	-0.96572584
15	0xbf0d9f40	-0.5532112
16	0xbf8f5a37	-1.1199406
17	0xbf7461ac	-0.95461535
18	0xbf998933	-1.1994995
19	0xbf77e7e7	-0.9683823
20	0xbfbb6219	-1.4639312
21	0xbf07b98f	-0.53017515
22	0xbf1960f0	-0.5991354
23	0x3de4dea8	0.11175281
24	0xbf1ba6fa	-0.6080166
25	0xbf417150	-0.75563526
26	0xbf6e1ff3	-0.930175
27	0xbf50eccb	-0.8161132
28	0xbf7d251a	-0.9888474
29	0xbf1c9bc0	-0.61175156
30	0xbefd4245	-0.49464622
31	0xbf519eb8	-0.8188281

blocks.2.bn.running_var f4 [32]
0	0x3ffd6b40	1.9798355
1	0x3fcdf6ad	1.6090904
2	0x3febea7c	1.8430934
3	0x40360920	2.844307
4	0x3fea458c	1.8302474
5	0x3f9f0a2d	1.242498
6	0x3fa10cf9	1.2582084
7	0x3fba3565	1.4547545
8	0x3f968804	1.1760259
9	0x3f8aa220	1.0830727
10	0x3f8a07a7	1.0783585
11	0x40341bc1	2.814194
12	0x3fbe55b6	1.4869907
13	0x3febf219	1.8433257
14	0x3ff7fb97	1.9373654
15	0x3facdaf0	1.3504314
16	0x3fe29b7f	1.7703704
17	0x400120c7	2.0176256
18	0x401bf6b3	2.4369323
19	0x3ff573c4	1.9175954
20	0x40623320	3.5343704
21	0x3f8c574f	1.0964144
22	0x3f9ec708	1.240449
23	0x3fc3af71	1.5287915
24	0x3fb45837	1.4089421
25	0x3fe63e95	1.7987849
26	0x3f842d27	1.0326279
27	0x4046468c	3.0980558
28	0x3fdd87fb	1.7307123
29	0x3f94ca74	1.1624284
30	0x3f7e0b14	0.99235654
31	0x3fbcc046	1.4746177
