weights/geese_net_fold0_best_simple_3e9bb8472d21c8cc8ae9e2bf9fb37aae0b6bf1b5.pth (torch, 532614 bytes, 82 tensors)

conv0.conv.weight f4 [32, 28, 3, 3]
000000 55 26 97 bd fd f1 9a bd 54 ec cf bd af 4f 59 3c
       -0.07380358 -0.07565687 -0.10152498 0.013263627
000010 37 9f e6 bd bf e1 34 3d 55 8b 8d bc b1 b5 7c bd
       -0.112608366 0.0441606 -0.017278353 -0.061696712
000020 61 8f 6b bc 41 f3 5d 3d 2d 67 bf 3d ce be 47 3d
       -0.014377446 0.054187063 0.09345851 0.04876595
000030 c2 11 40 3d c2 d4 4e 3c ff b2 1e 3e ec 87 16 be
       0.046891935 0.012623968 0.15497969 -0.14700288
000040 d0 cc 6d 3d 58 f2 1e bd d2 6e b6 3d 9a b4 a1 3d
       0.058056653 -0.038805336 0.08907856 0.07895775
000050 bc 07 9b 3b 4e b3 a5 3d 13 4b 3f bd 38 f2 05 3e
       0.0047311466 0.0809084 -0.046702456 0.1308068
000060 6b 05 94 be e8 35 ff 3a a9 24 de 3c 40 70 cf 3c
       -0.28910384 0.0019471021 0.02711709 0.02532208
000070 27 f1 30 3e 83 d3 62 bd 38 d3 23 3d da 1a 07 be
       0.17279492 -0.055377495 0.039996356 -0.13193837
000080 9d 5a f6 3d 7d b8 17 be 22 11 9b 3d 1b 86 3c 3d
       0.12029002 -0.1481647 0.07571627 0.04602633
000090 a6 32 9a 3d a0 b4 3b bd 16 23 53 bd 3a 18 e1 3c
       0.07529192 -0.045826554 -0.051547132 0.027477372
0000a0 1a 81 f7 bd 78 fd d6 3d af c9 ef 3c a4 ec 84 bd
       -0.12085171 0.10497564 0.029270975 -0.06490448
0000b0 04 3a f1 bb a7 c4 30 3d f6 ba 4b 3d 32 e3 b0 bd
       -0.0073616523 0.043156292 0.049738847 -0.08637084
0000c0 af 8f fd bb 8f 7a cf bd ab 53 ff 3d 66 e8 0a bd
       -0.0077380757 -0.10130798 0.1246713 -0.03391304
0000d0 d5 29 9c 3c 07 2b d9 3d e3 2c a1 3d a0 04 da 3d
       0.019062916 0.1060391 0.078698896 0.106454134
0000e0 1d 82 85 bd 7e 76 74 3d 7f be 39 b9 d5 37 d6 3d
       -0.06518958 0.059683315 -0.0001771394 0.10459868
0000f0 16 bd 06 bd 10 ee da 3d 7c e2 d2 3d 7b b7 47 39
       -0.03289517 0.10689938 0.10297105 0.0001904647
000100 64 05 cf bd 44 de 07 bd f9 37 6c 3d 92 cd ea bd
       -0.1010845 -0.033170953 0.057670567 -0.11464991
000110 ae 28 2a 3e ea af af bb 47 e1 6b bd 8c 6a 62 ba
       0.1661708 -0.0053615468 -0.057587888 -0.00086370925
000120 71 3f c1 3c 25 c5 0a bb 1b e3 47 3d a7 4a aa 3b
       0.023589822 -0.0021174636 0.04880057 0.0051968875
000130 fa 6d 4e 3c 3d 5b ab bd e8 2b 7f bd 66 04 88 bd
       0.012599463 -0.08367012 -0.06229773 -0.06641464
000140 96 b3 09 be 8a 63 b3 3b 86 8c bd bd b0 69 47 3c
       -0.13447413 0.0054745125 -0.09255318 0.012171194
000150 7f 56 16 3b 95 08 6b 3c f2 1e dd bd 4c 09 24 bd
       0.002293974 0.014345308 -0.10796918 -0.04004793
000160 06 1c eb bd 43 ff df 3b c2 3d d1 bb 69 2b 81 3c
       -0.114799544 0.0068358495 -0.006385536 0.01576777
000170 b3 a1 26 bd 45 85 4b bd b3 00 04 bd ec ed 54 bd
       -0.040681552 -0.049687643 -0.03222723 -0.051984712
000180 57 35 86 bc a3 34 90 bd 68 aa 96 3a 91 e0 6c bd
       -0.016382856 -0.0704129 0.0011494877 -0.05783135
000190 17 8a ea bc 81 e1 8c b9 76 68 bf bd 5c 4d 96 bd
       -0.0286303 -0.00026870894 -0.09346096 -0.07338974
0001a0 c3 26 12 be dd 61 56 bd b3 c5 77 3d 0a 34 d5 bc
       -0.14272599 -0.052339423 0.060491275 -0.02602579
0001b0 59 ce 8a 3c ff cc 83 bd c5 22 f2 bd 02 86 67 be
       0.016944097 -0.06435584 -0.11823038 -0.22609714
0001c0 13 17 6b 3e 59 33 28 be 91 6f ad 3d c0 66 98 bc
       0.22958021 -0.16425838 0.08468545 -0.018603683
0001d0 6f 1a b0 3d ba 17 62 bd 95 78 98 3d 57 79 e2 bd
       0.08598792 -0.05519841 0.07444874 -0.110583
0001e0 e7 69 e8 bc 3a 1a 0f be b1 32 cb 3d c5 b4 9a bd
       -0.02837081 -0.13974848 0.09921778 -0.0755401
0001f0 41 1b aa 3d e5 85 bf bd 7d cd 70 bd 0b 56 5c 3d
       0.083059795 -0.0935171 -0.05878972 0.053792994
000200 b7 d0 da bd b6 d0 11 3e 2a 38 3e be e9 ac 8d 3d
       -0.106843404 0.14239773 -0.18576112 0.069177456
000210 5a cf 62 bd 71 38 26 3d 94 22 98 bd 4d 5f 38 bd
       -0.055373527 0.04058117 -0.0742847 -0.04501276
000220 8c db d6 3c 51 df a9 bd c2 e4 86 3d b7 ea 1b be
       0.026227735 -0.08294547 0.06586601 -0.15226255
000230 d9 02 3a bd 2f 90 a7 bd 8d 26 c2 3d b2 dd f3 bb
       -0.045412872 -0.08181798 0.09480009 -0.0074421996
000240 f6 b9 90 bd f0 3f 1d be da f9 f3 bc 38 3b 39 bd
       -0.07066719 -0.15356421 -0.029782224 -0.04522249
000250 8a 10 52 3c 1f cd 36 bd e0 d4 4a bd 0f f7 e4 3d
       0.012821326 -0.044629212 -0.04951942 0.11179935
000260 13 b9 a0 3d ab f5 2d 3b 8f de c5 bd 31 37 89 bd
       0.078478 0.0026544135 -0.0966159 -0.0669998
000270 48 57 11 3d 33 d9 cd 3d 97 ed b5 3c ea e0 af ba
       0.03548363 0.10051193 0.022208018 -0.001341847
000280 28 a2 b6 3c f7 d4 7c 3b 23 1b f6 3c ba cd b6 3c
       0.022294119 0.0038579085 0.030042237 0.022314895
000290 d4 f8 f7 3b a5 4e 87 3c 8a 3a 39 bd b6 93 c9 39
       0.0075675044 0.016516993 -0.045221843 0.0003844776
0002a0 d8 26 2b 3d 0a f6 07 3d 86 9b ca 3d 49 70 99 3d
       0.04178509 0.033193626 0.09892945 0.0749212
0002b0 7e a9 84 bc 59 b3 eb 3b aa 4d ea bd d0 b1 bd 3d
       -0.016194101 0.0071930108 -0.114405945 0.09262431
0002c0 34 51 0d bd c2 a7 8d 3d bc dd be bb 9d 20 9f 3d
       -0.03450127 0.06916763 -0.0058247726 0.07769892
0002d0 5a 75 c2 3d 36 fc b1 bd 5c 7b da 3c f2 a1 ac bd
       0.09495039 -0.086906835 0.02667015 -0.08429326
0002e0 7e 92 83 3c 03 12 c4 bd 35 49 25 bd c3 54 6c bc
       0.016061064 -0.09573748 -0.04035302 -0.014424506
0002f0 c3 bd 34 3d 0b 13 cf 3d de 1f 16 bd ea 73 95 3d
       0.044126283 0.10111054 -0.036651485 0.072974995
000300 62 ad 3e bd 08 97 f2 bd ca db 90 3c f6 cf 45 3d
       -0.04655207 -0.11845213 0.017682929 0.04829403
000310 54 bc 17 3d 54 ff e1 bc 21 5e bf 3d 30 ff e3 3d
       0.037044838 -0.02758757 0.093441255 0.111326575
000320 4f e1 c2 3c 5e 12 12 3d 48 4d 86 bd 30 d7 d6 3d
       0.023789076 0.035662048 -0.06557709 0.104902625
000330 49 46 bd 3c 56 ce 42 3d 1f ce ad 3d 1d e7 c0 3d
       0.023104804 0.04756006 0.0848658 0.09419081
000340 2c b6 8b 3d b6 9f 9a bc 38 e9 21 3d 4f fe 17 bd
       0.06821856 -0.018874984 0.039529055 -0.037107762
000350 5a d0 f2 3d d3 eb 6a bc 29 af d8 3c 42 ae 82 3d
       0.11856146 -0.014338451 0.02645071 0.06380893
000360 d1 00 06 3e 4b 0a 87 bd 31 10 14 3c 18 8d 11 3d
       0.13086249 -0.0659376 0.009037063 0.035534948
000370 de 99 c4 3c 18 5b 3f 3e 70 40 76 3d bc 38 40 bd
       0.02399915 0.18687093 0.060120046 -0.046929106
000380 65 57 12 3d 10 10 60 3d 8c 18 29 bc a7 5a cd 3d
       0.035727877 0.05470282 -0.010320794 0.10027056
000390 77 66 44 3d 7b f5 2b bd ec 89 ed bb 9f 49 90 3c
       0.04794928 -0.041982155 -0.0072491076 0.01761323
0003a0 cf a0 1b bc da 26 53 3c 5e 2c 45 3d d3 c7 de 3c
       -0.009498789 0.012887681 0.048138015 0.027194893
0003b0 36 96 92 3b c9 df ba 3b 0c 9d ca bc 72 6b 1b bd
       0.004473473 0.005702947 -0.024733089 -0.037944265
0003c0 01 bd bc 3c 4c 7c 9d 3d c9 36 82 3d fa 78 84 be
       0.023039343 0.07689723 0.06358106 -0.25873548
0003d0 b6 bf 33 3c 56 7b 13 3b 38 b2 76 be bb 14 08 3d
       0.010971 0.0022503934 -0.24091423 0.033222895
0003e0 26 5d 6e 3c 3a 1a 81 be ce 68 e5 3d c5 55 9a 3d
       0.0145485755 -0.25215322 0.112016305 0.075358905
0003f0 b9 b9 13 bd b6 4a 99 bd 41 6c 1b 3e 5b 87 8e be
       -0.03606579 -0.07484953 0.15178014 -0.27837643

conv0.conv.bias f4 [32]
000000 e4 02 d5 b7 c8 96 53 37 92 3a 55 b6 6b 67 b4 38
       -2.5392925e-05 1.26116865e-05 -3.1773566e-06 8.602332e-05
000010 30 b5 7b 38 5a 31 91 b7 d1 6b d4 37 c4 dc fb b6
       6.0011807e-05 -1.7308328e-05 2.5322575e-05 -7.5060834e-06
000020 73 0a 0b 38 51 b6 e2 37 e2 5c ed 36 04 07 03 b9
       3.3149914e-05 2.7026197e-05 7.0739634e-06 -0.00012495747
000030 81 85 d4 b6 ad b1 94 38 8d 85 90 b7 9a 1f b1 38
       -6.3336342e-06 7.0902846e-05 -1.7228327e-05 8.445904e-05
000040 6c 09 91 37 d7 f5 bf b7 c3 f4 66 b9 53 77 de 36
       1.7289734e-05 -2.2883452e-05 -0.0002202569 6.6300067e-06
000050 32 1f 21 b9 00 80 07 b9 c6 bc 18 39 c6 0b 3d b9
       -0.00015365778 -0.00012922287 0.00014566173 -0.0001802883
000060 b2 59 9a b8 37 c3 a3 b8 8f ff d1 37 68 10 37 b8
       -7.359999e-05 -7.808807e-05 2.5033745e-05 -4.364588e-05
000070 62 4e 35 b7 a8 86 48 37 5f d3 ae b7 82 88 87 38
       -1.0806691e-05 1.1952281e-05 -2.0840844e-05 6.462728e-05

conv0.bn.weight f4 [32]
000000 af b1 20 3f c5 18 28 3f e4 0b 2f 3f 9d e7 2c 3f
       0.62771124 0.65662795 0.6837752 0.67540914
000010 3c db 20 3f 3e d2 3e 3f fa 8b 5c 3f ed 78 88 3f
       0.62834525 0.74539554 0.8615109 1.0661904
000020 9f 84 4d 3f c8 4a 3b 3f 2f 11 28 3f c0 84 2e 3f
       0.8028049 0.7316098 0.6565122 0.6817131
000030 c0 76 3b 3f cd 20 40 3f 42 99 2d 3f 0c 15 4a 3f
       0.73228073 0.7505005 0.6781198 0.78938365
000040 99 fb 4f 3f cb e9 70 3f 84 76 74 3f d6 e2 32 3f
       0.8124328 0.9410674 0.9549334 0.69877374
000050 2f b8 8d 3f 41 b5 22 3f 38 3a 35 3f df 05 3c 3f
       1.1071833 0.6355782 0.7079196 0.7344646
000060 21 6d 2c 3f 82 3b 65 3f 01 f8 2b 3f 69 50 2d 3f
       0.6735402 0.89543927 0.671753 0.6770082
000070 50 72 53 3f 16 dc 81 3f 6d 4d 15 3f 80 a8 46 3f
       0.825963 1.014529 0.5832127 0.7760086

conv0.bn.bias f4 [32]
000000 82 9b 63 be ea 79 b4 3d 65 25 ec bd 36 bd c8 3d
       -0.2222729 0.08812316 -0.1153057 0.09801714
000010 fb fb 93 bd 8c 7f 3f 3b 6f 5d d3 be 52 99 01 bf
       -0.07225796 0.002922031 -0.41282222 -0.50624573
000020 b2 70 ea bc 2a 37 c1 bd 91 38 0a be 66 0b 9d bd
       -0.02861819 -0.0943435 -0.13498141 -0.0766819
000030 34 7f 5a be 68 20 90 3e 8d 53 b4 bd 90 fc 5d bd
       -0.21337587 0.28149724 -0.088049985 -0.05419594
000040 3c 92 e1 bd 0e 15 c0 3d 62 b0 51 3d a4 9d f1 bd
       -0.1101422 0.09379016 0.051193602 -0.11797646
000050 9b a4 af be 9c fb 25 3e 09 81 bf 3d 8b 56 70 3d
       -0.34305272 0.16209263 0.093507834 0.058676284
000060 0a cf 64 3b d4 f9 8d bd 86 43 78 be b5 b9 79 bc
       0.0034913444 -0.069324166 -0.24244508 -0.01524203
000070 45 fd 5c bb 3f 1f d9 3d 81 0e 09 3d fa 19 ad bc
       -0.0033720296 0.10601663 0.033461098 -0.02113055

conv0.bn.running_mean f4 [32]
000000 5f 78 e1 3c 2b c8 11 bd cd 1e cc 3e db 05 82 be
       0.027523218 -0.035591286 0.3986725 -0.25395092
000010 09 f6 b0 bc ef 1c 37 3e f1 45 fd 3c a1 f4 8c 3c
       -0.021601694 0.17882131 0.03091714 0.017206492
000020 31 b1 11 3e f6 86 9b 3d 7f 97 22 bf 9b 1e 10 3e
       0.1422775 0.07594101 -0.63512415 0.14074175
000030 fc 65 c1 3e 27 64 90 be 3d e4 50 3e 18 4a 85 bd
       0.3777312 -0.2820141 0.20399566 -0.06508273
000040 db b2 90 bd e7 ce 48 3e 39 2b 8e 3e cf 1c 02 bf
       -0.07065364 0.19610177 0.2776735 -0.5082521
000050 fc aa 86 bc 4c 35 77 bd 6c 5d c2 bd f6 bc 83 bd
       -0.016438954 -0.060353562 -0.09490475 -0.06432526
000060 3d b8 9c be 9f 79 e7 bd 7f 81 e1 be b2 82 05 3e
       -0.30609313 -0.11302494 -0.4404411 0.13038138
000070 c8 8b 88 3e 1c a5 7b be 34 ca 3c be 40 d6 e0 bd
       0.26669145 -0.24574703 -0.1843651 -0.10978365

conv0.bn.running_var f4 [32]
000000 0d 64 34 3e 08 e9 4e 3d 4c c8 88 3d d4 f1 a4 3d
       0.17616291 0.050515205 0.066788286 0.080539376
000010 53 ff 6a 3d e9 15 54 3d 5c f2 10 3d 0a f8 0f 3d
       0.057372402 0.051778708 0.035387382 0.035148658
000020 bd 08 19 3d 65 00 0e 3d 6d b4 0a 3e ce ed 1b 3d
       0.03736185 0.034668345 0.1354539 0.038068585
000030 50 19 98 3d ba 0f be 3d 30 9f fd 3d 81 96 3e 3d
       0.07426703 0.09280343 0.12383878 0.04653025
000040 81 32 bb 3d 0d 48 9b 3d 1f a5 45 3d ec 02 05 3e
       0.09140492 0.07582102 0.048253175 0.12989396
000050 ae a2 2f 3d 55 56 04 3d 49 8d 50 3d a6 b7 64 3d
       0.042879753 0.032308895 0.05091599 0.055839203
000060 01 eb ab 3d 6e f9 87 3d 19 38 be 3d 64 9c a9 3d
       0.08394433 0.06639372 0.092880435 0.08281782
000070 37 07 3d 3d 1e 2b a5 3d ae d2 65 3d 02 1a 77 3d
       0.04614946 0.080648646 0.056109123 0.060327537

blocks.0.conv.weight f4 [32, 32, 3, 3]
000000 f7 f6 37 3e 5e f4 3d bd 35 a6 b4 3d 77 51 ef 3c
       0.17965303 -0.046375625 0.08820764 0.02921365
000010 c9 6e 69 be d2 eb 28 3d b8 ba 45 3e f8 c9 b7 bd
       -0.22796167 0.04124052 0.19309509 -0.08974069
000020 36 08 03 3e 79 a5 89 ba ab f9 5a 3c ea f4 87 bc
       0.12796101 -0.0010501585 0.01336519 -0.016596276
000030 28 ed 89 bd 03 18 47 bb 39 f2 cf bd 13 96 ff bc
       -0.06734687 -0.0030379302 -0.10153622 -0.03119949
000040 e2 f9 e8 3c 42 9c af bc 7d 86 9c 3c 80 7e f0 3d
       0.028439466 -0.021436814 0.019107098 0.11742878
000050 53 9e a6 bc 4c 57 9b bd 21 78 3d 3d ee 37 20 3d
       -0.020339167 -0.0758501 0.046257142 0.03911584
000060 f4 f7 54 bc 55 2e 16 bd f2 c0 8a 3c 3c 70 1b ba
       -0.01299857 -0.03666528 0.016937707 -0.0005929505
000070 c2 1c 9b bc 43 e6 76 3d 3c 7f c4 3b 06 91 26 bc
       -0.018934611 0.06027819 0.005996613 -0.010166412
000080 0a 14 a8 3d 4b b1 d3 bd e4 40 7f bc ee 1a ab 3d
       0.08206947 -0.1033655 -0.015579436 0.08354746
000090 fa 53 12 3d bc 72 3d bd 55 87 7c bd 17 17 78 3b
       0.035724618 -0.046251997 -0.0616525 0.003785556
0000a0 05 e8 14 be f4 4c d3 3d 5d ed 25 bd 50 39 81 3c
       -0.14541633 0.10317412 -0.04050957 0.015774399
0000b0 77 0e 50 bc 20 df 7b bc 53 28 4d 3d 8f 5d eb 3d
       -0.012698761 -0.015373021 0.050087284 0.11492454
0000c0 f8 0f 15 3e 59 25 5b 3e 3f 13 fb 3a 8b 93 7c 3d
       0.14556873 0.21400966 0.0019155516 0.061664145
0000d0 ee f9 a2 3c 3e 0a 3f 3d 18 83 f5 bc 90 fa ad bd
       0.019894566 0.046640627 -0.029969737 -0.08495057
0000e0 2d 37 d4 bc 5e 21 a7 bd a4 c2 7c 3d ee 5f a5 bb
       -0.025905216 -0.08160661 0.06170906 -0.005046836
0000f0 d2 6b 91 3c 37 47 6c 3e b3 fa aa bd 50 93 13 bd
       0.017751608 0.23074041 -0.08348598 -0.03602916
000100 02 71 08 bd 58 1e 5b bc ba 8e f3 bd bf 2e b7 3e
       -0.033310898 -0.013373934 -0.11892457 0.35777852
000110 f1 4d 51 3d 0e aa dc bc 14 7f d7 bd 9a ba ca bd
       0.05109972 -0.026936557 -0.10522285 -0.09898873
000120 1c b8 80 3d 7b 25 c6 bd 6c 78 20 3d f6 a4 2d 3d
       0.06285116 -0.096751176 0.039177343 0.042393647
000130 12 20 d7 3d 92 13 f0 3a 07 52 81 3d 47 fc c5 3c
       0.10504164 0.0018316379 0.063144736 0.024168147
000140 1f 0a 30 3d af 2b 59 3c 4d 65 a7 3c ca b8 9f 3c
       0.042978402 0.013255044 0.020434046 0.019497294
000150 f6 b7 b4 3c 72 69 3d 3e 3b c5 37 bd 71 5d c2 3d
       0.022060376 0.18497255 -0.044865828 0.09490479
000160 67 90 a3 bc 90 6f 2a 3e ea 35 14 3d 22 83 a4 b9
       -0.019966317 0.1664412 0.03618423 -0.0003137822
000170 92 c7 f9 bc 97 35 ea 3b 20 81 81 3d e9 b3 46 bd
       -0.03049067 0.0071475017 0.06323457 -0.04851142
000180 8d 06 6e 3d 9c 2e 41 bd c9 9e c6 3c 9c 55 ec 3c
       0.058111716 -0.04716359 0.024245637 0.028849415
000190 c2 e1 b6 bd 8c 07 1e bd a5 83 8e bd bd ce a6 3d
       -0.08929779 -0.038581416 -0.06958703 0.08144901
0001a0 fd dc 37 3d b6 b6 0a 3d ad 79 8b bd c9 16 3c bc
       0.044888485 0.033865653 -0.06810317 -0.011480042
0001b0 75 2c 11 bd af e4 dc 3c 64 fa 18 bc dd eb 56 3d
       -0.03544279 0.026964514 -0.0093370415 0.05247103
0001c0 b4 12 67 3c f1 f1 de 3c 65 32 2e bd 6b 0d c7 3c
       0.01410358 0.027214976 -0.04252853 0.02429839
0001d0 9d bd 1e 3c da 1d 33 3c 7b 69 0e bd 67 f2 2d 3d
       0.009688762 0.01093241 -0.034768563 0.0424675
0001e0 f4 7a d3 bd 83 24 fe 3c 6b 2b 25 3d 7b 34 c3 3b
       -0.10326186 0.03102327 0.04032461 0.005957184
0001f0 95 5d a6 3d b0 51 b1 3d 21 88 43 3e e2 58 03 be
       0.08123318 0.08658159 0.19094898 -0.12826875
000200 fa 87 07 bd 0d e0 ed 3d 3a b4 84 bc 50 16 25 bb
       -0.03308866 0.11615 -0.01619922 -0.0025190301
000210 2c b3 e6 bc a0 ab 28 bc f9 6e bb bd 1e 0f 1d 3c
       -0.028161608 -0.010294825 -0.09152026 0.009586124
000220 8e 7b 97 ba 5e 1e 16 bc 9e f6 2c bc f5 95 15 3d
       -0.0011557208 -0.009162514 -0.010556845 0.036519963
000230 05 5a 5e be 84 4f 21 bd 1b 4a fe 3b 06 28 43 3d
       -0.21714027 -0.039382473 0.007760299 0.04764559
000240 65 ab 28 be f7 d2 04 be 44 3e 72 bd ba df 52 be
       -0.16471632 -0.12971102 -0.059141412 -0.20593157
000250 82 83 19 3e 2e e5 25 bd d4 5b ac bd 0e da 92 bd
       0.14991572 -0.040501766 -0.08415952 -0.07170497
000260 57 07 76 bd 4e 1f c4 bc 77 14 9c 3c f1 bf a5 3d
       -0.060065594 -0.023940708 0.019052727 0.080932505
000270 2b 84 93 bd 6a cc b3 3c ec 30 5f 3c a0 a5 08 3d
       -0.072029434 0.021948058 0.013622504 0.033361077
000280 91 94 20 bd bd 6e f6 3d 31 2f 1a bc b7 53 8f 3d
       -0.039204184 0.120328404 -0.009410665 0.06998389
000290 6d a3 69 bc 1c e5 b1 3b 38 7e 1c 3d 3f 00 0c 3e
       -0.014260155 0.0054289233 0.03820631 0.13671969
0002a0 2e 1e 49 3c 01 32 5a 3d 7d ef 7c bc 25 d5 40 3d
       0.012275262 0.053270344 -0.015437958 0.04707827
0002b0 89 23 d5 bc 6a 85 19 bd bf 02 1e bc a1 89 f6 bc
       -0.026017921 -0.03748075 -0.009644209 -0.030094923
0002c0 13 41 f5 bd 93 18 87 bd 65 9d 0d bd ca 37 e7 bd
       -0.119753025 -0.06596484 -0.03457393 -0.11289938
0002d0 b5 e1 03 3e f5 30 85 3c 82 db bc 3d 5b 75 ee bc
       0.12879069 0.016258696 0.09221555 -0.029108694
0002e0 c8 cf bd bc 49 29 64 bd 28 31 10 3d 74 cc 31 3b
       -0.023170367 -0.055703435 0.03520313 0.002712992
0002f0 51 40 0d bd 29 a1 0b 3e 0e fa f7 3c 3a c7 7a 3d
       -0.034485165 0.13635696 0.030270603 0.061225154
000300 0b db a3 bd 39 fc 72 3d 0c c7 14 bd 01 3a ae 3b
       -0.080007635 0.05932257 -0.03632264 0.005316973
000310 9d d3 80 3d 7f 40 84 3d b5 eb 7d 3d 83 92 c7 3d
       0.06290362 0.06457614 0.061992366 0.09744742
000320 c0 3d 13 bd 80 ad 87 bd 70 51 cd ba ef 8f 77 3d
       -0.03594756 -0.066248894 -0.0015664529 0.06044
000330 7d a5 c6 bb f1 9d 3e bc 74 05 96 bd 74 9b 02 3d
       -0.006062208 -0.011634336 -0.07325259 0.031886533
000340 db 0c 2c bd 68 f5 97 3d 09 06 0b 3d 2b 11 be 3d
       -0.042004447 0.074198544 0.033941302 0.09280618
000350 97 6c b1 bb 54 3f 91 3d 76 f3 39 3d 9c c0 0a 3d
       -0.0054145562 0.07092157 0.045398198 0.033875093
000360 2a 5c 04 3c 76 66 2d 3d a6 d2 02 be c5 00 d4 bb
       0.008078614 0.042334042 -0.12775669 -0.0064698183
000370 99 e3 21 3b 97 64 a8 bb 4f 97 c6 ba ad c3 ee bc
       0.002470231 -0.0051389444 -0.0015151295 -0.02914604
000380 5e 62 de 3c 63 51 07 bb 2d 02 1e 3d 29 79 f6 bc
       0.027146515 -0.0020647875 0.038576294 -0.03008707
000390 93 fb 09 3e f1 52 87 bb 0b 54 80 bc e4 fc 40 3d
       0.13474874 -0.0041297604 -0.015665075 0.047116175
0003a0 8c 6d 34 3d c4 66 5a bd 44 d7 a8 3d c8 c6 0b 3e
       0.044049785 -0.05332066 0.08244184 0.13650048
0003b0 50 23 3e 3e 8f 2a 02 3e 93 69 12 3e 6b c7 82 3d
       0.18568158 0.12711547 0.14298086 0.06385692
0003c0 b1 05 4b 3e 50 2e b9 3d 80 e0 8a bd ad 37 56 3d
       0.1982639 0.090420365 -0.06781101 0.05229919
0003d0 52 94 12 bb 28 0f af bd 98 40 99 bb 2a 3d 37 bd
       -0.0022366238 -0.08547813 -0.0046768896 -0.044736065
0003e0 a6 fc fb 3d bf da 25 bd a3 2b 22 3b dc 48 82 bd
       0.12304048 -0.040491816 0.0024745248 -0.06361553
0003f0 97 71 8b bd fb 94 ee 3d e1 34 4c bd 4b fe 31 3c
       -0.06808775 0.116495095 -0.049855117 0.010863851

blocks.0.conv.bias f4 [32]
000000 05 c4 a6 b7 eb c4 fc b6 da 05 e8 b7 68 7c 78 b7
       -1.988002e-05 -7.5331095e-06 -2.765928e-05 -1.48109175e-05
000010 87 05 79 37 6a 90 71 b6 2b 1c 17 36 ea 78 24 b7
       1.48428435e-05 -3.5995859e-06 2.251715e-06 -9.803314e-06
000020 98 5f 1f b6 69 19 f3 34 6a 6f 08 b8 90 cd d2 b6
       -2.374849e-06 4.5280765e-07 -3.252869e-05 -6.2824183e-06
000030 95 a7 d6 37 44 bc 15 b8 92 3e 84 37 36 37 9e b7
       2.5588824e-05 -3.5699704e-05 1.5764763e-05 -1.8860777e-05
000040 c3 d1 6e b7 25 24 fd b6 2c 50 90 b7 d5 e8 8c 37
       -1.4234744e-05 -7.5441953e-06 -1.720347e-05 1.6797721e-05
000050 07 55 36 36 fc f2 ff b7 4c 66 25 b7 95 15 1a b7
       2.7169606e-06 -3.0511517e-05 -9.858584e-06 -9.18414e-06
000060 33 55 6a 37 39 1c 43 b8 85 63 90 37 c6 30 e8 b7
       1.3967324e-05 -4.6517907e-05 1.721248e-05 -2.7679267e-05
000070 43 b1 1f 37 20 de a3 37 91 df dc 37 63 16 14 37
       9.5184105e-06 1.953455e-05 2.633015e-05 8.8267e-06

blocks.0.bn.weight f4 [32]
000000 a4 4e 56 3f c5 92 3f 3f 96 b7 51 3f 99 2d 4f 3f
       0.83713746 0.7483333 0.81920755 0.8092895
000010 e5 dd 53 3f 09 4c 60 3f df 77 9f 3f 04 a1 79 3f
       0.8276046 0.8761602 1.2458457 0.97511315
000020 49 0b 77 3f 4a 09 48 3f 95 27 47 3f 02 45 59 3f
       0.96501595 0.78139174 0.7779477 0.8487092
000030 f7 d6 12 3f b7 6b 58 3f d9 70 3f 3f 23 e2 43 3f
       0.5735926 0.8453936 0.74781567 0.7651693
000040 6a d2 8b 3f 72 ef 90 3f 5a e0 7b 3f e5 e9 58 3f
       1.0923588 1.1323073 0.9838921 0.84731895
000050 9b ee 76 3f 1a 53 49 3f fc 37 42 3f 96 93 5c 3f
       0.96457833 0.7864243 0.75866675 0.861627
000060 f4 98 63 3f 8f 0f 5e 3f 1e 17 8a 3f a6 8e 49 3f
       0.8890526 0.8674249 1.0788305 0.7873329
000070 d9 1c 5f 3f c9 f3 3a 3f 05 94 6b 3f 92 4d 3c 3f
       0.87153393 0.73028237 0.92022735 0.7355586

blocks.0.bn.bias f4 [32]
000000 78 39 49 be e9 cb 31 be dc a0 18 be 52 2d b6 be
       -0.19650829 -0.17362942 -0.14905113 -0.35581452
000010 4d c8 cf be 86 11 8e be cb 4a f9 be d1 9f ba be
       -0.40582505 -0.27747744 -0.48689875 -0.36450055
000020 53 b8 2d be 26 1d 83 be 0f 15 62 be 38 65 8f be
       -0.16964845 -0.25608176 -0.22078346 -0.2800691
000030 80 c0 c5 bd e1 00 92 3e 1d 78 ac be af 8b 75 be
       -0.09655857 0.28516296 -0.3368539 -0.23979066
000040 78 21 83 be 67 7d ef bd 34 b1 a3 be 7e 2a 81 be
       -0.25611472 -0.116938405 -0.31971133 -0.2522773
000050 a1 6a 61 be b6 2f 7f be b7 30 c1 bd 8e 17 d6 be
       -0.22013332 -0.24920544 -0.0943312 -0.41814846
000060 a7 ed 20 be 11 c2 e3 bd a8 14 bb be af b5 09 bd
       -0.15715657 -0.111209996 -0.36539197 -0.033620533
000070 74 ba cb be a4 1b 7d be e2 4e b2 bd 01 dc 30 be
       -0.3979069 -0.24717575 -0.08706452 -0.17271425

blocks.0.bn.running_mean f4 [32]
000000 6b 71 02 3f 43 8f c8 3e 18 c8 c3 be 7d c1 4c bf
       0.5095431 0.391718 -0.38238597 -0.7998274
000010 b0 09 7b bf a2 d7 92 bf 0a 12 e9 3d 53 a6 15 3f
       -0.98061657 -1.1472056 0.11380394 0.58456916
000020 4d 4f fa 3a 5d 45 f0 be 55 b4 79 3f bd f3 9f be
       0.001909712 -0.4692792 0.9754079 -0.31240645
000030 b3 3f 99 3e 35 c2 ad bf 62 bc be be 8c d0 ca 3c
       0.2993141 -1.3574892 -0.372531 0.024757646
000040 b5 6a 6f 3f 27 ab a2 bf 2d 22 75 bf ef 20 93 bf
       0.93522197 -1.2708482 -0.95755273 -1.1494426
000050 3a a4 eb be 1e 83 15 bf 85 a4 20 bf a7 20 ed be
       -0.46023732 -0.58403194 -0.62751037 -0.46313974
000060 aa a3 b7 be 99 64 c0 be ec bf a1 be 5f 99 ac bf
       -0.35867053 -0.3757675 -0.31591737 -1.3484305
000070 6e c5 61 be 89 7c ae be d2 9f 59 3d a5 56 16 3f
       -0.2204797 -0.34079388 0.053130932 0.5872596

blocks.0.bn.running_var f4 [32]
000000 a8 66 08 3f 1f ee 40 3f e6 c0 fb 3e 53 c9 38 3f
       0.5328164 0.75363344 0.49170607 0.72182196
000010 e3 7d 44 3f fb a1 28 3f 30 b3 65 3f c1 1c 4e 3f
       0.7675459 0.6587216 0.89726543 0.80512625
000020 2b e3 94 3f 59 fc 30 3f e0 d1 26 3f 17 10 ff 3e
       1.1631826 0.6913505 0.65163994 0.49816963
000030 38 9b 05 3f 8b 02 5a 3f 1b 44 11 3f 23 16 22 3f
       0.5218997 0.8516013 0.56744546 0.6331503
000040 58 78 c9 3f 6b 19 53 3f 1b 91 34 3f 81 31 6c 3f
       1.5739851 0.8246066 0.70533913 0.92263037
000050 41 c5 cc 3f 7c 93 22 3f 85 21 4f 3f 5f e9 0a 3f
       1.5997697 0.63506293 0.8091052 0.54262346
000060 bd a3 58 3f 88 91 41 3f 88 ee 4c 3f 86 10 03 3f
       0.84624845 0.7561269 0.8005147 0.5119709
000070 2e 1a 01 3f 05 0d 0a 3f a8 33 87 3f 44 53 0c 3f
       0.5043057 0.53926116 1.0562639 0.54814553

blocks.1.conv.weight f4 [32, 32, 3, 3]
000000 8f ec 05 bd 25 d7 a9 3b c3 c9 5e 3d df 27 a8 bd
       -0.032696303 0.005183118 0.054391634 -0.0821073
000010 ac be 8c bc 3a 19 14 be f8 49 92 3d 9a 52 70 3d
       -0.017180763 -0.14462748 0.07143015 0.058672525
000020 8b 40 9a 3d d3 8a 28 3c b3 7e ec 3b 50 c0 5c bc
       0.07531842 0.0102870045 0.007217252 -0.013473585
000030 fa fc 90 bc 1f 0b e3 bd 56 e0 38 3d e8 31 d2 3d
       -0.017698754 -0.110861056 0.04513582 0.10263425
000040 4d f8 45 3d e2 e9 b3 bd 5f 22 bb bb 66 26 55 3d
       0.0483325 -0.08784844 -0.0057108845 0.052038573
000050 1d 6a 85 bc e5 f6 e8 bd fe f2 70 3c 6f 5a 24 3e
       -0.01628595 -0.113752164 0.014706371 0.16050123
000060 59 f3 ed bc 00 d1 9e bd 72 d4 96 3d c2 25 a8 3d
       -0.029046701 -0.07754707 0.073647395 0.08210327
000070 51 b0 a9 3b 56 36 96 bd a2 29 ed 3c 64 aa 2a 3d
       0.0051784893 -0.073345825 0.028950516 0.041666403
000080 b2 7b 6e bd 35 fc 2f 3d f6 41 80 3c f0 f0 ea bd
       -0.058223434 0.042965133 0.015656453 -0.114717364
000090 87 76 0b 3b cd 6c c3 bc f8 52 14 3e 03 01 19 bd
       0.0021280365 -0.023855591 0.14484775 -0.03735448
0000a0 ca a2 ff bd 17 fb 0e bd 6f 68 07 be c4 03 9f 3d
       -0.124822214 -0.034907427 -0.13223432 0.0776439
0000b0 ee 08 59 3c d9 31 d7 bd 5b e5 9b 3c 09 e1 06 be
       0.013246758 -0.105075546 0.019030264 -0.13171782
0000c0 5d 30 c4 3b 09 99 84 3c 95 f7 f8 3c d7 c4 2d 3d
       0.0059872107 0.016186254 0.030391494 0.04242405
0000d0 6c f1 49 bd 1b 19 8a bc e1 41 f7 3c 7e 36 d5 3c
       -0.049302503 -0.016857674 0.03018278 0.02602696
0000e0 28 1b 0f 3c fc 06 25 bd f5 05 01 3e b6 42 a7 3d
       0.008734502 -0.040289864 0.12599929 0.08167021
0000f0 80 48 66 bd 84 f5 b2 3d 78 df a4 bd 3f bb 8a bd
       -0.056221485 0.08738235 -0.08050436 -0.067739956
000100 c5 30 c6 3d d8 fc e8 bd 36 ea f7 bd f7 ed 0e 3c
       0.09677271 -0.11376351 -0.12105219 0.008723727
000110 42 19 0b bd 43 e8 4f bd 7c bd 4e bd f4 90 1f be
       -0.033959635 -0.05075861 -0.050473675 -0.15582639
000120 dc b2 9f bd e7 a8 15 bc dd 6b 64 bd 5d 1a 94 bb
       -0.077977866 -0.009134508 -0.05576693 -0.0045197443
000130 4f 41 8b bb 01 3c 52 3d 00 7d d3 3c 36 2e 67 3e
       -0.0042497288 0.051326755 0.02581644 0.22576222
000140 5e 7b 76 bd 01 a8 7f bd fe 41 25 3d 15 33 04 be
       -0.060176246 -0.06241608 0.04034614 -0.12910111
000150 e0 64 10 be 35 82 fc bb c9 6f bd bd 74 45 18 be
       -0.14100981 -0.0077059516 -0.09249837 -0.14870244
000160 a6 34 8d 3b dd 2e 0c bd b0 e6 22 bd 33 da 53 be
       0.0043092547 -0.03422438 -0.039770782 -0.20688705
000170 91 ea 67 bd 10 60 82 bd 51 b2 1d bc 7b 9c 4d bd
       -0.056620184 -0.06365979 -0.0096250335 -0.05019806
000180 14 a2 bf bc a7 47 f7 3b 69 bb fa bc c7 07 86 bc
       -0.023392715 0.0075463834 -0.030606942 -0.01636113
000190 3f 73 bb bd 05 98 40 bd 7c 73 b7 bd a7 97 3b 3e
       -0.09152841 -0.047019977 -0.08957574 0.1831957
0001a0 5f c5 54 3d b0 db 1a bd b7 05 4d 3d 5e 54 7e 3d
       0.05194604 -0.037807167 0.05005428 0.062092178
0001b0 1e 19 a2 3d 4b b1 3a bd 33 b2 d8 bd 82 0d 85 3c
       0.07914947 -0.045579236 -0.10580864 0.016241793
0001c0 e7 74 a6 ba 26 3f 93 3d af 89 33 3d d5 32 08 3c
       -0.0012699635 0.07189779 0.043832477 0.008312901
0001d0 81 79 d1 bd 6a dd 92 3d 29 a9 ed 3c 62 62 2d 3d
       -0.10228253 0.07171138 0.029011326 0.042330153
0001e0 2d ec 45 bd 5b 4c fb bc 3d e0 3e bd e5 0d 09 bd
       -0.048320938 -0.030676058 -0.04660057 -0.033460516
0001f0 15 4b 08 3e bb 70 d5 3d 63 0e ae bc cc 66 cc 3b
       0.13309892 0.10421892 -0.021247094 0.0062378403
000200 c9 f4 38 3e 7f 64 bf 3d e4 58 3e 3d d7 d9 4c bc
       0.18062128 0.0934534 0.04647149 -0.012503109
000210 23 8e cf 3d db 06 2f 3d 4e 90 ce 3d e3 1d 9f bd
       0.10134532 0.042731147 0.10086118 -0.07769372
000220 88 c8 4c bd 03 86 87 3c 30 50 06 be 9b 9a 4c bd
       -0.04999593 0.016543394 -0.13116527 -0.04995213
000230 7a f4 0f be e8 a0 b9 3c 24 00 ef 3b 5b 7c 34 3d
       -0.14058104 0.022659734 0.007293718 0.044063907
000240 0b aa 6d 3d f4 23 41 3e 2f d9 3c 3d aa 23 27 bd
       0.058023494 0.18861371 0.04610556 -0.040805496
000250 34 c6 b2 bd 00 66 34 3d 60 9a e7 bc c4 73 01 3d
       -0.087292105 0.044042587 -0.028271854 0.031604543
000260 2c d8 ec 3d ad 13 c6 bd 25 a2 62 bb 40 b7 4c bd
       0.11564669 -0.096717216 -0.003458151 -0.04997945
000270 21 b6 80 bd 62 5b 08 be 58 cb cd bd 7f ab b7 bc
       -0.06284738 -0.1331611 -0.1004855 -0.022420643
000280 47 37 bf bd 02 79 1a bd 52 77 f5 3c f2 87 02 3e
       -0.09336715 -0.03771306 0.029964123 0.12747172
000290 15 47 18 bd 93 e7 d2 bd 75 e7 87 bc 34 a1 83 bd
       -0.037177164 -0.102980755 -0.01658986 -0.064272314
0002a0 08 a2 5b bc 78 a1 53 be ef 0d 8b 3d 50 72 f9 3d
       -0.0134053305 -0.20667064 0.06789767 0.121800065
0002b0 8c b7 3c bd 94 44 19 bb 7f 49 ca bc cc c3 8c bd
       -0.04607348 -0.0023386823 -0.024693249 -0.06873283
0002c0 85 b8 51 bd 72 66 2c bc 64 41 0c be 7c 31 e9 bc
       -0.051201362 -0.010522472 -0.1369682 -0.028465979
0002d0 89 7d d8 3c 83 ac 07 be aa be 6a 3b 85 32 c2 3d
       0.026427047 -0.13249402 0.003581921 0.09482292
0002e0 08 a8 43 3d 2d 48 80 bd c9 15 44 3d 29 22 b6 3c
       0.04776767 -0.062637664 0.04787234 0.022233086
0002f0 57 65 7c 3d 08 03 29 3e a1 35 4a 3e bc d8 9f 3c
       0.061620083 0.16505063 0.1974702 0.019512527
000300 90 fc f3 3d f1 0f 66 3c 47 b5 75 3d e9 19 6a 3e
       0.11913407 0.014041887 0.059987333 0.22861446
000310 79 ed cd 3d 27 9f 0a bd 4a 5a 92 bd 97 e6 75 3d
       0.1005506 -0.033843186 -0.071461275 0.06003436
000320 7c f3 19 3d d7 89 58 3d 8b 65 8a bd fe f6 bd 3d
       0.03758572 0.05286583 -0.06757649 0.09275626
000330 86 68 31 ba b4 20 68 bb 81 31 a7 3d 7a 96 87 3d
       -0.00067675894 -0.0035419883 0.08163739 0.06620498
000340 8b 47 a1 3d 0d 76 d1 bc 0f d1 ae bc f6 35 08 3e
       0.07874974 -0.025568986 -0.021339921 0.13301834
000350 d0 bc 9c bd b7 e8 7b bc 59 d9 5d bc 22 e9 c3 3a
       -0.076532006 -0.015375308 -0.013540589 0.0014946798
000360 fd e9 c7 3d 40 3e ab 3d 9a 18 94 3c f3 94 c6 3d
       0.097614266 0.083614826 0.018078137 0.096963786
000370 8f 7c b6 bc cc 0e 1a 3d f5 cf ea 3d 66 7e 08 3e
       -0.022276191 0.037611768 0.11465446 0.13329467
000380 f8 37 93 3d 22 0a de 3c 41 62 c9 3d 7b 81 ef bd
       0.071884096 0.027104441 0.098331936 -0.11694618
000390 9d a7 2c bd d2 72 bb bd 98 b7 e1 bc bc 53 12 3c
       -0.042152036 -0.091527596 -0.027553365 0.008931097
0003a0 3a 30 6e bc d6 e8 35 be 76 0e 8d bc 2b 47 94 3e
       -0.014537865 -0.17764601 -0.01721881 0.28960547
0003b0 a3 e0 82 bc c3 fb da 3d 82 91 f4 3d ce 56 7b bc
       -0.015976256 0.10692551 0.11941816 -0.01534052
0003c0 ee 68 85 bd a6 16 2b bd 05 16 da bd b8 89 7b 3d
       -0.065141544 -0.041769646 -0.10648731 0.061410636
0003d0 75 5f 89 bd b0 4c 37 3d c4 0f 0e 3d c9 bf 8c 3c
       -0.0670766 0.04475087 0.034683004 0.017181294
0003e0 25 99 e6 3d 3f 22 ce bd 29 10 6d bc 05 37 3c ba
       0.11259679 -0.10065126 -0.014469185 -0.00071798294
0003f0 46 18 5e 3d 0d 29 c5 bd 8d 70 bc 3b 89 89 0a 3e
       0.054222368 -0.096269704 0.005750722 0.13529028

blocks.1.conv.bias f4 [32]
000000 57 e6 90 b7 05 b0 28 b7 8e 87 cc 34 ee 08 41 b7
       -1.7273398e-05 -1.0054563e-05 3.809659e-07 -1.1505776e-05
000010 60 56 cd 36 2e 98 18 37 5d a4 a5 b6 eb 86 1a 37
       6.1195315e-06 9.095338e-06 -4.9365176e-06 9.210528e-06
000020 28 89 27 b7 3c 40 84 37 ac 2d 39 b7 f5 33 8a b7
       -9.98591e-06 1.5765538e-05 -1.1037493e-05 -1.6475076e-05
000030 17 6f 44 b6 88 c8 83 36 1c 41 d2 36 cb 8b a7 b6
       -2.9270939e-06 3.927449e-06 6.2660674e-06 -4.993262e-06
000040 74 10 03 b6 b4 18 88 b7 be 8c 99 b6 17 5c ae 35
       -1.9530098e-06 -1.6223967e-05 -4.57614e-06 1.2990812e-06
000050 a9 77 11 b8 d1 a7 55 b7 80 e8 3c 37 1f 67 80 37
       -3.4682136e-05 -1.2734862e-05 1.1259806e-05 1.5306809e-05
000060 e3 ad de b6 58 ca 21 37 4e a3 22 b4 62 1e 4f 37
       -6.6363586e-06 9.64346e-06 -1.5146836e-07 1.23452355e-05
000070 5f 46 9f b6 e0 48 1c b6 42 5a 9b b6 0e 80 81 b7
       -4.7467615e-06 -2.328823e-06 -4.6298674e-06 -1.5437628e-05

blocks.1.bn.weight f4 [32]
000000 42 57 62 3f 7f 4c 63 3f 2c 3a 4a 3f 0e 88 45 3f
       0.88414395 0.887886 0.78995013 0.7716073
000010 da 47 72 3f 0a 58 51 3f d3 d5 80 3f ef 0b 76 3f
       0.94640887 0.8177496 1.0065254 0.9611196
000020 4f 8b 4f 3f 66 13 58 3f 2d 22 52 3f 30 d2 4b 3f
       0.81071943 0.844046 0.820834 0.79617596
000030 f4 26 4f 3f ca 8e 5c 3f 32 fd 9d 3f 8c dd 50 3f
       0.8091881 0.8615538 1.2342894 0.81588054
000040 2c 7e 3f 3f 45 f0 32 3f 4c 90 6b 3f 14 ca 57 3f
       0.748019 0.6989787 0.92017055 0.8429272
000050 4e 84 86 3f 52 d5 5b 3f f5 57 4c 3f 03 d1 62 3f
       1.0509126 0.85872376 0.7982171 0.88600177
000060 33 f5 5c 3f 2d 7e 55 3f ad 5d 4d 3f b2 91 5c 3f
       0.86311644 0.83395654 0.8022106 0.86159813
000070 48 8b 7a 3f 66 94 34 3f 8c 9d 65 3f 42 41 77 3f
       0.97868776 0.7053894 0.8969352 0.9658395

blocks.1.bn.bias f4 [32]
000000 92 02 4d be 21 9c 26 be ea 50 43 be c2 7e a2 be
       -0.20020512 -0.16270496 -0.19073835 -0.31737334
000010 46 40 a6 be d3 9f 9d be a3 fb 6b be 07 22 8d be
       -0.32470912 -0.30786 -0.2304521 -0.27565023
000020 22 56 23 be 50 23 9e be 6a c2 17 be 0d a8 2c be
       -0.15950826 -0.30886316 -0.14820257 -0.16860981
000030 01 5f 1a be 85 34 75 be f0 d6 0b bf 12 74 8a be
       -0.15075304 -0.23945816 -0.54624844 -0.2704168
000040 51 42 27 be 61 f4 b3 3d 01 cc e6 bd 7e 5e 34 be
       -0.16333891 0.08786846 -0.112693794 -0.17614171
000050 2d 53 78 be 1d c8 6b be 95 e7 93 be cf bb 96 bd
       -0.24250479 -0.23025556 -0.2888762 -0.073600404
000060 f5 11 47 be 6a f8 a7 be 14 58 39 be 71 f1 39 be
       -0.19440444 -0.32806712 -0.18100005 -0.18158509
000070 35 08 0a bf 52 92 09 be f0 29 90 bd ca 83 cd be
       -0.5391877 -0.13434723 -0.07039249 -0.4013961

blocks.1.bn.running_mean f4 [32]
000000 83 27 a1 3e 0e 9e dc bf a6 2f bf be 3b 75 b5 bf
       0.31475458 -1.7235734 -0.3734104 -1.4176401
000010 10 6d 1d c0 3b c3 07 bf da 9a 88 bf 29 03 de 3e
       -2.4597816 -0.53032273 -1.0672257 0.43361786
000020 80 22 9d bf 8b a2 da bf 38 52 ca bf 33 11 f7 bf
       -1.2276154 -1.7080854 -1.5806341 -1.9302124
000030 fc b5 a1 bf 10 fa 94 3f d9 43 86 bf 91 87 fe be
       -1.2633662 1.1638813 -1.0489455 -0.49712804
000040 01 7c e0 3e 11 c5 1f 3c 48 13 20 3f 43 4d 0f c0
       0.43844607 0.009751574 0.6252942 -2.2390907
000050 f7 81 39 bf 8a d1 e9 bf ed 96 c8 bf cc 26 24 be
       -0.72463936 -1.8267071 -1.5671059 -0.16030425
000060 94 b6 e8 be 39 7e 80 bf 2f bc ae bf f9 cf 80 bf
       -0.45451796 -1.003852 -1.3651179 -1.0063468
000070 fc a0 8a bf d5 64 80 bf f5 f9 12 3f 29 57 cd bf
       -1.0830379 -1.0030771 0.57412654 -1.6042224

blocks.1.bn.running_var f4 [32]
000000 5c 32 bc 3f 52 a6 94 3f ca 3d be 3f 2e 7b be 3f
       1.4702868 1.1613257 1.4862607 1.4881341
000010 7c 05 ac 3f 89 2f ac 3f cd 7f a9 3f df fc 85 3f
       1.3439174 1.3452007 1.3242127 1.0467795
000020 ef 7d c4 3f 7f f6 92 3f 56 70 8a 3f e8 2b 92 3f
       1.5350932 1.1481475 1.0815532 1.1419649
000030 79 34 80 3f 75 c0 c4 3f ef 80 0e 40 cf 76 62 3f
       1.0016013 1.5371233 2.2266195 0.8846254
000040 5f b2 e7 3f 37 51 fc 3f 9b ac ae 3f c5 0a 9e 3f
       1.810131 1.9712285 1.3646425 1.2347037
000050 d6 d8 08 40 ad b2 c7 3f fe 97 03 40 ff 31 99 3f
       2.1382346 1.5601403 2.0561519 1.1968383
000060 eb d2 c0 3f ec 4d 9f 3f a4 8f 8c 3f 61 8a 8a 3f
       1.5064367 1.2445655 1.0981336 1.082348
000070 50 72 75 3f 6a 75 5f 3f 81 93 02 40 60 cc 8c 3f
       0.9587755 0.87288535 2.040253 1.099987

blocks.2.conv.weight f4 [32, 32, 3, 3]
000000 3c 71 0a bd eb ae 81 3d f2 a2 8b bb 9a 0c 72 be
       -0.033799395 0.06332191 -0.004261368 -0.2363762
000010 bb 17 25 bd d7 ed a5 3d df 30 e6 bd 15 ed 87 3d
       -0.040305834 0.08102005 -0.1123979 0.06637017
000020 dc 48 8d 3d 6e 5f af 3d 95 51 3f bd 19 09 42 3d
       0.068986624 0.08563124 -0.046708662 0.047371957
000030 65 bc 3a 3d e8 ee 5d 3d 42 0c 9d bd 56 2a b6 bd
       0.045589823 0.054182917 -0.076683536 -0.08894794
000040 c4 e8 5b 3b 3c 44 36 3e 24 e6 ff 3b 5a 08 78 bb
       0.0033555487 0.17799467 0.0078094173 -0.0037846775
000050 dc d3 fa bc 59 32 c8 3c 69 56 25 3d 37 42 23 3d
       -0.0306186 0.02443807 0.04036561 0.03985807
000060 8a 23 08 3d df 7f cf bd 45 c0 1d 3c f8 18 ab 3d
       0.033237018 -0.10131811 0.00962836 0.08354372
000070 2d dd 7a 3c 8d 26 49 bb d5 e8 17 3e 2d bb 8a bd
       0.0153115215 -0.0030693144 0.14834912 -0.06773982
000080 d5 13 a5 bd a9 86 c5 3d d7 7d 9c bd 91 48 e5 bd
       -0.08060423 0.09644825 -0.076411895 -0.111954816
000090 1a fa 52 bc 34 3b d1 bb 0d ec e1 bc 22 30 2a 3d
       -0.012877012 -0.0063852314 -0.027578378 0.04154981
0000a0 27 14 81 bc cc bb b8 3d 37 83 bf 39 20 28 20 bd
       -0.01575668 0.090201944 0.00036528122 -0.039100766
0000b0 c4 f5 9b 3c ee 4f 81 3d 08 88 ff 3d d2 c1 a1 bd
       0.019038089 0.063140735 0.12477118 -0.078982964
0000c0 d0 77 a9 3b 0a 8e 01 bd 88 51 24 3d bd 5f 9c bd
       0.0051717535 -0.0316296 0.040116817 -0.07635448
0000d0 8b 20 de 3d 1c a1 a6 bc 84 59 35 bd aa 16 89 3d
       0.10846051 -0.020340495 -0.044274822 0.06693776
0000e0 e3 f1 66 3d d2 52 e1 bc e2 7e d8 3d c8 17 cf 3d
       0.056383025 -0.027505312 0.10571076 0.10111958
0000f0 dd 38 20 be 39 5a a1 3d e9 d8 ec 3d d3 a8 33 bd
       -0.15646692 0.07878537 0.1156481 -0.043862175
000100 99 06 9a 3d cb d6 46 3d 85 40 28 be a2 07 a7 3d
       0.0752079 0.048544686 -0.16430862 0.08155753
000110 3a ca 8b bd 4f 2d ef bc c0 d1 2c 3d 38 c1 33 3c
       -0.06825681 -0.02919641 0.04219222 0.01097136
000120 15 f1 16 bc 71 12 93 3b a1 41 14 3d ea 6e 7e bc
       -0.009212752 0.0044882824 0.0361954 -0.015529374
000130 11 d4 52 3d 25 7f c7 3c 1b 4f a4 bc 9b 9a b5 3d
       0.051471774 0.02435262 -0.020057252 0.08867379
000140 94 86 f3 3c 17 ea e5 bd 88 43 b4 bb f9 b9 f8 bd
       0.029727258 -0.1122629 -0.0055012144 -0.121448465
000150 d1 9d 7f bd 50 23 6e 3e ee 80 7f 3d 05 77 a8 3b
       -0.062406365 0.23255658 0.062378816 0.0051411414
000160 f0 93 57 3e 20 fc 21 3e 00 f2 50 bd 4c 0f 84 3d
       0.21052527 0.15818834 -0.05101204 0.0644823
000170 24 11 fa 3a a9 50 9e bd a6 c3 9d bc eb 0c 14 3e
       0.0019078595 -0.077302285 -0.019258332 0.14458053
000180 d7 7b c4 bd 33 d6 4c 3d fb 38 ea bc 4b 61 f8 bd
       -0.09593933 0.050008964 -0.028591624 -0.12127932
000190 ea 90 20 be 0a 43 ae bc 48 12 92 bd 27 8f 95 bc
       -0.1568028 -0.021272201 -0.07132393 -0.018256737
0001a0 7c cb e1 3c 10 f2 30 be 69 d1 2a 3d 10 f8 c2 bd
       0.02756285 -0.1727984 0.041703615 -0.095199704
0001b0 ce 87 17 be a1 60 a7 3d e4 18 82 3d 95 fc 16 bd
       -0.14797899 0.081727274 0.06352404 -0.036861975
0001c0 68 33 71 3d 3b 11 69 3d 5e 7c 13 be c9 6e b9 3d
       0.058886915 0.056901198 -0.14402911 0.09054334
0001d0 19 97 6c bd eb 89 08 be 8a 48 08 bd b3 44 59 3c
       -0.057761285 -0.13333862 -0.033272304 0.013261008
0001e0 56 b4 ed bd 5f 81 91 3c 49 e7 d5 3c 4d 7b 1c be
       -0.11606662 0.017761884 0.026111262 -0.1528141
0001f0 01 57 20 bb a0 86 01 3e a0 54 97 3d 64 cd b1 bd
       -0.002446592 0.12649012 0.07389188 -0.08681753
000200 82 e2 1b bc 1c f9 a6 3c d1 25 30 3d c9 a0 84 bd
       -0.009514453 0.020382456 0.043004815 -0.0647598
000210 19 92 b6 3d 80 bb 11 be 98 24 c0 bc 3f 06 99 bd
       0.08914585 -0.14231682 -0.02345495 -0.074718945
000220 4c 2e 87 3d db 57 66 3d 34 85 31 3d d7 e0 6f 3d
       0.06600627 0.05623613 0.043339923 0.058564033
000230 db 65 09 3e 9d 73 01 be 74 62 f3 3d 72 30 5c 3d
       0.13417761 -0.12641759 0.11884013 0.05375714
000240 3e 5a b4 3d d4 d7 64 3d 84 c7 f9 bc 0a 61 b3 bd
       0.08806275 0.055869892 -0.030490644 -0.08758743
000250 c5 50 05 be ad ff 0f be 84 0a 46 3d 80 5b 85 3d
       -0.13019092 -0.14062376 0.048349872 0.06511593
000260 1d 4f 03 be e0 c0 20 bd f1 9d 47 bc e7 17 c2 3b
       -0.12823148 -0.03924644 -0.012183652 0.0059232595
000270 2a 35 20 be 4c 90 ea bd ad 41 15 3e fe 6d b0 3d
       -0.1564528 -0.11453304 0.14575835 0.08614729
000280 54 41 26 3e 10 f3 87 3d 5f 1b c6 bc fa 7e 3a 3d
       0.16235858 0.06638157 -0.024182973 0.04553125
000290 c6 83 d7 bd cc 94 cf bc 5c c2 51 bd f2 ee 5e 3d
       -0.10523181 -0.025339507 -0.051210746 0.054427095
0002a0 bd e0 f1 bd 00 ae 4a bd a6 5d 1e bd 89 35 ec 3c
       -0.118104436 -0.049482346 -0.03866353 0.028834121
0002b0 03 3e d6 bc 88 38 fe 3d 0a 18 f4 bb 9c 1b 87 3c
       -0.026152616 0.12413126 -0.0074491547 0.016492657
0002c0 6c 6e 8f 3d 74 ba 9c 3c 0e bb 8c bd a7 e1 8d 3d
       0.07003483 0.019131877 -0.06871615 0.069278054
0002d0 6f 42 8d bd 29 e1 9c bd 86 67 66 3d 2a 12 8b 3c
       -0.06897437 -0.076601334 0.05625107 0.016976435
0002e0 58 26 d2 bd bb f3 92 bd 47 11 ce bb 20 5d a9 bd
       -0.1026122 -0.07175394 -0.0062886807 -0.08269715
0002f0 ce d6 ea bd c1 77 6b 3d ad e4 9f bc 8c 2a 99 3d
       -0.11466752 0.057487253 -0.01951822 0.07478818
000300 02 d5 93 3d bc 39 05 3d 3d 9e 65 3d 34 35 b1 3d
       0.072183624 0.032525763 0.05605911 0.08652726
000310 59 0b 01 3e bc 72 ac bd 18 cd a8 3d 9f 47 67 3d
       0.12601985 -0.08420321 0.082422435 0.056464788
000320 1d de d3 3d dd e1 09 3e 7a cf 68 3d a0 d6 20 bd
       0.10345099 0.13465066 0.05683849 -0.039267182
000330 c2 95 84 3c 1e f7 12 3b 57 c2 d5 3d 4b 4b e8 bc
       0.016184691 0.0022425125 0.10437458 -0.028356215
000340 19 f9 0d 3d 10 80 70 3d 73 eb c1 bd 2e 17 3e 3c
       0.034661386 0.05871588 -0.094687365 0.011602206
000350 a8 9e 6a 3d c1 85 75 3c 81 78 e8 3d e9 25 8c 3d
       0.057280213 0.014985503 0.11351109 0.06843168
000360 bb 58 86 bd e5 f4 b6 bd 30 4b 03 3c a1 70 76 bd
       -0.06559893 -0.08933429 0.008013532 -0.060166005
000370 3a 51 35 be c8 55 ba 3d c3 7a 0c 3d d7 aa a7 bd
       -0.17706767 0.09098393 0.034296762 -0.08186882
000380 02 d1 24 bd 27 1f 1b bc 2e 36 96 ba dd 15 89 be
       -0.040238388 -0.0094678765 -0.0011460239 -0.26774493
000390 55 e2 55 bc dc 35 cd 3c cd 80 99 bd 83 98 d1 bd
       -0.01305445 0.025050096 -0.0749527 -0.102341674
0003a0 77 0c 22 3d b8 a1 0e 3c e6 e9 20 3d 8f 4e 24 3d
       0.03956267 0.008705549 0.039285563 0.04011398
0003b0 52 36 ef bd 26 af 25 3c 6c 7f 11 3e b6 d7 90 bd
       -0.11680283 0.010112559 0.14208764 -0.070723936
0003c0 41 ae ac bd 88 c9 d2 3d 64 cd 45 bd 8b 1a ed 3c
       -0.08431674 0.10292345 -0.04829158 0.02894332
0003d0 a2 94 35 3d 1b e9 f5 bd 9e bd cd 3d f1 e6 0c 3d
       0.0443312 -0.12007352 0.10045932 0.03439993
0003e0 31 c1 e7 3d 23 79 39 3d a8 46 a9 3d 40 30 96 bd
       0.11316145 0.04528154 0.0826543 -0.07333422
0003f0 8e 10 03 bd 97 4b 81 3c 18 9d 2f bd 2e 45 de 3c
       -0.03199821 0.015783114 -0.042874426 0.027132597

blocks.2.conv.bias f4 [32]
000000 3f 42 2e b6 62 7b a3 34 cb c2 a5 b7 6c 23 4f 37
       -2.596658e-06 3.045089e-07 -1.976024e-05 1.2346409e-05
000010 10 bc 00 b8 12 19 8f b6 2f 8c 22 b7 1e d3 f0 b6
       -3.0692725e-05 -4.2646507e-06 -9.6885915e-06 -7.1771346e-06
000020 9c cd 60 b5 d7 2b aa b6 5f d3 b2 b6 df d9 1b 37
       -8.3745704e-07 -5.0714984e-06 -5.32942e-06 9.289447e-06
000030 33 52 8e b6 e9 5a 64 37 fa 0b 02 38 a4 81 07 37
       -4.241499e-06 1.3611026e-05 3.100557e-05 8.076811e-06
000040 a4 b3 13 36 75 dc 9a 37 ef b8 5d b6 d9 ec fe b4
       2.2009272e-06 1.8460889e-05 -3.3039212e-06 -4.7483516e-07
000050 70 e2 5b 36 83 11 92 36 0a c4 63 b6 53 05 7b b6
       3.2765347e-06 4.3531777e-06 -3.3939746e-06 -3.7405014e-06
000060 dd 79 2e 37 56 50 12 37 41 b3 8a b6 85 bd 81 35
       1.0399582e-05 8.720983e-06 -4.1335884e-06 9.666406e-07
000070 7e c1 31 37 fa c1 9f b7 40 2c 2b b7 ef 0d d5 b6
       1.0595073e-05 -1.9044604e-05 -1.0202697e-05 -6.3495168e-06

blocks.2.bn.weight f4 [32]
000000 95 d4 59 3f cd d7 54 3f 4f 7a 54 3f d2 b8 82 3f
       0.8509 0.83141786 0.8299913 1.0212653
000010 9e 23 80 3f 3d 88 45 3f e4 cd 6f 3f 32 53 8e 3f
       1.001087 0.7716101 0.9367354 1.1119139
000020 49 c7 4d 3f 79 3a 86 3f be 94 56 3f 9a dd 61 3f
       0.8038221 1.0486594 0.8382071 0.8822876
000030 af a7 64 3f 13 58 51 3f 7a 14 7a 3f 94 93 77 3f
       0.89318365 0.81775016 0.97687495 0.9670956
000040 40 d7 17 3f d8 76 68 3f 80 da 54 3f 2e 9d 53 3f
       0.5931282 0.9080634 0.83145905 0.8266171
000050 f4 28 77 3f c8 7c 6d 3f 61 f7 77 3f cd 72 64 3f
       0.96546865 0.92768526 0.96861845 0.8923767
000060 fe 3a 54 3f 1a 54 60 3f 01 b3 6f 3f b4 db 81 3f
       0.82902515 0.8762833 0.93632513 1.0145173
000070 22 68 5c 3f f0 3d 66 3f 7a 97 5c 3f cb 2b 6c 3f
       0.86096394 0.8993826 0.86168635 0.9225432

blocks.2.bn.bias f4 [32]
000000 13 68 61 be 16 26 2a be e6 1e d3 bd 0f 6e d2 be
       -0.22012357 -0.16616091 -0.10308628 -0.41099593
000010 d2 30 0e be 34 91 88 be bc a1 2b be 64 1f 8b be
       -0.13885811 -0.2667328 -0.16760916 -0.27172387
000020 71 6a 5b be b0 78 d0 be ee 82 70 be 38 79 cd bd
       -0.21427323 -0.40717077 -0.23487446 -0.10032886
000030 77 55 bc bd a4 f8 7f be 76 f8 54 be 30 3d aa bd
       -0.091959886 -0.24997193 -0.20797905 -0.08312452
000040 c9 4d 52 bd fc 9e 18 be 13 fb 8d be 6c 4d 5c be
       -0.051343713 -0.14904398 -0.27730617 -0.21513909
000050 e7 40 52 be 94 8e 57 be 1d 5c fd be 7f a0 48 be
       -0.20532571 -0.21050483 -0.4948434 -0.19592474
000060 01 b7 e8 bd 29 da 5e be f4 dc 1d be 9f 56 ad be
       -0.1136303 -0.21762909 -0.15416318 -0.3385515
000070 d0 bf 22 be 36 21 a8 3c 41 41 b7 3d cb e9 93 be
       -0.15893483 0.020523649 0.08947993 -0.28889307

blocks.2.bn.running_mean f4 [32]
000000 22 1b d3 3d ea 4b fb bf 89 df f3 bf c7 2e d0 bf
       0.103079095 -1.9632542 -1.9052593 -1.6264275
000010 b2 19 87 bf 1e 3e 8f be 4c f0 a0 bf 62 4f da 3e
       -1.0554717 -0.2797708 -1.2573333 0.4263869
000020 57 5e 7e bf 29 3f 44 be ea b1 89 bf cc 14 be bf
       -0.993627 -0.19164719 -1.075742 -1.4850097
000030 83 05 c6 bf ba ad d2 bf 86 88 58 bf a5 11 e2 bf
       -1.5470432 -1.6459267 -0.8458332 -1.7661635
000040 c1 44 1a 40 8a 2f e3 3f f7 9d fa 3e c0 da 46 bf
       2.4104464 1.7748883 0.48948643 -0.77677536
000050 91 12 f0 3e d0 a7 cf bf db af c0 3e 6d b5 91 bf
       0.46889165 -1.6223087 0.37634167 -1.1383492
000060 bf ad 4e bd 30 92 04 3f d3 c8 04 c0 f8 e0 20 c0
       -0.050458666 0.51785564 -2.0747573 -2.513731
000070 59 6e db 3e a1 82 88 be 78 5b f1 be f2 5b c8 bb
       0.42857626 -0.26662162 -0.47140098 -0.0061144764

blocks.2.bn.running_var f4 [32]
000000 d8 2a dd 3f 79 45 30 40 9c 17 c0 3f af ea 02 40
       1.72787 2.7542403 1.5007205 2.045574
000010 d2 f0 69 40 7e 1c a4 3f 29 cd 19 40 49 a0 ae 3f
       3.6553235 1.2821195 2.403147 1.3642665
000020 13 0c 00 40 a6 46 37 40 ba 38 cc 3f 7e 7a cb 3f
       2.000737 2.863687 1.5954812 1.5896757
000030 88 8c 6e 40 2c 2b b9 3f aa 49 12 40 03 f6 41 40
       3.7273273 1.44663 2.285746 3.0306404
000040 f8 4a 38 40 21 d1 1e 40 3a 53 d5 3f 61 28 c8 3f
       2.8795757 2.4815142 1.6666024 1.5637323
000050 3d 44 ef 3f 2e f8 13 40 68 66 16 40 ea ce 00 40
       1.86927 2.3120227 2.3500004 2.012629
000060 1e fc f3 3f 13 d4 d6 3f 47 c6 c4 3f ab 40 69 40
       1.9061315 1.678347 1.537301 3.644572
000070 44 91 1b 40 dd 77 bd 3f 19 89 13 40 3c 0a ec 3f
       2.4307413 1.4802204 2.3052428 1.8440623
